experiments/ppo_spy_indicators_20251206_121418/best_model.pth (torch, 579189 bytes, 21 tensors)

shared_net.0.weight f4 [128, 303]
0	0xbe0c4767	-0.13699113
1	0xbe2b93fa	-0.16755667
2	0x3e3a98f9	0.18222417
3	0xbcb0b6d3	-0.021571552
4	0x3dc37481	0.09543706
5	0xbd7a4a0d	-0.061105777
6	0xbc1f6e38	-0.009730868
7	0x3b88a3e7	0.0041699293
8	0xbd68c0ad	-0.056824375
9	0x3b9eabd6	0.004842262
10	0xbbeeb99f	-0.0072853114
11	0x3e05ee35	0.1307915
12	0xbc513564	-0.012769077
13	0x3dadf36a	0.08493693
14	0x3d954e30	0.07290304
15	0x3d2d5ba2	0.042323716
16	0x3d04878b	0.032355826
17	0x3e20b163	0.15692668
18	0x3da6e708	0.081495345
19	0xbb3615c9	-0.002778398
20	0x3dcd269b	0.10017129
21	0xbdff9fa2	-0.124816194
22	0xbcf35a2c	-0.029706083
23	0xbdda193e	-0.10649346
24	0xbe3ea8be	-0.18619058
25	0xba8280be	-0.0009956581
26	0xbcbd41a5	-0.02310259
27	0x3cd604e1	0.026125373
28	0xbd9c65a8	-0.07636577
29	0x3d0cf880	0.034416676
30	0x3bfce405	0.0077176117
31	0xbdbd7b6f	-0.09252059
32	0xbc988f62	-0.018623058
33	0xbcc2bdb8	-0.023772106
34	0xbcd474a5	-0.025934527
35	0xbd0eb9c0	-0.034845114
36	0x3ca6db47	0.020368231
37	0x3dac8170	0.08423126
38	0xbd2c85ab	-0.042119663
39	0xbe08d515	-0.13362534
40	0x3d94860a	0.072521284
41	0x3df2f270	0.118626475
42	0x3ccae260	0.024766147
43	0xbdd4abd0	-0.10384333
44	0x3ca1c295	0.019746104
45	0x3d032721	0.032019738
46	0xbd9c3f28	-0.076292336
47	0xbd1cf1b8	-0.03831646
48	0xbd91b4a2	-0.07114531
49	0x3cd37013	0.025810277
50	0xbcbf3e63	-0.023345178
51	0xbd10719f	-0.035264608
52	0x3d3f3fba	0.046691634
53	0x3cb73ddb	0.022368362
54	0xbbecb6a0	-0.007223919
55	0xbd4d54c4	-0.050129667
56	0xbcaf97b4	-0.021434642
57	0x3d6cb55f	0.057790156
58	0x3d9863c5	0.074409045
59	0xbe09f783	-0.13473324
60	0x3d2f4fdb	0.042800765
61	0xbc866f50	-0.0164105
62	0x3d2267ba	0.039649703
63	0xbdb919cc	-0.090381235
64	0x3cc9afe6	0.024620008
65	0x3bebb977	0.00719374
66	0x3dc60d79	0.096705385
67	0x3e2610a8	0.16217291
68	0x3d253102	0.04032994
69	0x3d023c83	0.03179599
70	0xbd25b97c	-0.040460095
71	0xbd59d1b6	-0.05317851
72	0x3d443b1e	0.04790794
73	0x3c31f06b	0.010860543
74	0xbc30a660	-0.010781854
75	0x3dcc65b0	0.09980333
76	0xbd8ae696	-0.06782262
77	0x3caa37c8	0.020778552
78	0xbd201455	-0.03908189
79	0xbc2cda88	-0.010550149
80	0x3cd826df	0.026385723
81	0xbd7018ec	-0.058617517
82	0xbce8eb37	-0.028432472
83	0x3bc5c6bd	0.0060356543
84	0xbd476b8f	-0.04868656
85	0x3dbe273a	0.092848256
86	0x3d5585e3	0.052129637
87	0xbe4c26a1	-0.19936611
88	0x3d6fd344	0.058551088
89	0xbd96b883	-0.073594116
90	0x3d42714b	0.047471326
91	0x3e3bbb30	0.18333125
92	0x3ca50f8d	0.020149017
93	0x3d0e4511	0.034733836
94	0xbb53caa4	-0.0032316828
95	0xbca5dcf4	-0.02024696
96	0x3de9ca82	0.114155784
97	0xbd499111	-0.04921061
98	0x3d96c9f3	0.073627375
99	0x3e504d5c	0.2034201
100	0x3d1845a2	0.037175782
101	0xbe05daa0	-0.1307168
102	0x3e157d51	0.14598586
103	0x3dd34f31	0.10317839
104	0xbca27352	-0.01983038
105	0x3d40b34a	0.047045983
106	0x3d266449	0.040622983
107	0xbdd13a4a	-0.10216196
108	0x3d872dc0	0.06600523
109	0x3cc5cec8	0.024146453
110	0x3d9dc9b6	0.07704489
111	0xbe00b4c7	-0.12568961
112	0xbb750fa0	-0.0037393346
113	0xbe421576	-0.18953499
114	0xbd74bb38	-0.05974886
115	0x3e102ed0	0.14080358
116	0xbe8b0725	-0.27153888
117	0xbb75d297	-0.0037509555
118	0x3e826f14	0.2547537
119	0x3ca8d090	0.020607263
120	0x3dc4c1da	0.09607287
121	0xbcb4aae2	-0.02205414
122	0xbd8d904a	-0.069122866
123	0xbd4de130	-0.050263584
124	0x3d7d0807	0.061775234
125	0x3cb6207d	0.022232288
126	0xbdb2295a	-0.086992934
127	0x3dea33e9	0.11435682
128	0x3e183c28	0.14866698
129	0xbd4cfbc8	-0.050044805
130	0x3d2e4d79	0.042554352
131	0xbde12185	-0.109927215
132	0x3df7332c	0.12070307
133	0x3c95d200	0.018288612
134	0xbd3cef8d	-0.04612689
135	0xbe1c298d	-0.15250225
136	0x3b9c48b2	0.004769408
137	0x3dbb389e	0.09141658
138	0xbe0c8633	-0.13723068
139	0x3d580547	0.052739408
140	0xbd5b0f0a	-0.05348114
141	0x3cd8248f	0.02638462
142	0xbca979ad	-0.020687902
143	0x3c37f1c7	0.011227078
144	0x3c9521da	0.018204618
145	0xbc8304e4	-0.015993543
146	0x3e21413f	0.15747546
147	0xbce900df	-0.028442798
148	0xbd34fcb7	-0.04418632
149	0x3e1f3bde	0.15550181
150	0xbd016231	-0.031587783
151	0xbdf272c6	-0.118382975
152	0x3d5df89b	0.054192167
153	0xbdf9a4e0	-0.121896505
154	0xbd78d209	-0.06074718
155	0x3ddf9f7d	0.10919092
156	0xbd5b860a	-0.053594626
157	0x3d748587	0.059697654
158	0x3dd6afcc	0.10482749
159	0xbcb85fff	-0.022506712
160	0xbc208d18	-0.009799264
161	0x3d8023ad	0.062568046
162	0x3d970213	0.073734425
163	0xbdd20c69	-0.10256273
164	0x3d68e207	0.05685618
165	0xbdb46c2d	-0.088096954
166	0x3db8eda5	0.09029702
167	0xbba4e9d8	-0.005032759
168	0xbd6bf3ac	-0.05760543
169	0xbd0637d7	-0.032768097
170	0x3d619203	0.05507089
171	0x3c03481b	0.008012797
172	0xbd9f57d9	-0.077804275
173	0xbdac7ff2	-0.08422841
174	0xbdc172b7	-0.09445708
175	0xbb610760	-0.0034336671
176	0xbd7585c5	-0.059942026
177	0x3d0c9a5c	0.034326896
178	0xbca22979	-0.019795166
179	0x3dcd1720	0.10014176
180	0xbd2ce56d	-0.042210985
181	0xbdb9ffad	-0.090819694
182	0xbd584afc	-0.052805886
183	0xba49487a	-0.00076783414
184	0x3d04119f	0.032243367
185	0x3c51d050	0.012806013
186	0x3d8bc129	0.06823952
187	0x3de06b19	0.10957927
188	0x3cc78066	0.024353217
189	0xbddd5a01	-0.108081825
190	0xbe0d6ea6	-0.1381174
191	0x3c6c6345	0.014427965
192	0xbe32c0f4	-0.17456418
193	0x3e231a77	0.15928064
194	0xbc2da387	-0.01059807
195	0x3d2383d2	0.039920636
196	0x3ca39754	0.01996962
197	0x3d21e6f8	0.03952691
198	0x3d05b803	0.03264619
199	0xbc95fc7a	-0.018308867
200	0x3db55e41	0.08855868
201	0xbd6c9330	-0.057757556
202	0x3d1f7d75	0.038938005
203	0x3d00305a	0.03129611
204	0xbe111154	-0.14166766
205	0x3e3aebaf	0.18253969
206	0xbd0ff733	-0.035147857
207	0x3d553695	0.052054007
208	0x3bc7a1be	0.006092279
209	0x3cd125a7	0.02553065
210	0xbc8adaf0	-0.0169501
211	0x3dab3f8e	0.083617315
212	0x3beaad00	0.0071617365
213	0xbd573252	-0.052538224
214	0x3cab1bfd	0.02088737
215	0xbd53a56d	-0.051671434
216	0x3dbd7786	0.09251313
217	0x3e024c66	0.12724456
218	0x3d5485e6	0.051885508
219	0x3dd1992f	0.102342956
220	0xbe393930	-0.18088222
221	0x3df877ea	0.12132247
222	0xbd52ea90	-0.051493227
223	0x3d6f0d68	0.058362395
224	0xbd3a008c	-0.045410678
225	0xbdc8accf	-0.097985856
226	0x3cc2b42e	0.023767557
227	0xbc1f91be	-0.0097393375
228	0x3de11722	0.1099074
229	0x3db1cc4f	0.08681547
230	0x3de19347	0.11014419
231	0xbd195901	-0.037438396
232	0x3d5b1ffe	0.053497307
233	0xbbaca5c4	-0.0052687842
234	0x3da04ffd	0.078277566
235	0x3d406801	0.046974186
236	0xbba7f20b	-0.0051252893
237	0xbdd4c481	-0.10389043
238	0xbdcfd888	-0.10148722
239	0xbe0048f6	-0.12527832
240	0xbd8b9d12	-0.06817068
241	0xbd8eec4c	-0.06978664
242	0xbd2bf70a	-0.04198364
243	0xbd0acad4	-0.03388484
244	0xbd82f39e	-0.063941225
245	0xbe0e5ade	-0.1390185
246	0xbdb1b1c7	-0.086764865
247	0x3c605a15	0.013693352
248	0x3c9cc371	0.019136162
249	0x3ddc286e	0.10749899
250	0xbd3cb3c3	-0.04606987
251	0xbde444b4	-0.111459166
252	0x3ce7c0a9	0.02829011
253	0xbce5a4b7	-0.028032644
254	0x3d1bc48e	0.038029246
255	0xbd8ba7f8	-0.06819147

shared_net.0.bias f4 [128]
0	0x3d86ef15	0.0658857
1	0xbd802c48	-0.06258446
2	0x3d57328d	0.052538443
3	0xbd70b986	-0.05877068
4	0x3d885e81	0.0665865
5	0xbd7d46aa	-0.06183497
6	0x3d2fb4be	0.04289698
7	0xbd62402b	-0.055236977
8	0x3d4e2818	0.050331205
9	0x3d5b5bc3	0.053554308
10	0xbd5b5f7c	-0.053557858
11	0x3ce05780	0.027385473
12	0x3caebf42	0.021331433
13	0xbd633721	-0.055472497
14	0xbc363d5a	-0.011123026
15	0x3cf50926	0.029911589
16	0xbd8198fd	-0.06328008
17	0xbd828f26	-0.0637496
18	0x3d6186fc	0.05506037
19	0x3d63d85e	0.055626266
20	0xbd6f635a	-0.05844436
21	0xbd872023	-0.065979265
22	0x3d454cd2	0.048168965
23	0xbcec4e0a	-0.028845806
24	0x3d5831ba	0.052781798
25	0xbd2d60a5	-0.042328496
26	0x3d11b8d4	0.035576656
27	0x3cf72570	0.030169219
28	0x3d6ba399	0.057529066
29	0x3cb057dc	0.02152627
30	0x3c5b8971	0.013399468
31	0x3d740df1	0.059583608
32	0x3d762f5b	0.060103755
33	0xbd3156dc	-0.043295726
34	0xbd36ee86	-0.044661067
35	0xbd74fe95	-0.0598131
36	0xbd223886	-0.039604686
37	0xbd30314e	-0.04301577
38	0x3cfb0188	0.030640379
39	0x3d5b1627	0.053487923
40	0xbd63482f	-0.05548876
41	0xbd4d4860	-0.05011785
42	0xbd519de9	-0.051175985
43	0xbc71de96	-0.014762541
44	0xbd6f79f2	-0.058465905
45	0xbd6fc506	-0.058537506
46	0xbd4216e0	-0.047385097
47	0x3d9679af	0.07347428
48	0x3d8baa4c	0.06819591
49	0xbd606ca8	-0.054791123
50	0x3ac7e4cc	0.0015250682
51	0x3d690c2d	0.056896377
52	0x3d455e3f	0.048185583
53	0xbd8416a4	-0.06449631
54	0xbd6a215c	-0.05716072
55	0xbd830d6b	-0.06399044
56	0x3d4b1d93	0.04958875
57	0xbd667225	-0.0562612
58	0xbd5d72db	-0.054064613
59	0xbd860b6b	-0.065451466
60	0x3d47beaf	0.048765834
61	0x3cc3bf8e	0.023895051
62	0x3d07ed3e	0.033185236
63	0xbd69bb62	-0.057063468
64	0x3d6b09ce	0.057382397
65	0x3d6f732b	0.058459442
66	0x3d67f24c	0.056627557
67	0x3d3b2242	0.045686968
68	0xbd80b282	-0.06284048
69	0xbd8f7ecc	-0.070066065
70	0x3d5bc2c6	0.053652547
71	0x3d5d85ca	0.05408267
72	0xbd97ac18	-0.07405871
73	0xbd005bf6	-0.0313377
74	0xbd4d5e64	-0.050138846
75	0x3d5b1456	0.05348619
76	0x3d787a6d	0.06066363
77	0x3d3c7790	0.04601246
78	0xbcdca804	-0.026935585
79	0x3d6e7482	0.05821658
80	0x3da52a23	0.080646776
81	0xbd1d2aa7	-0.038370755
82	0x3d5729f8	0.05253026
83	0x3db6d427	0.089271836
84	0x3c329aef	0.010901197
85	0xbd6fb320	-0.058520436
86	0x3d8988c8	0.06715542
87	0xbd85f99f	-0.06541752
88	0x3d27aee3	0.04093827
89	0xbd6853e5	-0.056720633
90	0x3d6c4b1c	0.057688817
91	0x3d8226ca	0.06355055
92	0x3d1ba7ff	0.03800201
93	0x3d258ae1	0.04041565
94	0x3d681de3	0.056669127
95	0x3d6d0abd	0.05787157
96	0xbd66a99d	-0.0563141
97	0xbd34fc73	-0.044186067
98	0x3ce485d4	0.027895845
99	0x3bb4c182	0.005516232
100	0x3d9575d2	0.07297863
101	0x3d7ea65e	0.06217038
102	0xbd613f5b	-0.05499206
103	0x3d8f0eca	0.06985243
104	0xbd865bc0	-0.06560469
105	0xbd3f320f	-0.0466786
106	0x3d567e54	0.05236657
107	0x3d8640b7	0.06555312
108	0x3d7213af	0.059100803
109	0xbd542f81	-0.051803116
110	0x3d6c24b5	0.057652194
111	0xbd3b4bf4	-0.04572673
112	0xbd75c312	-0.060000487
113	0x3d2ecc81	0.0426755
114	0x3cad3417	0.021143002
115	0x3d7741b8	0.06036541
116	0x3ceb821c	0.028748564
117	0xbcf6c555	-0.030123392
118	0x3d2ab038	0.04167196
119	0x3d33106e	0.04371684
120	0xbd874cff	-0.06606483
121	0xbd6dc6ea	-0.058051027
122	0x3d644ec7	0.05573919
123	0x3d5e0dea	0.05421249
124	0x3d96e89d	0.07368586
125	0xbd79ced2	-0.060988255
126	0x3d5cc7ac	0.05390136
127	0x3d7ee733	0.062232208

shared_net.3.weight f4 [64, 128]
0	0xbe8384e2	-0.2568732
1	0x3cb856a9	0.02250226
2	0xbbbce6bd	-0.005764811
3	0xbd0f74bd	-0.03502344
4	0xbaa8976b	-0.0012862509
5	0xbcfcd420	-0.030862868
6	0x3da13eac	0.07873282
7	0xbe0eaee3	-0.13933901
8	0xbcbdf0f7	-0.02318619
9	0x3c35d67a	0.0110984985
10	0xbde41fbf	-0.111388676
11	0xbd31083b	-0.04322074
12	0xbd1f3153	-0.0388654
13	0xbdad99be	-0.084765896
14	0xbe32042e	-0.17384407
15	0xbd9574d1	-0.072976716
16	0xbd2c023b	-0.041994315
17	0xbd50b25b	-0.050951343
18	0xbb3d72a7	-0.002890745
19	0xbdbc9608	-0.09208304
20	0x3e28cb80	0.16483879
21	0x3dedebe1	0.11617256
22	0xbe0362d4	-0.12830669
23	0x3c857e5a	0.0162956
24	0xbea6eaf3	-0.32601127
25	0x3d89b083	0.0672312
26	0xbd5af605	-0.05345728
27	0x3e5c7371	0.21528412
28	0xbc1e446f	-0.0096598705
29	0x3c0e143f	0.008671819
30	0x3eab1cc4	0.33420384
31	0xbe67333a	-0.22578135
32	0x3c5a9a49	0.0133424485
33	0x3d6b03af	0.05737656
34	0xbe0f7b36	-0.14011845
35	0x3ebe6102	0.37183386
36	0x3c5c81ca	0.0134586785
37	0x3e26938c	0.16267222
38	0x3db54cf6	0.0885257
39	0xbe123fe7	-0.1428219
40	0xbe11715d	-0.14203401
41	0x3e225772	0.1585367
42	0x3d4377ce	0.047721677
43	0x3e9c8e46	0.30577296
44	0xbdf4b34a	-0.11948259
45	0x3e2efadc	0.17087883
46	0xbe192ace	-0.14957735
47	0xbe07df17	-0.13268696
48	0x3e42fe8c	0.19042414
49	0xb9897dc4	-0.0002622438
50	0xbe67f10d	-0.22650547
51	0xbdd75d4d	-0.105158426
52	0x3dbb5de4	0.091487676
53	0x3d6fea7f	0.058573242
54	0x3dd0272f	0.10163724
55	0xbdf6f371	-0.120581515
56	0xbde6e0cd	-0.11273346
57	0x3ce1924a	0.027535576
58	0x3e058b32	0.1304138
59	0xba9b3149	-0.001184025
60	0xbd81d34b	-0.06339129
61	0x3d115923	0.035485398
62	0x3d6a7688	0.057241946
63	0xbd5f415f	-0.054505702
64	0xbe78e087	-0.243044
65	0x3cef4a10	0.02921012
66	0xbdb36166	-0.08758812
67	0x3e23738e	0.1596205
68	0x3e7db9ae	0.24777862
69	0xbd41b8d1	-0.047295395
70	0xbdb09e5f	-0.08623957
71	0xbd39cf1b	-0.045363527
72	0x3d7907a8	0.060798317
73	0x3ddf62df	0.1090753
74	0x3d71a12f	0.058991607
75	0x3d1b5d1f	0.037930604
76	0x3d0cfc4e	0.034420304
77	0x3cb314f8	0.021860585
78	0xbdd1aa6f	-0.10237586
79	0xbe651edb	-0.22375052
80	0x3e563557	0.20918785
81	0x3dfd3741	0.123640545
82	0x3d29bff2	0.04144282
83	0xbd215e26	-0.039396428
84	0x3c6cf3e5	0.014462446
85	0xbe436e69	-0.19085087
86	0xbdda546c	-0.106606334
87	0xbd66f2b6	-0.05638381
88	0x3e539839	0.20663537
89	0x3d5dc2ff	0.05414104
90	0xbda0ee7b	-0.078579865
91	0xbdac1ae4	-0.084035665
92	0xbe0130b3	-0.12616234
93	0x3d736c5f	0.059429523
94	0xbcbf98cc	-0.023388289
95	0xbabfa74b	-0.0014622001
96	0xbe3e70d7	-0.18597732
97	0xbe02b234	-0.12763292
98	0x3ce32924	0.027729578
99	0x3d396a23	0.045267235
100	0xbe32a931	-0.17447354
101	0xbe134392	-0.14381245
102	0xbe1353c9	-0.1438743
103	0xbd8ab084	-0.06771949
104	0x3d590fda	0.052993633
105	0xbd66c7af	-0.056342777
106	0xbd3b48bc	-0.04572366
107	0xbe8f8da3	-0.28037748
108	0x3de4d2ec	0.11173043
109	0xbbabb5a2	-0.005240158
110	0x3cea187b	0.028576126
111	0xbd943317	-0.07236307
112	0x3d8d65c8	0.06904179
113	0x3b3a62fa	0.0028440342
114	0xbdc5f8de	-0.09666608
115	0xbc76ff99	-0.015075588
116	0x3dff7246	0.12472968
117	0x3e6c8e04	0.2310105
118	0x3da9ac0a	0.08284767
119	0xbde6e0a2	-0.11273314
120	0xbda17c00	-0.07884979
121	0x3d98c90e	0.07460223
122	0x3dd3c15d	0.103396155
123	0x3d11f14b	0.035630506
124	0x3d9e5371	0.07730759
125	0x3dbe4015	0.092895664
126	0xbd69dfcf	-0.057098206
127	0x3c87e810	0.016590148
128	0xbc960ccf	-0.018316654
129	0x3c8dddf6	0.017317753
130	0x3db16571	0.086619265
131	0x3dca2d5a	0.098719314
132	0x3c284c66	0.010272121
133	0xbe08efaf	-0.13372682
134	0xbc447ccb	-0.011992644
135	0x3be69f01	0.0070379977
136	0xbd68aac6	-0.056803487
137	0x3d5e591b	0.054284196
138	0x3e3ef339	0.1864747
139	0xbdaece5d	-0.085354544
140	0x3d763ac8	0.060114652
141	0x3da16271	0.07880104
142	0xbdc0abf0	-0.094077945
143	0x3e177ce0	0.1479373
144	0xbcab4b16	-0.020909827
145	0xbb403625	-0.0029329148
146	0xbd04cc4b	-0.03242139
147	0x3e199b51	0.15000655
148	0xbe5e5420	-0.21711779
149	0x3dab994f	0.08378851
150	0x3def5df6	0.116878435
151	0x3dc79842	0.09745838
152	0xbd8f5f3b	-0.07000586
153	0x3e0bc724	0.13650185
154	0xbe4c2c7b	-0.19938843
155	0xbcacd9d5	-0.021099964
156	0xbdbc945c	-0.09207985
157	0xbe6507cb	-0.22366254
158	0xbc54d5aa	-0.012990395
159	0x3d8d19a7	0.068896584
160	0xbe80fef7	-0.25194523
161	0xbcad3c7c	-0.021147005
162	0x3e149909	0.14511503
163	0x3d17900b	0.037002604
164	0xbdf84e8e	-0.12124358
165	0xbd6d6eee	-0.05796712
166	0x3da9ebb8	0.08296913
167	0xbe0a842d	-0.13526984
168	0x3dda8fe0	0.10671973
169	0x3ded0042	0.11572315
170	0xbd80f61e	-0.06296943
171	0xbe066446	-0.13124189
172	0xbde2bbe1	-0.11070991
173	0xbadbbca5	-0.0016764594
174	0xbb8f5431	-0.00437405
175	0x3dec5105	0.11538891
176	0x3df6fb01	0.12059594
177	0x3e188d7e	0.14897725
178	0xbe033537	-0.12813269
179	0xbe1e1f7f	-0.15441702
180	0xbe677529	-0.22603287
181	0xbdbbce77	-0.091702394
182	0x3e1ac392	0.15113667
183	0xbe31cfbc	-0.173644
184	0xbce2e467	-0.027696801
185	0x3dc5c14b	0.09656008
186	0xbca7f35f	-0.02050179
187	0x3e44f6af	0.19234727
188	0x3da86311	0.082220204
189	0xbcbf2b20	-0.023335993
190	0x3dceda45	0.10100225
191	0x3d804097	0.062623195
192	0x3c1e9e79	0.0096813375
193	0xbe03c197	-0.12866817
194	0xbb1dd511	-0.0024083296
195	0xbd611b8c	-0.05495791
196	0x3da253d1	0.07926143
197	0x3e30dc02	0.17271426
198	0xbe8c2617	-0.2737281
199	0xbdbc6925	-0.09199742
200	0xbdd6b270	-0.10483253
201	0x3da176b2	0.078839675
202	0xbdf4690e	-0.119341
203	0xbd32805e	-0.04357945
204	0x3c7685f7	0.015046588
205	0x3db54257	0.08850544
206	0xbe431575	-0.19051154
207	0x3c6af383	0.014340284
208	0xbe869367	-0.26284334
209	0xbddfa58a	-0.10920246
210	0xbe8e4d4b	-0.27793345
211	0xbd75de83	-0.060026657
212	0x3e5e190b	0.2168924
213	0x3d4d62a3	0.050142895
214	0xbe5d31c5	-0.21601017
215	0x3e2e74f4	0.17036802
216	0x3de96eae	0.113980636
217	0x3dc37c50	0.09545195
218	0x3e2af085	0.16693313
219	0xbe0ca1a0	-0.1373353
220	0xbe41cdea	-0.18926206
221	0xbddae939	-0.10689015
222	0x3bd5e890	0.0065279678
223	0xbc4f118d	-0.012638462
224	0xb956b924	-0.000204776
225	0x3e8f6b94	0.28011763
226	0xbd71b3e1	-0.059009437
227	0xbddb54b1	-0.10709513
228	0xbdb03197	-0.086032085
229	0xbe0d4b9f	-0.13798378
230	0x3d2cc0d7	0.042176094
231	0x3e020b53	0.12699632
232	0x3d5896ed	0.05287831
233	0xbe3ee7ba	-0.18643084
234	0xbc6afcc8	-0.014342494
235	0xbe51f7bd	-0.20504661
236	0xbe252396	-0.16126856
237	0x3ccf0e30	0.02527532
238	0xbea9bf16	-0.331536
239	0x3c4176f9	0.01180815
240	0x3cd61de9	0.02613731
241	0x3d24bb3d	0.040217627
242	0x3ce6152c	0.028086267
243	0xbe0231ff	-0.12714384
244	0x3ba9c047	0.005180392
245	0x3db73a77	0.08946698
246	0x3e746d41	0.23869802
247	0x3d4d4344	0.050112978
248	0xbe1d07e8	-0.15335047
249	0x3de421b9	0.111392446
250	0xbdbf9e20	-0.09356332
251	0x3c8a563a	0.01688682
252	0xbe00dcdd	-0.12584253
253	0xbe2d33c3	-0.16914277
254	0x3e54aebb	0.2076978
255	0x3c4e97e9	0.01260946

shared_net.3.bias f4 [64]
0	0xbd76d75d	-0.06026398
1	0xbd868855	-0.06568972
2	0x3d8fd695	0.0702335
3	0xbd6b12d7	-0.057391014
4	0x3d5b6bcf	0.05356961
5	0xbd6c073a	-0.05762408
6	0x3d685427	0.05672088
7	0xbd7d1028	-0.061782986
8	0x3d63060b	0.055425685
9	0x3d782d15	0.06058987
10	0x3d548875	0.051887948
11	0xbd6ac631	-0.057317916
12	0xbd70339b	-0.058642965
13	0xbd8f5f04	-0.07000545
14	0xbd6664a9	-0.05624834
15	0xbd7bcd25	-0.061474938
16	0xbd8337a3	-0.06407096
17	0x3d7a2cf2	0.06107802
18	0x3d79cc6f	0.06098598
19	0x3d7a9aa5	0.061182637
20	0x3d800f36	0.06252901
21	0xbda42266	-0.080143735
22	0xbd571f14	-0.052519873
23	0x3d32455b	0.043523174
24	0xbd822810	-0.063552976
25	0x3d742922	0.05960954
26	0xbd621cf8	-0.055203408
27	0xbd84f43a	-0.06491895
28	0xbd650e7c	-0.055922017
29	0xbd655865	-0.055992503
30	0xbd81b4f1	-0.0633334
31	0xbd67feb1	-0.056639377
32	0x3d64aff4	0.055831864
33	0x3d56e6e7	0.0524663
34	0x3d762b8d	0.060100127
35	0x3d716586	0.05893471
36	0xbd5e2ca8	-0.054241806
37	0x3d3d99a9	0.04628912
38	0x3d8653b6	0.06558935
39	0xbd6c8699	-0.05774555
40	0xbd6cb596	-0.05779036
41	0x3d614dc3	0.0550058
42	0xbd68af3f	-0.056807753
43	0x3d614c36	0.05500432
44	0xbd418bb4	-0.047252372
45	0x3d50c1c3	0.050966036
46	0x3d6ccdd2	0.057813473
47	0xbd84fada	-0.06493159
48	0x3d8b2713	0.06794562
49	0x3d916e83	0.071011566
50	0x3d75d63b	0.06001876
51	0xbd8dc1fd	-0.06921766
52	0x3d6dbb2e	0.058039837
53	0x3d75c08c	0.05999808
54	0x3d40c4ac	0.04706256
55	0xbd9c9552	-0.07645668
56	0xbd62b4bf	-0.055348154
57	0xbd810034	-0.06298867
58	0x3d79886a	0.06092111
59	0x3d7924c4	0.060826078
60	0xbd7970b0	-0.060898483
61	0x3d58487a	0.052803494
62	0xbd5a51bf	-0.053300615
63	0xbd5f4176	-0.054505788

actor.weight f4 [3, 64]
0	0xbc074d95	-0.008258243
1	0xbab633ce	-0.0013900937
2	0xbc018feb	-0.007907848
3	0xbc11c6c8	-0.008897491
4	0x3c01412c	0.007889073
5	0x3b7e6460	0.0038817152
6	0xbb67f6d8	-0.0035394933
7	0x3a1c7442	0.00059682515
8	0xbc07f30a	-0.008297691
9	0x3bc329b4	0.005955899
10	0x3c1d4350	0.009598568
11	0xbc4abd2d	-0.012374205
12	0xbb8886d8	-0.0041664653
13	0xbc052538	-0.008126549
14	0xb90206a1	-0.00012400236
15	0xbbf12f87	-0.007360402
16	0xbc0f1b84	-0.008734588
17	0x386acee2	5.5982622e-05
18	0x3b96d13b	0.004602579
19	0x3bbeef2f	0.0058268528
20	0x3ab84bc5	0.0014060667
21	0xbbbb6441	-0.0057187383
22	0xbb8225ba	-0.0039717825
23	0xbc30d3ca	-0.010792682
24	0xbbd0fe21	-0.006377951
25	0x3c307058	0.010768972
26	0xbbaedb12	-0.005336174
27	0x39bade7c	0.00035642448
28	0xbc747b01	-0.014921905
29	0x3a373de9	0.00069901213
30	0xbc128fd9	-0.008945429
31	0x3a681048	0.0008852524
32	0x3c32f56b	0.01092277
33	0xbb145075	-0.0022630964
34	0x3c36b6ba	0.011151964
35	0x3b4ccd06	0.0031250133
36	0xbbe48c6e	-0.0069747483
37	0xbb99b213	-0.0046904176
38	0xb9c1b05e	-0.00036943232
39	0xba241a2c	-0.00062600034
40	0xbadde563	-0.0016929324
41	0xbbae9119	-0.0053273556
42	0xbb075dca	-0.0020655268
43	0x3c05720c	0.008144867
44	0x39316543	0.00016917758
45	0xbbbcd6f9	-0.0057629314
46	0x3c4fddfd	0.0126872035
47	0x3c16fead	0.009215993
48	0xbc1a6440	-0.0094233155
49	0xbafe0f1f	-0.0019383169
50	0xbb8638cd	-0.0040961266
51	0xbbc85235	-0.0061133155
52	0x3b9c6ddb	0.004773838
53	0x3c0dac27	0.008647001
54	0x3afe7d13	0.0019415937
55	0xbab28a12	-0.001362147
56	0xbc31507f	-0.010822414
57	0xba5842aa	-0.000824968
58	0x3ba5c500	0.0050588846
59	0x3c096fe3	0.008388492
60	0xbbbb17ab	-0.0057096086
61	0x3be6f527	0.0070482674
62	0xb62ec068	-2.6040016e-06
63	0xbc16c95c	-0.009203281
64	0x3c2008a3	0.009767684
65	0xb9c6f312	-0.00037946604
66	0x3bac0923	0.0052501126
67	0xbac36165	-0.0014906345
68	0xbb1e8aa0	-0.0024191514
69	0xbc138e04	-0.009006027
70	0x3b6ab001	0.0035810473
71	0xbaf5a123	-0.0018740039
72	0x3b19120a	0.00233567
73	0x3b1922fe	0.0023366804
74	0xbbab75ef	-0.0052325646
75	0x3b98795c	0.004653139
76	0xbb7813b8	-0.003785355
77	0x3bd81571	0.006594353
78	0xbbba1070	-0.005678229
79	0x3b0d0144	0.0021515647
80	0x3bb77324	0.0055984426
81	0xba443eaa	-0.00074861443
82	0x3b25bbe2	0.002528899
83	0xbbbc589d	-0.005747868
84	0xb9154528	-0.0001423551
85	0x3b85a22c	0.0040781703
86	0x3c19e347	0.009392566
87	0xbac26336	-0.0014830593
88	0xbb3954c0	-0.0028279275
89	0xbba23bc1	-0.004950971
90	0x3a6580d3	0.0008754853
91	0xbbc9304e	-0.0061397916
92	0x3bf588e3	0.007493125
93	0xbb929d23	-0.0044742986
94	0xba43ac25	-0.0007464311
95	0xbbbb2cc3	-0.005712123
96	0x3b900a39	0.00439575
97	0xbbdf234a	-0.0068096267
98	0xbb597031	-0.0033178444
99	0x3a1ad41b	0.000590624
100	0x3a261232	0.0006335109
101	0xbb9470b2	-0.004530036
102	0x3b91e045	0.004451784
103	0xbc1a5fd1	-0.0094222585
104	0xb9dd00c8	-0.00042152987
105	0x3c00b16a	0.007854799
106	0x3adf61a8	0.0017042654
107	0xbb3e7ce8	-0.002906615
108	0xbb2d6c07	-0.0026462094
109	0xba85a59a	-0.0010196448
110	0xbc073b4a	-0.008253882
111	0xbb258672	-0.0025257138
112	0x3c2e8350	0.0106514245
113	0x3c271632	0.010198163
114	0x3b99737a	0.0046829553
115	0x3a811b96	0.000985014
116	0xbba9d727	-0.005183119
117	0xbb59de26	-0.0033243983
118	0xba8a5a59	-0.001055549
119	0xb9d47f6e	-0.00040530734
120	0xbb2ec201	-0.0026665928
121	0xbb1d6f5b	-0.0024022672
122	0xbbc72b37	-0.0060781497
123	0x3b087497	0.0020821446
124	0x3ba59e54	0.0050542746
125	0xbb77a42e	-0.0037787068
126	0xbb54bee2	-0.0032462408
127	0x3ba365b1	0.004986488
128	0xba9fdf35	-0.0012197258
129	0x3ba08987	0.004899207
130	0x3abadf47	0.0014257216
131	0x3c3cd2d3	0.011524874
132	0xbc1e1702	-0.00964904
133	0x3b05b7b2	0.002040368
134	0xbb8b4537	-0.0042501944
135	0x3b6b6d25	0.003592321
136	0x3bf317fd	0.007418631
137	0xbbdece73	-0.006799513
138	0xbc057e34	-0.008147765
139	0x3c1e23ad	0.00965206
140	0x3c06436c	0.008194786
141	0x3b2a03d3	0.002594222
142	0x3abd8f9c	0.0014462355
143	0x3adf2582	0.0017024728
144	0x3b7c18b7	0.003846688
145	0x3a71db0d	0.00092260615
146	0xbc1aeb4f	-0.009455516
147	0xbb61e29d	-0.0034467347
148	0x3b74c8cd	0.0037351132
149	0x3bd35b0f	0.006450064
150	0xbba7741a	-0.005110276
151	0x3c1d0ca4	0.009585533
152	0x3c3ab4a3	0.011395606
153	0xbb987c46	-0.0046534864
154	0x3bdfba6d	0.0068276436
155	0x3b9dc78c	0.0048150476
156	0x3beec979	0.007287201
157	0x3b6cb706	0.0036119833
158	0x3c104196	0.008804699
159	0x3baad8ca	0.0052138316
160	0xbc8517f1	-0.016246768
161	0x3bb9e4dd	0.0056730346
162	0xbbd826bf	-0.006596416
163	0xbb2a4e46	-0.0025986596
164	0x3be5d948	0.0070144273
165	0x3c2183eb	0.009858112
166	0xbc03455a	-0.00801214
167	0x3c262373	0.010140288
168	0x3a9df464	0.0012050983
169	0xba06caf1	-0.0005141935
170	0x3a0b4fbc	0.00053143105
171	0xbbee9541	-0.007280976
172	0xbac309c5	-0.0014880231
173	0x3bcbf029	0.0062236977
174	0xbb68b097	-0.0035505646
175	0xbc182682	-0.009286525
176	0xbba4ade0	-0.0050256103
177	0xbbeda1f1	-0.007251971
178	0x3a54a432	0.0008111625
179	0x3b457f45	0.0030135673
180	0xba66ece1	-0.00088091014
181	0xbbb556a3	-0.0055340095
182	0xbb7bc574	-0.0038417252
183	0xb81640ce	-3.582314e-05
184	0x3c49a90e	0.012308372
185	0x3b91f629	0.0044543934
186	0x3a76b3be	0.0009410939
187	0xbc41c2c9	-0.011826226
188	0x3b905c7d	0.0044055567
189	0xbb80ef29	-0.00393476
190	0x3b8d23fe	0.004307269
191	0x3b812621	0.003941313

actor.bias f4 [3]
0	0x3b875b3f	0.0041307504
1	0x3bfb3a6d	0.007666877
2	0xbc29102b	-0.010318796

critic.weight f4 [1, 64]
0	0xbe23bd0d	-0.15990086
1	0xbe85e0a7	-0.2614796
2	0x3de9ad64	0.11410025
3	0xbe32ea86	-0.17472276
4	0x3e8e5433	0.27798614
5	0xbe0a67b0	-0.13516116
6	0x3e52d12e	0.20587608
7	0xbe55e3e5	-0.20887716
8	0x3a23fb8f	0.00062554417
9	0x3d61e630	0.055151165
10	0x3d3c7b2a	0.046015896
11	0xbe226f14	-0.15862685
12	0xbe68de82	-0.2274113
13	0xbd44b4be	-0.04802393
14	0xbdabe4c6	-0.083932444
15	0xbd759021	-0.059951905
16	0xbde7730c	-0.1130124
17	0x3e78022f	0.24219583
18	0x3ebdce5d	0.37071505
19	0x3ed1752c	0.40909708
20	0x3df370fe	0.11886786
21	0xbcd0fefa	-0.025512207
22	0xbca5b5b5	-0.020228246
23	0x3c4ce49f	0.012505679
24	0xbd51f632	-0.05126018
25	0x3db2341e	0.08701347
26	0xbeb67c15	-0.35641542
27	0xbe3884d5	-0.18019421
28	0xbe62e665	-0.22158201
29	0xbd834be7	-0.064109616
30	0xbd719770	-0.058982313
31	0xbe27deb1	-0.16393544
32	0x3e988e68	0.29796147
33	0x3d1aeafd	0.03782176
34	0x3e89cba0	0.26913166
35	0x3e6be514	0.23036605
36	0xbe856011	-0.26049855
37	0x3e3f80e0	0.18701506
38	0x3d42a0d0	0.047516644
39	0xbe976ccf	-0.29575202
40	0xbe65e2f7	-0.22449861
41	0x3d2011e9	0.03907958
42	0xbe6bf101	-0.23041154
43	0x3ef74c50	0.4830041
44	0xbcbc9994	-0.02302245
45	0x3dc57ddc	0.096431464
46	0x3d83cec6	0.06435923
47	0xbcdbdc4b	-0.026838442
48	0x3db07442	0.086159244
49	0x3d1c278c	0.038123652
50	0x3e47eb66	0.19523391
51	0xbd902296	-0.07037847
52	0x3e28b27a	0.16474333
53	0x3d2f5c0a	0.042812385
54	0x3e738481	0.23781015
55	0xbc8a12ff	-0.016854761
56	0xbe01c2d8	-0.12671983
57	0xbe0537ff	-0.13009642
58	0x3d81a10b	0.06329545
59	0x3d8e37f7	0.06944268
60	0xbe007d0c	-0.12547702
61	0x3da5c232	0.080936804
62	0xbe11adb9	-0.14226426
63	0xbe359711	-0.17733409

exp_avg f4 [128, 303]
0	0x3938e675	0.0001763346
1	0x392b7013	0.00016349582
2	0x3922963e	0.00015505494
3	0x391e5f2d	0.0001510351
4	0x396c68c9	0.0002254575
5	0xba77fd0b	-0.00094600086
6	0x3928bee8	0.00016092847
7	0x39038ab7	0.00012544809
8	0x388e26f3	6.7783425e-05
9	0xb97a9bd9	-0.00023899916
10	0x391b603b	0.000148178
11	0x3919f735	0.00014683309
12	0x3901499b	0.00012329819
13	0x390de41f	0.0001353179
14	0x3a00ac81	0.00049085176
15	0xb98df679	-0.00027077252
16	0x392326a9	0.00015559293
17	0x39036cd1	0.00012533671
18	0x3825d650	3.953866e-05
19	0xb77df5a4	-1.5137168e-05
20	0x390c3224	0.00013370119
21	0x39017e19	0.00012349374
22	0x39019bef	0.00012360488
23	0x38f9c3bf	0.00011909706
24	0x38c1c1e6	9.2390736e-05
25	0xba029d4e	-0.00049825467
26	0x391bfd42	0.00014876298
27	0x3902e5ee	0.00012483422
28	0xb9121310	-0.00013930746
29	0x380e5a5f	3.3939603e-05
30	0x38fa0d54	0.000119234115
31	0x38ff284b	0.00012166853
32	0x38e91739	0.00011114631
33	0x38f15882	0.000115082614
34	0x3a368121	0.0006961991
35	0xb90a1fc0	-0.00013172533
36	0x39179f27	0.00014459771
37	0x39028588	0.0001244751
38	0xb91d1010	-0.0001497867
39	0x399e4a22	0.00030191342
40	0x38fdf624	0.000121098274
41	0x38feab3f	0.00012143561
42	0x38f7e74f	0.000118209624
43	0x38df4d22	0.00010647836
44	0x3a0f35e1	0.00054630457
45	0xb9cc0525	-0.00038913745
46	0x39111257	0.0001383511
47	0x3901169e	0.00012310824
48	0xb83de3c4	-4.5273235e-05
49	0x39bca691	0.00035982256
50	0x38e6ba45	0.0001100195
51	0x38def302	0.00010631049
52	0x38d86267	0.000103180115
53	0x38dc245a	0.000104971885
54	0x3a603cd4	0.0008553986
55	0x394d48b6	0.0001957741
56	0x390ab3a1	0.00013227623
57	0x38fda91e	0.000120954806
58	0xb9c19b82	-0.0003692769
59	0x39fd6a71	0.00048335225
60	0x38d57465	0.00010178312
61	0x38ca7eab	9.655704e-05
62	0x38b9a4a1	8.852152e-05
63	0x38bef612	9.10574e-05
64	0x3a1db15e	0.00060155045
65	0xb9732f4b	-0.00023191904
66	0x39038778	0.000125436
67	0x38f82391	0.00011832186
68	0xba06e55c	-0.00051458715
69	0x3a07ae3c	0.0005175804
70	0x38bf597b	9.124257e-05
71	0x38c02f3b	9.164071e-05
72	0x38c25e93	9.268257e-05
73	0x38cafcc3	9.679191e-05
74	0x39b49c0a	0.00034448534
75	0xb787b719	-1.6178516e-05
76	0x38f7a624	0.00011808824
77	0x38f3a6bb	0.00011618199
78	0xb99013ba	-0.00027480518
79	0x39ffd042	0.00048792554
80	0x38d53ab7	0.00010167568
81	0x38ce73a3	9.8443845e-05
82	0x38c3de44	9.339725e-05
83	0x38d41bdd	0.00010114138
84	0x39f85fe2	0.00047373684
85	0x381f0033	3.790874e-05
86	0x38e5499d	0.000109332825
87	0x38ee678f	0.00011368014
88	0xb9d2e417	-0.00040224261
89	0x3a0d38bd	0.0005387178
90	0x38cad823	9.672369e-05
91	0x38e258a2	0.00010793029
92	0x38cd6e9d	9.795765e-05
93	0x38c98bda	9.610476e-05
94	0x39b6f3ff	0.00034895536
95	0x3711aeed	8.683402e-06
96	0x38d3288c	0.000100688165
97	0x38e75e07	0.00011032452
98	0xba0209f3	-0.0004960589
99	0x3a4310f7	0.00074411876
100	0x38b1ba8d	8.4747655e-05
101	0x38be7e63	9.0834474e-05
102	0x38af26a1	8.3518455e-05
103	0x38c7f31b	9.5343414e-05
104	0x3a4fee75	0.0007931956
105	0xb8813636	-6.161297e-05
106	0x38c773d2	9.510633e-05
107	0x38dff35f	0.000106788
108	0xb9e78a57	-0.00044162825
109	0x3a449c79	0.0007500123
110	0x38d5b9a5	0.000101912105
111	0x38e12db7	0.00010737351
112	0x38dfc8d5	0.000106708765
113	0x38e40a03	0.00010873752
114	0x39e5045b	0.0004368153
115	0x39709cb1	0.00022946556
116	0x38c1dd91	9.244227e-05
117	0x38dc2fc7	0.00010499317
118	0xb9dcee13	-0.0004213905
119	0x3a1a311d	0.0005881952
120	0x38f9ec5a	0.00011917269
121	0x38e3bf26	0.00010859808
122	0x39062c83	0.00012795818
123	0x39021618	0.00012405997
124	0x396ee48f	0.00022782593
125	0x3a1b129f	0.00059155555
126	0x38c2e894	9.293962e-05
127	0x38d99403	0.00010374936
128	0xba33d521	-0.0006860067
129	0x3a28bb8c	0.0006436638
130	0x38dc1eba	0.00010496141
131	0x38f0ad6b	0.000114763934
132	0x39082311	0.00012983034
133	0x39094b1f	0.00013093323
134	0xb8b1bd72	-8.475305e-05
135	0xb8408c04	-4.5906767e-05
136	0x38c63d7a	9.4528266e-05
137	0x38d8af3a	0.00010332321
138	0xba3db97b	-0.00072374166
139	0x39dd332e	0.00042190537
140	0x39050747	0.0001268658
141	0x39065f4c	0.00012814737
142	0x39098f4c	0.0001311872
143	0x38ffd307	0.000121986544
144	0xb90972d3	-0.00013108113
145	0xb9198e72	-0.00014644282
146	0x38c98015	9.608284e-05
147	0x38d8733a	0.00010321145
148	0xb9fd0abb	-0.00048263915
149	0x39a839a8	0.00032086414
150	0x38eb0d21	0.00011208119
151	0x38f91bc9	0.000118784206
152	0x3905c41f	0.00012756929
153	0x390b81b5	0.00013304393
154	0xb87a411d	-5.9665286e-05
155	0x39f59437	0.0004684047
156	0x38cf6699	9.8896395e-05
157	0x38d79097	0.00010278931
158	0xb97a21e9	-0.0002385449
159	0x39b643e5	0.0003476433
160	0x390359e3	0.00012526619
161	0x390d0c05	0.00013451285
162	0x39142838	0.00014129363
163	0x3911e544	0.00013913686
164	0xb95363eb	-0.0002015975
165	0x391ebf99	0.0001513943
166	0x38d981ac	0.000103715196
167	0x38d80bfd	0.000103019156
168	0x38276885	3.9913244e-05
169	0x39375d4a	0.00017486993
170	0x391370b9	0.00014061005
171	0x39208571	0.000153085
172	0x391f5a2f	0.00015197018
173	0x391f03ab	0.00015164788
174	0xb838c322	-4.405075e-05
175	0x3a0faa63	0.00054804067
176	0x38e50985	0.00010921344
177	0x38d8aa89	0.00010331447
178	0x37ad89d0	2.0687381e-05
179	0x3996530d	0.00028672107
180	0x39128971	0.00013974846
181	0x3915fc03	0.00014303629
182	0x391cb9fd	0.00014946605
183	0x39155468	0.00014241191
184	0xba04b219	-0.0005061939
185	0xb9a287e1	-0.00031000286
186	0x38edb638	0.000113349815
187	0x38d7d4cf	0.000102916376
188	0xb9295e70	-0.00016152277
189	0x38f8b971	0.00011860103
190	0x38ed190e	0.000113057074
191	0x3909c3a8	0.00013138226
192	0x390715b3	0.00012882687
193	0x3912b7e2	0.00013992147
194	0xb91c94e9	-0.00014932793
195	0x371c96b6	9.333415e-06
196	0x38f6ebf6	0.00011774145
197	0x38d58a46	0.00010182387
198	0xb8d98ed1	-0.00010373968
199	0x3905061f	0.00012686149
200	0x3910f40a	0.00013823822
201	0x3915aecc	0.00014274864
202	0x39219b46	0.00015412
203	0x392a0802	0.00016215447
204	0xb9e8c38f	-0.0004439619
205	0x3a5c8060	0.00084114634
206	0x39027b87	0.00012443784
207	0x38d54051	0.00010168611
208	0x3948fd9b	0.00019167962
209	0xb8947594	-7.0790906e-05
210	0x3925cf67	0.0001581289
211	0x392d67ca	0.0001653723
212	0x393382d5	0.00017119509
213	0x393b7726	0.00017878096
214	0xba212752	-0.0006147522
215	0x3a08b1a3	0.0005214458
216	0x3909d819	0.00013145841
217	0x38d4906c	0.000101358484
218	0x3934d9c5	0.00017247263
219	0xb94a323d	-0.00019282936
220	0x392e0246	0.0001659478
221	0x3914ff72	0.0001420954
222	0x392786c9	0.00015976572
223	0x39183d56	0.00014518699
224	0xb9aa7b10	-0.00032516615
225	0xba6ebec1	-0.0009107404
226	0x390c107d	0.00013357583
227	0x38d19b2a	9.994798e-05
228	0xb8300b45	-4.1972165e-05
229	0xb98ee420	-0.00027254317
230	0x3909339f	0.00013084568
231	0x390b986d	0.00013312856
232	0x3910f1a7	0.00013822933
233	0x39169c40	0.00014363322
234	0x393f69a4	0.00018254534
235	0xb6bb818e	-5.5881164e-06
236	0x390d6636	0.00013484884
237	0x38d0b0e9	9.951165e-05
238	0xb8a209a7	-7.72656e-05
239	0xb981d631	-0.00024764382
240	0x3906fb26	0.00012872796
241	0x38ff448b	0.00012172115
242	0x38f0a604	0.000114750146
243	0x38db7382	0.00010464249
244	0x38f5d837	0.000117227835
245	0xba830cd1	-0.0009998326
246	0x390b938b	0.00013311037
247	0x38cc2d82	9.7359545e-05
248	0xb9afd379	-0.0003353616
249	0xb943b5ea	-0.00018664417
250	0x38e46e38	0.00010892417
251	0x38f3f4cd	0.00011632741
252	0x38e8350f	0.00011072505
253	0x3900bdad	0.00012277691
254	0x3916f753	0.0001439725
255	0x3a53178c	0.000805252

exp_avg_sq f4 [128, 303]
0	0x35ab6837	1.2770823e-06
1	0x35ab5649	1.2765605e-06
2	0x35aaec14	1.2734695e-06
3	0x35aaf6a9	1.2737775e-06
4	0x35fe190e	1.8931767e-06
5	0x35e307ab	1.691505e-06
6	0x35a83f5b	1.2535414e-06
7	0x35a6f4ac	1.2439173e-06
8	0x361c6a44	2.3307666e-06
9	0x35edb16c	1.7709513e-06
10	0x35ac18ec	1.2822252e-06
11	0x35ac54b1	1.2839647e-06
12	0x35ac7de2	1.2851635e-06
13	0x35acfb2f	1.2888103e-06
14	0x360b5897	2.076418e-06
15	0x360ecb3b	2.1277945e-06
16	0x35a8a6d0	1.2565524e-06
17	0x35a73006	1.2456446e-06
18	0x3621fe9d	2.4139074e-06
19	0x35e1d382	1.6825363e-06
20	0x35ad62f8	1.2918308e-06
21	0x35acfcf5	1.2888619e-06
22	0x35adf5a1	1.2960992e-06
23	0x35adceb7	1.2949666e-06
24	0x361531a4	2.2231625e-06
25	0x35f1959b	1.799944e-06
26	0x35a953cd	1.261587e-06
27	0x35a76a24	1.2473361e-06
28	0x36216903	2.4051994e-06
29	0x35dd044a	1.6467031e-06
30	0x35ad1e6e	1.2898361e-06
31	0x35aca7f5	1.286388e-06
32	0x35ad0f24	1.2893911e-06
33	0x35acdea3	1.2879794e-06
34	0x3601c7c5	1.933878e-06
35	0x36056b75	1.9881093e-06
36	0x35aa073b	1.2668091e-06
37	0x35a79b7a	1.2487719e-06
38	0x3615e438	2.233557e-06
39	0x35d8c9d4	1.6151994e-06
40	0x35ac96b6	1.2858861e-06
41	0x35acacd5	1.2865299e-06
42	0x35ac7b53	1.2850891e-06
43	0x35aced51	1.2884067e-06
44	0x35d9d2c2	1.6229098e-06
45	0x35efea8b	1.7875149e-06
46	0x35aabb23	1.2720451e-06
47	0x35a7c6b2	1.2500298e-06
48	0x3612bdd4	2.186619e-06
49	0x35d74335	1.6038308e-06
50	0x35acaeb1	1.286584e-06
51	0x35ac5abf	1.2841409e-06
52	0x35ac36bf	1.2830932e-06
53	0x35ac0e4c	1.281916e-06
54	0x35df3720	1.6630838e-06
55	0x35e2967e	1.6882111e-06
56	0x35ab34e4	1.2755886e-06
57	0x35a7e6a5	1.2509596e-06
58	0x36143ec7	2.209026e-06
59	0x35d31fcf	1.5729983e-06
60	0x35ac137a	1.2820667e-06
61	0x35ac12a1	1.282042e-06
62	0x35ab8368	1.2778737e-06
63	0x35aba5e5	1.2788774e-06
64	0x35b2ae1b	1.3312705e-06
65	0x35d0c08e	1.5553248e-06
66	0x35ab7ba5	1.2776478e-06
67	0x35a810dd	1.2521883e-06
68	0x3610465f	2.1498633e-06
69	0x35ce113c	1.5353212e-06
70	0x35ad2755	1.2900952e-06
71	0x35acf000	1.2884848e-06
72	0x35ad2129	1.2899155e-06
73	0x35ad9689	1.2933316e-06
74	0x35ec159e	1.7589662e-06
75	0x35d2246e	1.5656822e-06
76	0x35ac0420	1.2816199e-06
77	0x35a84dec	1.2539654e-06
78	0x3606e074	2.0098205e-06
79	0x35c61a78	1.4759853e-06
80	0x35af403a	1.3057208e-06
81	0x35af8e7b	1.3079983e-06
82	0x35b04d6e	1.3135557e-06
83	0x35b0e0cc	1.3178446e-06
84	0x3603ccc8	1.963972e-06
85	0x35ec72be	1.7616765e-06
86	0x35acd086	1.2875687e-06
87	0x35a8ac43	1.256711e-06
88	0x36068071	2.0042319e-06
89	0x35c5f88a	1.4749978e-06
90	0x35b265c3	1.329165e-06
91	0x35b19072	1.3229567e-06
92	0x35b251e1	1.3285863e-06
93	0x35b227ac	1.327358e-06
94	0x360b3975	2.0746058e-06
95	0x3613b2bd	2.2008746e-06
96	0x35ad8007	1.2926765e-06
97	0x35a91c04	1.2599635e-06
98	0x360a9760	2.0651714e-06
99	0x35c1e810	1.444716e-06
100	0x35b28ca8	1.330297e-06
101	0x35b268c8	1.3292529e-06
102	0x35b319fa	1.33441e-06
103	0x35b316e1	1.3343198e-06
104	0x36324ea7	2.6569849e-06
105	0x36095c0e	2.0468174e-06
106	0x35ae5970	1.299004e-06
107	0x35a99613	1.2635159e-06
108	0x36094da6	2.0459788e-06
109	0x35cffd7d	1.5496477e-06
110	0x35b2e823	1.3329594e-06
111	0x35b30311	1.3337432e-06
112	0x35b3aaa8	1.3386207e-06
113	0x35b4b4e7	1.3463695e-06
114	0x362ec246	2.6041103e-06
115	0x3617146d	2.2512643e-06
116	0x35af25d2	1.3049523e-06
117	0x35aa1975	1.2673396e-06
118	0x36096d72	2.0478296e-06
119	0x35d7fd89	1.6092537e-06
120	0x35b487a7	1.3450525e-06
121	0x35b3ce0c	1.3396507e-06
122	0x35b41d2a	1.3419533e-06
123	0x35b434dc	1.3426429e-06
124	0x360ed2c2	2.1282326e-06
125	0x36101220	2.1468222e-06
126	0x35afcc80	1.3098033e-06
127	0x35aa9637	1.2709705e-06
128	0x36131707	2.191811e-06
129	0x35e78e4c	1.7252255e-06
130	0x35b28da9	1.3303262e-06
131	0x35b118be	1.3194729e-06
132	0x35b0e2e7	1.3179059e-06
133	0x35afbf6e	1.3094229e-06
134	0x360283e7	1.9448287e-06
135	0x36000583	1.9076695e-06
136	0x35b0159f	1.3119314e-06
137	0x35aae774	1.2733349e-06
138	0x3614fce4	2.220092e-06
139	0x35e18998	1.6803851e-06
140	0x35af121b	1.3043785e-06
141	0x35aeb74e	1.3017359e-06
142	0x35ae3b5b	1.2981285e-06
143	0x35ae1e32	1.2972798e-06
144	0x35e2b524	1.6891031e-06
145	0x35e5cd0e	1.7121508e-06
146	0x35b03572	1.3128576e-06
147	0x35ab2d20	1.2753626e-06
148	0x3610e4eb	2.159092e-06
149	0x35e0ba6b	1.6743555e-06
150	0x35ae6c62	1.2995554e-06
151	0x35ae46c5	1.2984607e-06
152	0x35ae53bc	1.298838e-06
153	0x35ae615c	1.2992346e-06
154	0x35f07ee1	1.791832e-06
155	0x35fabdc4	1.868168e-06
156	0x35b07560	1.3147182e-06
157	0x35ab70f9	1.2773372e-06
158	0x3606f983	2.011279e-06
159	0x35e7c88a	1.7269206e-06
160	0x35ad0ef4	1.2893856e-06
161	0x35ac9749	1.2859028e-06
162	0x35ac7cfa	1.2851372e-06
163	0x35ab5d5e	1.2767666e-06
164	0x35ebbc28	1.7563625e-06
165	0x35f7f583	1.8474387e-06
166	0x35b0711d	1.3145942e-06
167	0x35aba4bd	1.2788438e-06
168	0x3608a13c	2.035943e-06
169	0x35f28d40	1.8071514e-06
170	0x35abf68d	1.2812249e-06
171	0x35ac14cb	1.282105e-06
172	0x35abd867	1.2803474e-06
173	0x35ac5b2c	1.2841533e-06
174	0x360c302d	2.0889668e-06
175	0x361348fb	2.1947187e-06
176	0x35b053d9	1.3137425e-06
177	0x35abd881	1.2803504e-06
178	0x3606afe6	2.0069942e-06
179	0x35edaf50	1.7708899e-06
180	0x35acb35e	1.2867201e-06
181	0x35aca5d1	1.2863258e-06
182	0x35ac9e78	1.2861119e-06
183	0x35acdb83	1.2878885e-06
184	0x362d84ae	2.5856239e-06
185	0x360ace0c	2.0683538e-06
186	0x35aff126	1.31087e-06
187	0x35ac0c6d	1.2818615e-06
188	0x3600d3b7	1.919672e-06
189	0x35f966b6	1.8581839e-06
190	0x35adae63	1.2940258e-06
191	0x35ad0259	1.2890188e-06
192	0x35add9a6	1.2952848e-06
193	0x35ae85fe	1.3003007e-06
194	0x36522954	3.1316495e-06
195	0x362bad14	2.558173e-06
196	0x35af950e	1.3081897e-06
197	0x35ac490b	1.2836257e-06
198	0x35ffef28	1.9068584e-06
199	0x35ff6f2d	1.9031337e-06
200	0x35af96e5	1.3082432e-06
201	0x35af0512	1.3039992e-06
202	0x35b04ab5	1.3134764e-06
203	0x35b03d24	1.3130816e-06
204	0x36648fe9	3.4058414e-06
205	0x363bdf22	2.7995052e-06
206	0x35af4bcb	1.3060575e-06
207	0x35ac97ca	1.2859175e-06
208	0x35f3c68d	1.8162697e-06
209	0x360fd5ec	2.143318e-06
210	0x35b070f5	1.3145897e-06
211	0x35afebe2	1.3107167e-06
212	0x35b05048	1.3136387e-06
213	0x35afaff5	1.3089726e-06
214	0x365edf6b	3.3210624e-06
215	0x362c1f08	2.564806e-06
216	0x35aecb49	1.3023174e-06
217	0x35acda84	1.2878595e-06
218	0x35e489a6	1.7027385e-06
219	0x36162bb0	2.2377171e-06
220	0x35aeee4b	1.3033363e-06
221	0x35ada627	1.2937861e-06
222	0x35ae5a31	1.2990259e-06
223	0x35acffea	1.2889479e-06
224	0x3622e050	2.4270448e-06
225	0x36267463	2.4803674e-06
226	0x35ae1460	1.296994e-06
227	0x35ad1422	1.2895364e-06
228	0x35dac792	1.6300348e-06
229	0x36211f19	2.400897e-06
230	0x35acb2d0	1.286704e-06
231	0x35ac785e	1.285003e-06
232	0x35abc709	1.279842e-06
233	0x35ac5f3f	1.2842719e-06
234	0x360c47a7	2.0903333e-06
235	0x3600061b	1.907704e-06
236	0x35adc112	1.2945695e-06
237	0x35ad51b1	1.291328e-06
238	0x35ccc617	1.5256836e-06
239	0x362ee1c0	2.6059424e-06
240	0x35aa9fb8	1.2712471e-06
241	0x35aa7d32	1.2702424e-06
242	0x35a96ff0	1.2624059e-06
243	0x35a903ad	1.2592551e-06
244	0x35bd98ab	1.412603e-06
245	0x35f20a10	1.8033334e-06
246	0x35ad3f91	1.2908005e-06
247	0x35ad742a	1.2923313e-06
248	0x35c6b77f	1.4805554e-06
249	0x3632f946	2.6669163e-06
250	0x35a8ad68	1.2567443e-06
251	0x35a8ca08	1.2575774e-06
252	0x35a80091	1.251714e-06
253	0x35a89d02	1.2562671e-06
254	0x35b0100c	1.3117692e-06
255	0x360dc818	2.1127107e-06

exp_avg f4 [128]
0	0xbab3669b	-0.0013687195
1	0x3b35963e	0.002770796
2	0xb8973c85	-7.211514e-05
3	0x3b1d427d	0.002399593
4	0xbb0a8966	-0.0021139025
5	0x3ad1521b	0.0015969904
6	0xba541890	-0.00080908183
7	0x3a23d1ed	0.0006249238
8	0xba430bf9	-0.0007440444
9	0xb9f2f2a9	-0.00046338633
10	0x3a7dbf20	0.0009679664
11	0xb9951e7c	-0.00028442207
12	0xb9a3e520	-0.00031260494
13	0x36b4baa2	5.386145e-06
14	0xb8375fe9	-4.3719923e-05
15	0xba220e5f	-0.0006181951
16	0x3a9254e7	0.0011164219
17	0x3b203f84	0.002445192
18	0xbaa5e667	-0.0012657166
19	0xba7e7570	-0.00097068306
20	0x3a8ab5b2	0.0010582714
21	0x3a377294	0.00069979695
22	0xba6ecb4f	-0.0009109275
23	0xb9e6f275	-0.00044049663
24	0x39835653	0.00025050584
25	0x39b3b2c8	0.00034274743
26	0xb9e7c9a1	-0.0004420998
27	0xba25ea3c	-0.0006329154
28	0xba122299	-0.00055746135
29	0xb9e6eae4	-0.00044044026
30	0x3a11d241	0.00055626413
31	0xbb0a0bca	-0.0021064156
32	0xba8659c6	-0.0010250143
33	0x3a7880ff	0.0009479671
34	0x3a12fbc7	0.0005606976
35	0x3b066826	0.0020508855
36	0x39d554ff	0.00040689853
37	0x395ac4c3	0.000208634
38	0xb9eb0d11	-0.00044832428
39	0xba98691a	-0.0011628002
40	0x39def0c7	0.00042522533
41	0x39977260	0.0002888618
42	0x3add86b5	0.0016901108
43	0x39496c1a	0.00019209125
44	0x3a0fe306	0.0005488846
45	0x3a71bb5b	0.00092213386
46	0x3a90cbcc	0.0011047064
47	0xbb2bd801	-0.0026221278
48	0xbab21cc0	-0.001358889
49	0x3a7d3acb	0.0009659945
50	0x3968323f	0.00022143962
51	0xbace9f33	-0.0015763998
52	0xba94df30	-0.0011358019
53	0x3a90309e	0.0011000817
54	0x3a9a3ac7	0.0011766785
55	0x3a02fe53	0.00049970037
56	0xba524482	-0.0008021073
57	0x3a2082de	0.00061230164
58	0x39d7dff3	0.0004117485
59	0x3adc726a	0.0016818766
60	0xba35ac36	-0.00069302635
61	0xb95ecce4	-0.00021247898
62	0xb960d143	-0.00021440261
63	0x3a7e4c95	0.00097007427
64	0xba290f62	-0.00064491306
65	0xba2e8286	-0.0006657023
66	0xba2dcd51	-0.0006630021
67	0xba414d40	-0.0007373877
68	0x3a62bd72	0.00086494454
69	0x3a950453	0.0011369087
70	0xba95644f	-0.0011397692
71	0x39afaf0a	0.00033509015
72	0x3aff9e3a	0.0019502111
73	0x3a2f3f76	0.00066851766
74	0x3a82e9bb	0.000998787
75	0xba58f66e	-0.0008276467
76	0xbaf0279e	-0.0018322354
77	0xb9b600ff	-0.00034714487
78	0x39f55eff	0.0004680082
79	0xba1b86d8	-0.0005932874
80	0xbb257643	-0.0025247491
81	0x39d01a8d	0.00039692633
82	0xba8e63f2	-0.0010863526
83	0xbb0a47ec	-0.0021099998
84	0xb983383c	-0.00025028165
85	0x3ac9bbc1	0.0015391038
86	0xba789599	-0.0009482741
87	0x3ac107aa	0.0014727016
88	0xb9ee4ed0	-0.00045453617
89	0x3a3d3421	0.00072175456
90	0xba8e3d9e	-0.0010852104
91	0xb99c8c0d	-0.00029858985
92	0xba4f5b37	-0.00079100154
93	0x39f2973b	0.00046270512
94	0xbaa97a6e	-0.0012930164
95	0xba132101	-0.0005612523
96	0x3994c19b	0.00028373007
97	0x3a703b7e	0.00091641385
98	0xb87f016b	-6.079806e-05
99	0x393fbfd7	0.00018286645
100	0xba2c1acc	-0.00065652723
101	0xba35b0e9	-0.0006930964
102	0x3a1cce9e	0.0005981716
103	0xbab59c7c	-0.001385584
104	0x3ab6da2f	0.0013950522
105	0xb90f6dc5	-0.00013678435
106	0xb90336d9	-0.00012513566
107	0xba23b178	-0.00062444014
108	0xb87620db	-5.868157e-05
109	0x3aa35524	0.0012461287
110	0xbab7bab8	-0.0014017439
111	0x3a4d93dd	0.0007842163
112	0x3ae8c28e	0.0017758177
113	0xba8bfee0	-0.0010680817
114	0x39f81755	0.0004731963
115	0xba36ceea	-0.00069735816
116	0x3903b283	0.00012559634
117	0xb8c1ff67	-9.2505295e-05
118	0xb890152f	-6.870401e-05
119	0xb9a4585d	-0.00031346353
120	0x3a15ac5a	0.00057095813
121	0x3a216753	0.0006157059
122	0xbadcd968	-0.001684946
123	0xba18c3d6	-0.00058275217
124	0xb9bb51e2	-0.00035728427
125	0x3b0738c9	0.0020633212
126	0xba31ca9a	-0.0006782204
127	0xbac21899	-0.0014808356

exp_avg_sq f4 [128]
0	0x369d5a4b	4.689476e-06
1	0x382c0654	4.101389e-05
2	0x36a3722b	4.8710695e-06
3	0x381c8af6	3.7322716e-05
4	0x37da05cf	2.599033e-05
5	0x36b1629a	5.28649e-06
6	0x3620be90	2.395278e-06
7	0x3634755b	2.68904e-06
8	0x34e86be4	4.3291868e-07
9	0x36a0bd9c	4.790445e-06
10	0x371698b9	8.976255e-06
11	0x3561d357	8.412657e-07
12	0x343fc208	1.785885e-07
13	0x375cc4f3	1.3158878e-05
14	0x356d8e9b	8.84969e-07
15	0x356dd0ee	8.859341e-07
16	0x36c58cb7	5.887439e-06
17	0x37800c06	1.5264388e-05
18	0x37b22829	2.1237955e-05
19	0x36cf0818	6.170023e-06
20	0x371a6ec1	9.204902e-06
21	0x351f0b73	5.9248777e-07
22	0x367a7b7e	3.7324785e-06
23	0x3635c73e	2.7087076e-06
24	0x370d401a	8.41918e-06
25	0x359116c1	1.0809964e-06
26	0x35d30c48	1.5724299e-06
27	0x35ca5af1	1.507664e-06
28	0x3661e35f	3.365996e-06
29	0x35826aad	9.716802e-07
30	0x35b0346d	1.312828e-06
31	0x373a7fa5	1.11161835e-05
32	0x375604bf	1.2756499e-05
33	0x35d24242	1.5665503e-06
34	0x35e0c9c8	1.6748027e-06
35	0x37d0fe76	2.4914025e-05
36	0x356ad0d6	8.747569e-07
37	0x3630edc3	2.636444e-06
38	0x36be6d5f	5.6751737e-06
39	0x3624c18e	2.4550568e-06
40	0x3637aed6	2.7370893e-06
41	0x36b8468e	5.491841e-06
42	0x37baf787	2.2288192e-05
43	0x35922850	1.088958e-06
44	0x361bb1d5	2.3200312e-06
45	0x36fc072d	7.5110206e-06
46	0x3792984b	1.7475473e-05
47	0x38100ed6	3.4346092e-05
48	0x37de8093	2.6524334e-05
49	0x36a9e937	5.0637423e-06
50	0x35063972	5.0002484e-07
51	0x37632cbd	1.3540671e-05
52	0x35e9a2ae	1.7407199e-06
53	0x373a7132	1.1112819e-05
54	0x36ce3652	6.145602e-06
55	0x36ef6ee6	7.1356653e-06
56	0x36f9f40d	7.4491895e-06
57	0x369c2be6	4.6542727e-06
58	0x36127b48	2.1827454e-06
59	0x374f1440	1.2342876e-05
60	0x37027aba	7.777178e-06
61	0x3549d160	7.5183016e-07
62	0x3532b849	6.657834e-07
63	0x36d5547f	6.3577313e-06
64	0x375fb662	1.33343e-05
65	0x374efc54	1.23373065e-05
66	0x36e7ca4f	6.9078883e-06
67	0x37a0320f	1.9096797e-05
68	0x37470a62	1.1863742e-05
69	0x3701d7a5	7.739208e-06
70	0x36c7b10e	5.951274e-06
71	0x367fe5cd	3.8131723e-06
72	0x37f0c227	2.8700639e-05
73	0x35b46069	1.3439104e-06
74	0x36e8644d	6.9258153e-06
75	0x3626f41f	2.4878025e-06
76	0x371384dc	8.7928165e-06
77	0x34990acb	2.8506324e-07
78	0x353c35e2	7.011387e-07
79	0x35c94862	1.4996733e-06
80	0x37468e67	1.1834875e-05
81	0x36114f70	2.1652922e-06
82	0x36d81be6	6.4405494e-06
83	0x3729f884	1.0131047e-05
84	0x356ccd25	8.8215376e-07
85	0x377e290f	1.51491395e-05
86	0x3610d0da	2.157924e-06
87	0x36e7f1c2	6.912481e-06
88	0x365da32c	3.3026545e-06
89	0x369fe637	4.76537e-06
90	0x365fe699	3.3363815e-06
91	0x37222b5d	9.666049e-06
92	0x36dfcbfb	6.6696643e-06
93	0x35c2b4fa	1.4506797e-06
94	0x3813ac4c	3.5207995e-05
95	0x366d5155	3.5363094e-06
96	0x349691b2	2.8045685e-07
97	0x364e6026	3.0752358e-06
98	0x35fab66f	1.8679547e-06
99	0x35611615	8.3851165e-07
100	0x3683e2d6	3.9305114e-06
101	0x36ba00b0	5.543312e-06
102	0x3538ffff	6.8917865e-07
103	0x3780f7f4	1.5374251e-05
104	0x37d7f639	2.5744654e-05
105	0x358c1582	1.0437072e-06
106	0x3739a9ba	1.1066377e-05
107	0x364fcca2	3.0964516e-06
108	0x360084a4	1.9150693e-06
109	0x36daa525	6.5161316e-06
110	0x3756ed64	1.2810666e-05
111	0x35b040af	1.3131847e-06
112	0x379c863e	1.865916e-05
113	0x3689c1e7	4.1054914e-06
114	0x35f8aadd	1.8527168e-06
115	0x35efe5d0	1.7873772e-06
116	0x35d347d8	1.5741634e-06
117	0x35e2d5e1	1.6900559e-06
118	0x361b22c3	2.3117034e-06
119	0x361d00a8	2.3395205e-06
120	0x34b99ba9	3.4572193e-07
121	0x3683951c	3.921463e-06
122	0x375eff6d	1.3291702e-05
123	0x3603be23	1.9631195e-06
124	0x3743c10c	1.1667853e-05
125	0x37a00c98	1.907935e-05
126	0x36200d06	2.3849439e-06
127	0x36daefb7	6.5248128e-06
