experiments/ppo_spy_indicators_20251206_121418/final_model.pth (torch, 579227 bytes, 21 tensors)

shared_net.0.weight f4 [128, 303]
0	0xbe147cd6	-0.14500746
1	0xbe2c8437	-0.16847311
2	0x3e2f5fa9	0.17126335
3	0xbcbf8081	-0.023376705
4	0x3db78d29	0.08962471
5	0x36f7fa5e	7.39032e-06
6	0xbb88e558	-0.0041777305
7	0x3cf346cd	0.029696846
8	0xbda89bb7	-0.08232825
9	0xbd907f79	-0.070555635
10	0xbc277cc6	-0.010222619
11	0x3e06f09a	0.1317772
12	0xbc918dd2	-0.01776782
13	0x3daac27f	0.083378784
14	0x3c8fc51a	0.01755004
15	0x3d850423	0.0649493
16	0x3d1b770f	0.03795534
17	0x3e394d87	0.1809598
18	0x3d6f1ab9	0.058375094
19	0xbd897225	-0.067112245
20	0x3dc85f5d	0.09783814
21	0xbdf8070e	-0.121107206
22	0xbd1981db	-0.037477355
23	0xbddbf231	-0.10739554
24	0xbe4e2720	-0.20132113
25	0x3d054b44	0.032542482
26	0xbc96914c	-0.01837983
27	0x3d474ea8	0.048658997
28	0xbdb05096	-0.086091205
29	0xbcdcee30	-0.026969045
30	0x3b839d3d	0.004016547
31	0xbdb655ec	-0.08903107
32	0xbccbbf5c	-0.02487152
33	0xbcc41b35	-0.023938755
34	0xbcddbd7a	-0.027067889
35	0x3d00093f	0.031258818
36	0x3cc87cf1	0.02447364
37	0x3dd72493	0.10505023
38	0xbd6732d1	-0.056444947
39	0xbe13f437	-0.1444863
40	0x3d89cb14	0.06728187
41	0x3df29b4a	0.11846025
42	0x3c8f2716	0.017474692
43	0xbdd7e7bc	-0.10542247
44	0xbbcd1ea2	-0.006259755
45	0x3bd130ac	0.006383976
46	0xbd957be3	-0.0729902
47	0xbc9f6f4c	-0.01946225
48	0xbd9decaa	-0.07711156
49	0x3c4e07ff	0.012575149
50	0xbce5ebc7	-0.028066529
51	0xbd08c8b9	-0.03339455
52	0x3d284fac	0.041091606
53	0x3cba46de	0.02273887
54	0x3ce84bc8	0.028356448
55	0x3b7ca631	0.0038551206
56	0xbc9b8ccd	-0.018988037
57	0x3d995700	0.07487297
58	0x3d9d2751	0.07673515
59	0xbde7e1b2	-0.11322345
60	0x3d259fed	0.04043572
61	0xbc2eb36a	-0.010662893
62	0x3d122d17	0.035687532
63	0xbdb564d2	-0.088571206
64	0x3b94b2e2	0.004537926
65	0x3be2a6dd	0.0069168643
66	0x3dc9a1db	0.098453246
67	0x3e35f444	0.17768961
68	0xbc5f15e7	-0.013616062
69	0x3d4a759e	0.049428575
70	0xbd2b1b6e	-0.041774206
71	0xbd472eb3	-0.04862852
72	0x3d3a5a1f	0.045496102
73	0x3c305785	0.010763054
74	0xbda4d1e7	-0.08047848
75	0x3d58f8ce	0.052971654
76	0xbd8856c8	-0.06657177
77	0x3d0f7be2	0.035030253
78	0xbd804fdf	-0.06265234
79	0xbc702df8	-0.014659397
80	0x3cc547f7	0.024082167
81	0xbd6e24ed	-0.058140684
82	0xbd0fa1e2	-0.035066493
83	0x3b12f7c6	0.0022425517
84	0xbd6cd989	-0.057824645
85	0x3cda2182	0.026627306
86	0x3d574cef	0.052563604
87	0xbe3e96bd	-0.1861219
88	0x3c607901	0.013700725
89	0xbd3d5066	-0.046219252
90	0x3d284bfa	0.041088082
91	0x3e36c337	0.17847906
92	0x3c2ea61e	0.010659723
93	0x3d037b82	0.032100208
94	0xbd91083a	-0.07081647
95	0x3be529cd	0.0069935084
96	0x3deadf64	0.1146839
97	0xbd1715dd	-0.036886085
98	0xbc1f79e4	-0.009733651
99	0x3e54014c	0.2070362
100	0x3d0d2ef7	0.034468617
101	0xbe09bbe5	-0.13450582
102	0x3e102de7	0.1408001
103	0x3dcd9ea1	0.10040022
104	0xbd9a8970	-0.075457454
105	0x3d48440d	0.048893023
106	0x3d28252e	0.041051082
107	0xbdba4c9d	-0.09096644
108	0xbc8e5044	-0.017372258
109	0x3bfbc79b	0.007683707
110	0x3d9594b1	0.07303751
111	0xbe024943	-0.1272326
112	0xbc55940f	-0.013035788
113	0xbe467d5c	-0.19383758
114	0xbd62ac60	-0.05534017
115	0x3dc45fff	0.09588622
116	0xbe8af384	-0.27138913
117	0x3bc72dd3	0.0060784607
118	0x3e4e1b3e	0.2012758
119	0x3caa47cd	0.02078619
120	0x3db170c2	0.08664085
121	0xbce43130	-0.027855486
122	0xbda356f2	-0.07975568
123	0xbd609adb	-0.05483518
124	0x3bf51d68	0.007480312
125	0xbc89fcfc	-0.016844265
126	0xbdb29dda	-0.08721514
127	0x3dfbaa93	0.12288394
128	0x3e03b400	0.12861633
129	0xbca71162	-0.020394031
130	0x3d022e52	0.031782456
131	0xbdeb1638	-0.11478847
132	0x3ddffb6d	0.109366275
133	0x3c7e03ed	0.015503866
134	0xbda26142	-0.07928707
135	0xbdac9875	-0.08427516
136	0x3b8c5c24	0.004283445
137	0x3dca4829	0.09877045
138	0xbdddb3e1	-0.10825325
139	0x3d6ecd75	0.058301408
140	0xbd65ee4c	-0.05613546
141	0x3cbd7c4f	0.023130564
142	0xbcdf1a12	-0.027234111
143	0x3c012982	0.007883431
144	0xbcceca00	-0.025242805
145	0xbd9511f0	-0.07278812
146	0x3e2092e3	0.15681033
147	0xbcb42f61	-0.021995248
148	0xbd52fa02	-0.051507957
149	0x3e3fc0e1	0.18725921
150	0xbd1b2ac0	-0.037882566
151	0xbdfb75f4	-0.12278357
152	0x3d3a12c7	0.045428064
153	0xbdfead82	-0.12435438
154	0xbd83c7bc	-0.06434581
155	0x3dc58b6e	0.09645735
156	0xbd5f673c	-0.05454181
157	0x3d85e2da	0.06537409
158	0x3dfaa68a	0.12238796
159	0xbc98ea23	-0.018666333
160	0xbc3b7f12	-0.01144387
161	0x3d83bc15	0.06432358
162	0x3d8f91a5	0.07010201
163	0xbdcd97d2	-0.10038723
164	0x3dc2c012	0.09509291
165	0x3cb81680	0.022471666
166	0x3db70f77	0.089384966
167	0x39f448a5	0.0004659343
168	0xbc151bb6	-0.009100845
169	0xbca3b6f8	-0.019984707
170	0x3d58d3e7	0.05293646
171	0x3bea4e93	0.00715048
172	0xbdaa0e87	-0.08303552
173	0xbdad2e11	-0.08456052
174	0xbd89346f	-0.06699454
175	0xbe0ca9d2	-0.13736656
176	0xbd795aba	-0.06087754
177	0x3d225e7e	0.039640896
178	0xbb1c5c5a	-0.0023858757
179	0x3ddab237	0.10678523
180	0xbd2ea711	-0.042639796
181	0xbdb70b2f	-0.0893768
182	0xbd678f61	-0.05653322
183	0xbb035c36	-0.0020043976
184	0x3db28d0f	0.08718311
185	0xbce40972	-0.027836535
186	0x3d8a5d83	0.06756117
187	0x3deb3503	0.114847206
188	0x3d40984b	0.047020238
189	0xbdb9f08f	-0.09079086
190	0xbe0fe343	-0.14051537
191	0x3c8cdb0b	0.017194292
192	0xbe36d70c	-0.17855471
193	0x3e23e890	0.16006684
194	0x3c8e1ee8	0.017348722
195	0x3d29bc51	0.04143936
196	0x3ca0d80b	0.019634267
197	0x3d37e309	0.044894252
198	0x3d23e1e7	0.04001036
199	0x3cfaf57d	0.030634636
200	0x3dad7632	0.084698096
201	0xbd6a4aad	-0.057200123
202	0x3d0ca2a0	0.03433478
203	0x3cf9aae9	0.030477004
204	0xbcb98d6f	-0.022650449
205	0x3d8f7e97	0.07006567
206	0xbd1086c5	-0.035284776
207	0x3d6bc8ce	0.05756455
208	0xbd154355	-0.036441166
209	0x3deb592d	0.11491618
210	0xbcbe9d5f	-0.0232684
211	0x3da6f9a7	0.08153086
212	0x392adcb6	0.00016294685
213	0xbd5c0a61	-0.053720836
214	0x3d8a3902	0.067491546
215	0xbdd421fc	-0.103580445
216	0x3dbdd5a3	0.092692636
217	0x3e07f93b	0.13278668
218	0xbca8a3ea	-0.020585973
219	0x3e1ca25e	0.15296313
220	0xbe3ca831	-0.18423535
221	0x3dfd6056	0.1237189
222	0xbd644fca	-0.055740155
223	0x3d773c24	0.06036009
224	0xbdc981bb	-0.09839197
225	0xbd3621ca	-0.044465818
226	0x3cc998b7	0.024608953
227	0xbb8ff3fd	-0.0043930993
228	0x3da8b54f	0.08237707
229	0x3dd4b5c5	0.10386232
230	0x3dde67b8	0.108596265
231	0xbd0edd13	-0.0348788
232	0x3d4dbf96	0.05023154
233	0xbbb548dc	-0.005532367
234	0x3d6e6e8f	0.058210906
235	0xbbd63cc4	-0.0065380055
236	0xbb83f657	-0.0040271687
237	0xbdca3f65	-0.09875373
238	0xbdd8b730	-0.10581815
239	0xbdde586a	-0.108567074
240	0xbd8f101a	-0.06985493
241	0xbd8be1ca	-0.06830175
242	0xbd3c5753	-0.045981716
243	0xbd035896	-0.032066904
244	0xbde83aa6	-0.11339311
245	0xbdd100fc	-0.10205266
246	0xbdae6080	-0.085145
247	0x3c990137	0.018677337
248	0x3d3b13fd	0.04567336
249	0x3df36d4e	0.118860826
250	0xbd4f2a25	-0.0505773
251	0xbde3e377	-0.1112737
252	0x3cbe2cd8	0.023214743
253	0xbce6451f	-0.028109131
254	0x3c942db4	0.0180882
255	0xbe16adda	-0.14714757

shared_net.0.bias f4 [128]
0	0x3e522252	0.20520905
1	0xbda5d823	-0.080978654
2	0x3e04f377	0.129835
3	0xbdf035c4	-0.11729005
4	0x3e17dd6c	0.1483056
5	0xbe024905	-0.12723167
6	0x3e6f69fd	0.23380275
7	0xbb0e7df6	-0.002174256
8	0x3e9ff274	0.31239665
9	0x3e605ff9	0.2191161
10	0xbe890d2d	-0.26767865
11	0x3e6e978c	0.23299998
12	0x3ecbfe61	0.39842513
13	0x3ccb4f59	0.02481811
14	0x3d45d2a5	0.04829659
15	0xbd6020d2	-0.0547188
16	0xbe12658c	-0.1429655
17	0xbdc1ff50	-0.09472525
18	0x3d24e1f3	0.040254544
19	0x3e921cc7	0.2853758
20	0xbe5f543f	-0.21809481
21	0xbe914f10	-0.28380632
22	0x3e9dc53a	0.30814534
23	0x3c6fa5c5	0.014626925
24	0x3ddcd5b4	0.10782948
25	0xbc8f6e56	-0.017508667
26	0x3ed9f1b2	0.4256721
27	0x3e1a731f	0.15082978
28	0x3e0ca8b4	0.1373623
29	0x3e13b15e	0.14423129
30	0xbd8c3469	-0.06845934
31	0x3e6ac61c	0.22927135
32	0x3e39e131	0.1815231
33	0xbd9707cb	-0.07374533
34	0xbe813000	-0.25231934
35	0xbd9bd8b0	-0.07609689
36	0x3d2af97c	0.041741833
37	0xbe60f810	-0.21969628
38	0x3c995699	0.01871805
39	0x3eb01f35	0.3439881
40	0xbe388189	-0.18018164
41	0xbe2c1d2c	-0.16808003
42	0xbe33aae4	-0.17545658
43	0x3d8b0b4f	0.06789266
44	0xbe48af56	-0.19598135
45	0xbe9edbbe	-0.31027025
46	0xbdde23a5	-0.108466424
47	0x3e9bc0d0	0.30420542
48	0x3e4f6f26	0.20257244
49	0xbd9c02f7	-0.07617753
50	0xbe24ed4a	-0.16106144
51	0x3e1a6c01	0.15080263
52	0x3e44fe57	0.19237648
53	0x3aed65bd	0.0018111985
54	0xbeadad5a	-0.3392132
55	0xbe6c5366	-0.23078689
56	0xbdf2d4f1	-0.118570216
57	0xbe5f06e8	-0.21779978
58	0x3b767863	0.0037608377
59	0xbddffdcc	-0.1093708
60	0x3e525a31	0.20542218
61	0x3c7908a2	0.015199812
62	0x3e4c5da8	0.19957602
63	0xbea4b646	-0.32170314
64	0xbc1f0628	-0.009706058
65	0x3e3e6274	0.18592244
66	0x3e39f8f9	0.18161382
67	0x3ddbffd8	0.10742158
68	0xbe8540dc	-0.26026046
69	0xbe096e74	-0.13421041
70	0xbe1cfab7	-0.15330015
71	0xbda54e2a	-0.08071549
72	0xbe07a35c	-0.1324591
73	0xbd920ad1	-0.07130969
74	0xbe0410aa	-0.12896982
75	0x3e8a8056	0.27051038
76	0x3e8d1c41	0.2756062
77	0x3e2a0595	0.16603692
78	0xbe003bda	-0.12522832
79	0x3eabc6ae	0.33550018
80	0x3e45734a	0.1928226
81	0xbe52e1cf	-0.20593952
82	0x3e0dfa2a	0.13864961
83	0x3d08c2ec	0.033389017
84	0xbc2dc1bc	-0.010605272
85	0xbe994ae9	-0.29939964
86	0x3ecea0eb	0.40357146
87	0xbe81ee6f	-0.25377223
88	0x3d83c3d0	0.06433833
89	0xbef23382	-0.47304922
90	0x3e6bc4b2	0.23024252
91	0x3e6d9f3a	0.23205271
92	0x3eb1199e	0.34589857
93	0x3f008df1	0.50216585
94	0x3e1ea5d2	0.15492943
95	0x3e1a12c3	0.1504622
96	0xbea43718	-0.32073283
97	0xbdf1d087	-0.118073516
98	0xbd4e5bc9	-0.050380502
99	0x3e0b8fff	0.13629149
100	0x3e184812	0.14871243
101	0x3e269b9f	0.16270302
102	0xbee58663	-0.4482909
103	0x3e399572	0.18123415
104	0xbe1251fa	-0.14289084
105	0xbe2d3e52	-0.16918305
106	0x3de2122d	0.11038623
107	0x3e2494a5	0.16072328
108	0x3e581aea	0.21104017
109	0xbebbf54e	-0.3671059
110	0x3e781cd1	0.24229743
111	0xbedc79b4	-0.43061602
112	0xbeaf60a9	-0.34253433
113	0xbd16c5cc	-0.036809728
114	0x3e4b69e1	0.19864608
115	0x3efd3625	0.49455371
116	0x3de41266	0.11136322
117	0x3e67f827	0.22653256
118	0xbe8ade3a	-0.2712267
119	0x3e482e7f	0.19548987
120	0xbe4391c6	-0.19098577
121	0xbe07589b	-0.13217394
122	0x3e881c43	0.26584062
123	0x3e80ed2d	0.2518095
124	0x3dfa49d7	0.12221115
125	0xbe470183	-0.1943417
126	0xbd11f190	-0.035630763
127	0x3e1bb6ae	0.15206406

shared_net.3.weight f4 [64, 128]
0	0xbe64cafa	-0.22343054
1	0x3d6df5d9	0.058095787
2	0xbdec59aa	-0.115405396
3	0x3e505dce	0.20348284
4	0xbdac5466	-0.08414535
5	0xbd13abf9	-0.036052678
6	0x3e0b62ee	0.13611957
7	0xbe4c168e	-0.19930479
8	0xbd8a3203	-0.0674782
9	0xbc9234d6	-0.01784746
10	0x3a5ab491	0.00083429465
11	0xbb553ddb	-0.003253809
12	0x3ccb0751	0.024783762
13	0x3e21d68c	0.158045
14	0xbdb092d0	-0.08621752
15	0xbe6cbde9	-0.2311932
16	0xbe0b6222	-0.13611653
17	0xbd05ec02	-0.032695778
18	0x3d95277d	0.072829224
19	0xbcb9bd9a	-0.022673417
20	0x3dbf88b6	0.093522474
21	0x3da1ba52	0.07896866
22	0xbe269b20	-0.16270113
23	0xbca26682	-0.01982427
24	0xbea00585	-0.3125421
25	0xbde534ba	-0.111916974
26	0xbd957018	-0.07296771
27	0x3e21b324	0.15790993
28	0x3e086f39	0.13323678
29	0xbd715826	-0.058921956
30	0x3e4c02bf	0.19922923
31	0xbdfa31b7	-0.122165136
32	0xbd622562	-0.055211432
33	0x3e8143e0	0.25247097
34	0xbdb3f9c6	-0.08787875
35	0x3ed75dd9	0.42063788
36	0x3e95d0f9	0.29260996
37	0x3d901cb0	0.07036722
38	0x3e2b97ac	0.16757077
39	0xbcb5768d	-0.022151256
40	0xbe454c37	-0.19267355
41	0x3e422b5b	0.18961851
42	0x3dc16cc4	0.094445735
43	0x3e81ea02	0.25373846
44	0x3c92e47f	0.017931221
45	0x3e3db52e	0.18526146
46	0xbdf719af	-0.12065446
47	0xbd33f098	-0.04393062
48	0xbc0a4e00	-0.008441448
49	0x3ccc7d37	0.02496205
50	0xbea1963b	-0.3155993
51	0xbe2b69a7	-0.16739522
52	0x3c9d5089	0.019203441
53	0x3d1f6b5d	0.03892075
54	0x3e3a068d	0.18166561
55	0xbded254e	-0.11579381
56	0xbe40658d	-0.18788739
57	0x3dbae766	0.09126167
58	0x3e3c5e03	0.18395238
59	0xbd995949	-0.07487733
60	0xbdc24f52	-0.094877854
61	0xbd02d4d7	-0.03194126
62	0x3dc6b596	0.097026035
63	0xbd87e73e	-0.06635903
64	0xbebcc2cc	-0.36867368
65	0x3d9c2b03	0.07625391
66	0xbcf58cba	-0.02997433
67	0x3e314926	0.1731306
68	0x3e2e2149	0.17004885
69	0x3dc3c02b	0.095581375
70	0xbe1293a4	-0.14314133
71	0xbc6819c2	-0.014166297
72	0x3e8810ac	0.2657522
73	0x3eac02e5	0.33595958
74	0x3c84c7a0	0.01620847
75	0xbd39ede6	-0.045392893
76	0xbc6e8d3d	-0.014560041
77	0x3d5b901b	0.053604227
78	0xbd724794	-0.059150293
79	0xbe08eab9	-0.1337079
80	0x3e5f1de0	0.2178874
81	0x3d047e7d	0.03234719
82	0x3e00aff2	0.12567118
83	0x3cff9f26	0.031203818
84	0xbc42602c	-0.0118637495
85	0xbe611893	-0.2198203
86	0xbda03134	-0.07821885
87	0x3e04426e	0.12915966
88	0xbe097d81	-0.13426782
89	0x3e280706	0.16408929
90	0x3c8d7ab0	0.017270416
91	0xbd5ff76a	-0.05467931
92	0xbdec9311	-0.11551488
93	0x3e1bd829	0.15219177
94	0x3d021837	0.031761374
95	0xbe0cdbb4	-0.13755685
96	0xbe844ced	-0.2583994
97	0xbdfacff8	-0.12246698
98	0x3d3bd921	0.045861367
99	0x3dd74ffa	0.10513301
100	0xbd54bad2	-0.05193598
101	0xbe55f89c	-0.20895618
102	0xbe498c0c	-0.1968233
103	0xbe6d79b1	-0.23190953
104	0x3da6cd44	0.0814462
105	0xbd7b1f60	-0.06130922
106	0xbe82c1a8	-0.25538373
107	0xbe92bba6	-0.2865879
108	0x3e44d4b2	0.19221762
109	0x3cf07635	0.02935324
110	0xbdd1e230	-0.1024822
111	0x3a8fbc90	0.001096623
112	0x3d34d452	0.044147797
113	0xbdaaf21e	-0.083469614
114	0xbcabafaf	-0.020957796
115	0x3d6baa2b	0.05753533
116	0x3dc8be97	0.09801977
117	0x3e49faef	0.1972463
118	0x3dc5a1a6	0.096499726
119	0xbe4c07b0	-0.19924808
120	0xbe38df86	-0.18054017
121	0xbcd0fbdf	-0.025510726
122	0x3e082e60	0.1329894
123	0x3dd5df15	0.1044294
124	0x3e13a966	0.14420089
125	0x3d90e433	0.070747755
126	0xbdc77db9	-0.097407766
127	0xbe11a2a6	-0.14222202
128	0xbde95964	-0.11394003
129	0x3e156ebb	0.14593022
130	0x3e32e8cc	0.17471617
131	0x3e036e18	0.12834966
132	0xbe151896	-0.1456016
133	0xbe1c4b79	-0.15263166
134	0xbde09916	-0.10966699
135	0x3d098f08	0.03358367
136	0xbe1878e6	-0.14889869
137	0xbc9cb5d7	-0.019129677
138	0x3e8b48fa	0.27204114
139	0xbda83c11	-0.08214582
140	0xbd85a0b9	-0.06524796
141	0x3dab564d	0.0836607
142	0xbe1c9934	-0.15292817
143	0x3df66fda	0.12033053
144	0xbd51eb7c	-0.051249966
145	0x3d22c527	0.0397388
146	0x3d8e550d	0.06949816
147	0x3de68022	0.11254908
148	0xbe10c9aa	-0.14139429
149	0x3e681490	0.22664094
150	0x3d0334bb	0.03203271
151	0xbe28a9b5	-0.16470988
152	0xbd5ef862	-0.054436095
153	0x3e17260b	0.14760606
154	0xbe1d5c21	-0.15367176
155	0xbd21a5bf	-0.03946471
156	0xbe5a71b5	-0.21332438
157	0xbe514c84	-0.20439345
158	0xbdcd85bd	-0.10035274
159	0xbd401cc1	-0.04690242
160	0xbe5be532	-0.2147415
161	0xbcb5a10c	-0.02217152
162	0x3de1be08	0.11022574
163	0xbda8ba2c	-0.082386345
164	0xbe9c46d6	-0.30522794
165	0x3dcfebb8	0.10152382
166	0x3eaaad20	0.3333521
167	0xbe05a099	-0.13049544
168	0x3dfe2b5e	0.124106154
169	0x3e107dfc	0.14110559
170	0xbc9b90d1	-0.018989952
171	0xbe2dc1a0	-0.16968393
172	0xba87c7f0	-0.0010359269
173	0x3d8f2e75	0.06991283
174	0xbe6e018c	-0.23242778
175	0x3d2b0307	0.041750934
176	0x3da2b49d	0.079446055
177	0x3e294b79	0.16532697
178	0xbe4008fb	-0.18753426
179	0xbe90d00f	-0.28283736
180	0xbe537757	-0.20650993
181	0xbe347375	-0.17622168
182	0x3e4b62fa	0.19861975
183	0xbd041d15	-0.032254297
184	0xbd5ab922	-0.053399213
185	0x3da736b7	0.08164733
186	0x3d0edc87	0.03487828
187	0x3e9248ca	0.2857116
188	0x3ba494bd	0.005022614
189	0x3d15940d	0.036518145
190	0x3d4dcd27	0.050244477
191	0x3e27d9a1	0.16391613
192	0x3d448646	0.047979616
193	0xbe73048a	-0.237322
194	0xbde2b909	-0.11070449
195	0x3e094a3d	0.13407226
196	0x3e24b809	0.16085829
197	0x3e8b1b97	0.27169487
198	0xbe7c436a	-0.24635091
199	0xbe04d6bd	-0.12972541
200	0x3d825910	0.063646436
201	0xbde2907a	-0.11062713
202	0xbd138778	-0.036017865
203	0xbba19f0b	-0.0049322895
204	0xbe55a939	-0.20865335
205	0xbddd8ddc	-0.10818073
206	0xbe41d6c8	-0.18929589
207	0xba9f7fb5	-0.0012168797
208	0xbec88f54	-0.3917185
209	0xbe530c2a	-0.20610109
210	0xbe5ce56b	-0.21571891
211	0xbbc21aa7	-0.0059235874
212	0x3e99940e	0.2999577
213	0x3e66e900	0.2254982
214	0xbedefcb6	-0.43552178
215	0x3ea27ed1	0.31737378
216	0xbcade62c	-0.021227919
217	0xbbb8cc7d	-0.0056396113
218	0x3e2c84b4	0.16847497
219	0xbe0c4556	-0.13698325
220	0xbe4f4824	-0.20242363
221	0xbe733006	-0.23748788
222	0x3c994030	0.018707365
223	0xbd544e97	-0.05183276
224	0x3e3e699d	0.18594976
225	0x3e8b6cb4	0.2723137
226	0xbbfcc867	-0.0077143195
227	0xbe1d5a42	-0.15366462
228	0xbd90763f	-0.07053804
229	0xbecd7b29	-0.40133026
230	0x3d64b909	0.055840526
231	0xbd99415a	-0.07483168
232	0x3e3733b0	0.17890811
233	0xbe1dd486	-0.15413103
234	0x3dc4075c	0.09571716
235	0xbe57dd49	-0.21080507
236	0xbe04a218	-0.12952459
237	0x3e25dabc	0.16196722
238	0xbe8803e9	-0.26565483
239	0x3e6c307d	0.23065372
240	0xbd2e1f3a	-0.04251025
241	0x3de3919b	0.111117564
242	0x3c0ac63b	0.008470113
243	0xbec56142	-0.38550764
244	0xbd0a36bc	-0.033743605
245	0x3dca12f5	0.09866897
246	0x3ea367c1	0.31915095
247	0x3d56f1e7	0.05247679
248	0xbda5bf57	-0.08093136
249	0x3e0b1ac8	0.13584435
250	0xbe2f5ec1	-0.1712599
251	0xbc2a2c65	-0.010386561
252	0xbe12a95f	-0.14322422
253	0xbaaa07b9	-0.0012972272
254	0x3e802ccb	0.25034174
255	0xbe197c4d	-0.14988823

shared_net.3.bias f4 [64]
0	0xbe321a1b	-0.17392771
1	0xbef159f7	-0.4713895
2	0x3f0b81e1	0.54495054
3	0xbede99b7	-0.4347665
4	0x3e79e233	0.24402694
5	0xbebd5408	-0.36978173
6	0x3eaaaee3	0.33336553
7	0xbe93eb09	-0.28890255
8	0x3e144fce	0.14483568
9	0x3edd0259	0.43165854
10	0x3ebb8451	0.36624387
11	0xbeb9361c	-0.36174095
12	0xbebd0106	-0.36914843
13	0xbeaf7a92	-0.342732
14	0xbeb39dab	-0.3508123
15	0xbe3099f4	-0.17246228
16	0xbef25a1e	-0.4733438
17	0x3ebb8308	0.36623406
18	0x3ebeef4b	0.3729194
19	0x3f065bf1	0.5248404
20	0x3f0a374e	0.5399064
21	0xbe8093af	-0.25112674
22	0xbec3c94c	-0.38239515
23	0x3e370b90	0.17875504
24	0xbea802a9	-0.3281453
25	0x3edfb338	0.4369142
26	0xbeae4a32	-0.34040982
27	0xbf23d404	-0.63995385
28	0xbe6dd4f2	-0.23225763
29	0xbe0a92cc	-0.13532561
30	0xbedb814c	-0.42872083
31	0xbeb58d6c	-0.3545946
32	0x3e90c4ce	0.2827515
33	0x3ecbcd2b	0.39804968
34	0x3e60ada6	0.21941242
35	0x3ec9cd84	0.39414608
36	0xbe63f305	-0.22260673
37	0x3e7c1f02	0.24621204
38	0x3ed1c9d7	0.40974304
39	0xbee0cc25	-0.4390575
40	0xbeb90c4d	-0.36142197
41	0x3ee07a0e	0.4384312
42	0xbedcc327	-0.4311764
43	0x3e5ad5de	0.21370646
44	0xbef205c3	-0.4727002
45	0x3eb62bc9	0.3558028
46	0x3eae4818	0.34039378
47	0xbeb6a371	-0.3567157
48	0x3f0b86e0	0.5450268
49	0x3f22a593	0.63533896
50	0x3eaac42d	0.33352795
51	0xbe987019	-0.29773024
52	0x3ea00a41	0.31257823
53	0x3ee7937e	0.45229715
54	0x3d35d24b	0.044390004
55	0xbe1d231b	-0.15345423
56	0xbe9976ad	-0.29973355
57	0xbed58cda	-0.41709024
58	0x3ebe1fd5	0.3713366
59	0x3ebdec6d	0.3709444
60	0xbef232af	-0.47304294
61	0x3eb67ebf	0.35643575
62	0xbe54ed76	-0.20793709
63	0xbe991704	-0.29900372

actor.weight f4 [3, 64]
0	0xbd9af8fc	-0.07567021
1	0xbce4a520	-0.027910769
2	0xbaadb481	-0.0013252647
3	0xbba40904	-0.0050059576
4	0x3d3a8e3c	0.0455458
5	0xbbd53f58	-0.0065077953
6	0x3c9bdbf7	0.019025786
7	0xbdb6a907	-0.08918958
8	0xbc2f60e0	-0.010704249
9	0x3c7dbadd	0.015486446
10	0x3d22503e	0.039627306
11	0xbd893ed8	-0.067014396
12	0xbc7a8ea3	-0.015292796
13	0xbb033097	-0.0020017975
14	0xbcc57de3	-0.024107879
15	0xbce857a1	-0.028362097
16	0xbce185ac	-0.02752956
17	0x3d8a1b8c	0.067435354
18	0x3cebbb35	0.02877579
19	0x3d08865c	0.03333126
20	0x3ac46bae	0.0014985704
21	0x3ab09c64	0.0013474342
22	0xbc93c072	-0.018036101
23	0x3d2a6552	0.041600533
24	0xbcc33d1b	-0.023832848
25	0x3c76e51e	0.015069274
26	0xbd4a903f	-0.04945397
27	0xbca352da	-0.019936968
28	0xbd6d8f4c	-0.057997987
29	0xbe0e1533	-0.13875274
30	0xbbfc6bc2	-0.0077032754
31	0xbd46d385	-0.048541564
32	0xbca5ae6a	-0.020224769
33	0x3c9b8310	0.018983394
34	0x3daee26f	0.085392825
35	0x3d29f739	0.041495536
36	0xbdf2c542	-0.1185403
37	0x3d3d0d34	0.04615517
38	0x3d1c98bf	0.038231608
39	0xbd17ce74	-0.037062123
40	0xbbf26179	-0.0073968736
41	0x3bacf28a	0.0052779363
42	0x3b911c4b	0.0044284216
43	0x3d803364	0.06259802
44	0xbc8fffa5	-0.017577955
45	0xbc6086db	-0.013704027
46	0x3d1dc33e	0.038516276
47	0x3d01ddd9	0.03170571
48	0xbb7df2a5	-0.0038749364
49	0x3cc13e51	0.023589285
50	0xbca5d00c	-0.020240806
51	0xbcd8c459	-0.026460813
52	0xbc8aec32	-0.01695833
53	0x3d9ab83f	0.075546734
54	0x3de30abc	0.11086032
55	0xbbb1bf2b	-0.0054244003
56	0xbd294b11	-0.041331355
57	0xbd286a46	-0.041116975
58	0x3bc85241	0.006113321
59	0x3c264f72	0.010150777
60	0x3c3271c1	0.010891379
61	0x3cfee3cf	0.031114487
62	0xbd4a1642	-0.049337633
63	0xbd488a4a	-0.048960008
64	0xbd5b7924	-0.053582326
65	0xbc71e2c4	-0.014763538
66	0x3ab8a3dc	0.001408692
67	0x3c5d4998	0.013506316
68	0x3c6b8e58	0.014377199
69	0x3ce3d4db	0.027811458
70	0xbcdb7e88	-0.026793733
71	0xbc65f801	-0.0140361795
72	0x3c897a24	0.016781874
73	0xbb9b133f	-0.004732519
74	0xbd0b2579	-0.033971284
75	0x3cbcb51a	0.023035575
76	0x3ca08a77	0.019597275
77	0x3c28bc13	0.010298747
78	0xbd15523e	-0.036455385
79	0xbd01669d	-0.031592
80	0xbc8f9dc1	-0.017531278
81	0x3c5f281f	0.013620405
82	0xbcac8435	-0.021059135
83	0x3c8cfc69	0.017210202
84	0x3ca18260	0.019715488
85	0x3c60f91a	0.013731265
86	0x3cbcd8ef	0.02305266
87	0x3d1e70b2	0.038681693
88	0xbb8a34a8	-0.004217703
89	0xbb0a1359	-0.002106866
90	0xbcc183a0	-0.023622334
91	0xbba5e6ea	-0.0050629275
92	0x3cb1e09b	0.021713546
93	0x3c1b490d	0.009477866
94	0xb9114b54	-0.0001385634
95	0x3b2c62e6	0.0026304065
96	0xbc223a67	-0.0099016195
97	0xbc959a93	-0.018262183
98	0x3cddf47a	0.027094115
99	0x3ca87474	0.020563342
100	0x3c207d02	0.009795429
101	0xbafcb8a6	-0.0019281104
102	0x3be7a507	0.0070692333
103	0xbd0a9665	-0.033834834
104	0x3b160dcd	0.002289641
105	0xbcd382ea	-0.02581926
106	0x3b16737f	0.0022957025
107	0x3d0cd127	0.03437915
108	0xbc47d8e8	-0.012197711
109	0xbbc45d7b	-0.005992589
110	0xbb451854	-0.0030074315
111	0x3d07e983	0.03318168
112	0xbc93da50	-0.018048435
113	0x3bd0384a	0.0063543664
114	0x3a0988a3	0.0005246496
115	0x3cfb9741	0.030711772
116	0x3cee66c6	0.02910174
117	0x3c5e7681	0.013578058
118	0xbbf46b14	-0.007459054
119	0xbbf35ef8	-0.0074270926
120	0x3c40bb12	0.011763351
121	0x3cf21efe	0.029555794
122	0xbd0ccfb0	-0.034377754
123	0x3cd04e82	0.02542806
124	0x3c98da62	0.01865882
125	0xbd1e1bb0	-0.038600624
126	0x3c216432	0.009850549
127	0x3cfabfed	0.030609095
128	0x3e1b8381	0.15186884
129	0x3d6253c3	0.055255663
130	0x3be25fae	0.0069083786
131	0xbc9a52a0	-0.018838227
132	0xbd8e19c0	-0.06938505
133	0xbd144778	-0.03620097
134	0x3c1e3e13	0.009658354
135	0x3e024549	0.12721743
136	0xbc042639	-0.008065754
137	0xbada16b8	-0.0016638851
138	0xba7f4536	-0.0009737791
139	0x3d482165	0.048859973
140	0xbc82f87b	-0.015987625
141	0xbc8a626c	-0.016892634
142	0x3d7d5dbe	0.061856978
143	0x3d8ffef1	0.07031048
144	0x3d4d7413	0.050159525
145	0xbdc18caf	-0.094506614
146	0xb931961c	-0.00016935956
147	0xbd6f20f0	-0.05838102
148	0xbc3dc387	-0.011582262
149	0xbc9c5848	-0.019085065
150	0xbc69873f	-0.014253437
151	0xbdcab64a	-0.0989805
152	0x3cdb03a1	0.026735129
153	0xbc36aadb	-0.011149134
154	0x3dbb18cd	0.0913559
155	0x3ccec687	0.02524115
156	0x3d15ce7e	0.03657388
157	0x3e1b19d1	0.15146567
158	0x3b02027e	0.0019837911
159	0x3d54b533	0.051930618
160	0x3d2ace39	0.041700576
161	0x3b4db69e	0.0031389366
162	0xbe07dec0	-0.13268566
163	0xbd8a5a95	-0.067555584
164	0x3e013207	0.1261674
165	0xbd65bd0e	-0.0560885
166	0xbd634099	-0.055481527
167	0x3da3114c	0.079622835
168	0xbaa47413	-0.00125468
169	0x3d12a537	0.035802092
170	0xbc3ea384	-0.011635665
171	0xbdf3758e	-0.11887656
172	0x3cd25b70	0.025678366
173	0x3cdecfc9	0.027198689
174	0xbd0d06c3	-0.034430277
175	0xbdaebd46	-0.08532195
176	0x3d0affc8	0.03393534
177	0xbcff3fe6	-0.031158399
178	0x3cde4907	0.027134432
179	0xbc6a9c51	-0.014319495
180	0xbc6d2f53	-0.014476615
181	0xbdc89b2a	-0.0979522
182	0xbe016e70	-0.12639785
183	0x3c2140ec	0.009842139
184	0x3cc7250b	0.024309656
185	0x3c163bc6	0.009169525
186	0x3d33688b	0.04380087
187	0xbd2b5e20	-0.04183781
188	0xbd2eefa4	-0.042709008
189	0x3c936393	0.017991817
190	0x3d3168b2	0.043312736
191	0x3c0f1b09	0.008734473

actor.bias f4 [3]
0	0xbe06e363	-0.13172679
1	0x3ca123aa	0.019670326
2	0x3e17768a	0.14791313

critic.weight f4 [1, 64]
0	0xbe47094f	-0.19437145
1	0xbe4ca239	-0.19983758
2	0x3e4d2b7a	0.20036116
3	0xbe7e7bea	-0.24851957
4	0x3e83464c	0.2563957
5	0xbe7f6bfe	-0.2494354
6	0x3e954973	0.291576
7	0xbe31845b	-0.17335646
8	0xbe4abf54	-0.19799548
9	0x3e598460	0.21241903
10	0x3e588ac1	0.2114668
11	0xbe3f2572	-0.18666628
12	0xbe8866b4	-0.26640856
13	0xbe4c774c	-0.19967383
14	0xbe60e6db	-0.21963064
15	0xbe53809a	-0.20654526
16	0xbe3e5364	-0.18586498
17	0x3e4083d4	0.18800288
18	0x3e812542	0.25223738
19	0x3e4f5c82	0.20250133
20	0x3e562336	0.2091187
21	0xbe4c52b3	-0.19953422
22	0xbe540b58	-0.20707452
23	0x3e433f81	0.19067194
24	0xbe3f5559	-0.18684901
25	0x3e59c04f	0.21264766
26	0xbe61af2d	-0.2203948
27	0xbe53010f	-0.20605873
28	0xbe72552e	-0.23665306
29	0xbe57ef72	-0.21087435
30	0xbe5541b8	-0.20825851
31	0xbe5aec67	-0.21379243
32	0x3e599166	0.21246871
33	0x3e4f0301	0.2021599
34	0x3e635b34	0.2220276
35	0x3e6c28e3	0.23062472
36	0xbe743a20	-0.23850298
37	0x3e4f79f5	0.20261367
38	0x3e64e48f	0.22352813
39	0xbe4a2dca	-0.1974403
40	0xbe6eb883	-0.23312573
41	0x3e81d91d	0.25360957
42	0xbe650fe8	-0.22369349
43	0x3e526640	0.20546818
44	0xbe4ba760	-0.19888067
45	0x3e61423f	0.21997927
46	0x3e6561ae	0.22400543
47	0xbe6a5197	-0.22882687
48	0x3e6789e6	0.22611198
49	0x3e525cd0	0.20543218
50	0x3e4eec91	0.2020743
51	0xbe36fd64	-0.17870098
52	0x3e554b23	0.20829444
53	0x3e3295e5	0.17439993
54	0x3e2ebd62	0.17064431
55	0xbe4bef6e	-0.19915554
56	0xbe44b4f7	-0.19209658
57	0xbe372bbe	-0.1788778
58	0x3e3d68b4	0.18496972
59	0x3e683604	0.22676855
60	0xbe508a5f	-0.20365284
61	0x3e3ed5c6	0.18636236
62	0xbe35d552	-0.17757156
63	0xbe55e121	-0.20886661

exp_avg f4 [128, 303]
0	0x38620f2c	5.389673e-05
1	0x385e2b87	5.2969463e-05
2	0x38985443	7.26362e-05
3	0x387db629	6.048955e-05
4	0xba3070b6	-0.00067306624
5	0xb940f4be	-0.0001840172
6	0x3851391b	4.9882667e-05
7	0x37f8aa86	2.964331e-05
8	0x39c06816	0.00036698644
9	0xb7ad5145	-2.0661051e-05
10	0x38502744	4.9627633e-05
11	0x386afdf9	5.6026478e-05
12	0x387313c0	5.795411e-05
13	0x386b2bde	5.606922e-05
14	0xba1a40a4	-0.0005884266
15	0xb90f8ae3	-0.00013689282
16	0x38600d37	5.341807e-05
17	0x380377ef	3.134453e-05
18	0x39818411	0.00024703195
19	0x39699f7a	0.00022280021
20	0x383a8aab	4.4475e-05
21	0x38147a34	3.539976e-05
22	0x38083982	3.2478485e-05
23	0x37cb7614	2.425447e-05
24	0xb9c3050c	-0.0003719706
25	0xba1d9624	-0.00060114474
26	0x384f922b	4.9488775e-05
27	0x38088b7b	3.2554828e-05
28	0xb770e539	-1.4358485e-05
29	0xb8679630	-5.5214565e-05
30	0x36a4f9db	4.916668e-06
31	0xb78466a0	-1.5783415e-05
32	0xb82363c0	-3.8955128e-05
33	0xb85bef38	-5.243646e-05
34	0x396e7f56	0.00022744885
35	0xbb06bc93	-0.0020559176
36	0x38266069	3.9667273e-05
37	0x380493de	3.1608964e-05
38	0xba327534	-0.0006807626
39	0x383a74a4	4.4454486e-05
40	0xb8837b2f	-6.2695115e-05
41	0xb8488d19	-4.7815123e-05
42	0xb89ab38e	-7.376737e-05
43	0xb84518d1	-4.6991572e-05
44	0x394c213f	0.00019467341
45	0x3974ffe1	0.00023364976
46	0x37f3410e	2.899815e-05
47	0x37fa57d7	2.9843226e-05
48	0xba3544d2	-0.0006914857
49	0x39bd025f	0.00036050656
50	0xb8808e69	-6.1300416e-05
51	0xb82e02a4	-4.1487292e-05
52	0xb87c2806	-6.0118757e-05
53	0xb838f0f7	-4.4093435e-05
54	0x373745ea	1.0923928e-05
55	0xb90871e9	-0.00013012406
56	0x37afd3c3	2.0960235e-05
57	0x37e98be0	2.7840899e-05
58	0xba1b4ab0	-0.000592391
59	0x39ba4c2e	0.00035533443
60	0xb8528b3d	-5.0197577e-05
61	0xb8866dfc	-6.410104e-05
62	0xb88b8a1c	-6.6537614e-05
63	0xb8925c19	-6.978977e-05
64	0xba2293b7	-0.0006201821
65	0xba2a6e07	-0.00065013807
66	0x374de9df	1.22734045e-05
67	0x37d178e8	2.4971043e-05
68	0xba9a2fde	-0.0011763533
69	0x39bf0029	0.00036430478
70	0xb84dc711	-4.9061204e-05
71	0xb868057a	-5.531821e-05
72	0xb8a0934a	-7.656829e-05
73	0xb88cfa7f	-6.722379e-05
74	0x38331ff3	4.270668e-05
75	0xb88053f1	-6.119151e-05
76	0x360dca29	2.112831e-06
77	0x37c25b32	2.3169068e-05
78	0xba945e86	-0.0011319674
79	0x3a0216c4	0.0004962499
80	0xb89c18b1	-7.443259e-05
81	0xb87325b9	-5.7970847e-05
82	0xb8905186	-6.88164e-05
83	0xb862ecda	-5.4103184e-05
84	0xba078b0b	-0.00051705603
85	0x39aa7607	0.00032512864
86	0xb6e0ec41	-6.703224e-06
87	0x37b39c75	2.1411319e-05
88	0xba816b2d	-0.000987386
89	0x39a96b6b	0.00032314225
90	0xb84f27d1	-4.9389728e-05
91	0xb829e59e	-4.0506588e-05
92	0xb878dca3	-5.933329e-05
93	0xb8626770	-5.3978933e-05
94	0x39902252	0.0002749139
95	0x3795ba36	1.7848895e-05
96	0xb79a82c2	-1.841912e-05
97	0x37a0e161	1.9178437e-05
98	0xba5f4c31	-0.00085181283
99	0x3a2ade75	0.0006518134
100	0xb87276ba	-5.780787e-05
101	0xb8413cea	-4.6071516e-05
102	0xb84d709c	-4.8980684e-05
103	0xb82be97b	-4.0987023e-05
104	0xb99c89cd	-0.00029857308
105	0x39b6080c	0.0003471974
106	0xb7efd4b5	-2.859007e-05
107	0x37a026fe	1.9091643e-05
108	0xba33631d	-0.0006843077
109	0x3a35db22	0.00069372554
110	0xb728dc28	-1.0064839e-05
111	0x37aa4f5f	2.030254e-05
112	0x374804fc	1.19220895e-05
113	0x37f456a6	2.9127415e-05
114	0xb9fa6007	-0.00047755262
115	0x3abe2022	0.0014505426
116	0xb8033e1a	-3.129067e-05
117	0x37af0f8d	2.0868867e-05
118	0xb9f3ca5b	-0.00046499338
119	0x3a1505a3	0.0005684739
120	0x37beaf24	2.2731321e-05
121	0x3818ed1d	3.6460453e-05
122	0x37ade4a7	2.0729682e-05
123	0x3805ebe7	3.1929372e-05
124	0x39598cf2	0.00020747239
125	0x3935eb4f	0.00017349164
126	0xb800041b	-3.05214e-05
127	0x37c16d4d	2.305829e-05
128	0xba05a58e	-0.0005098217
129	0x3a5a2066	0.0008320868
130	0x38401487	4.5795485e-05
131	0x37acb224	2.0586951e-05
132	0x38731035	5.795081e-05
133	0x37e6988f	2.7489177e-05
134	0xba2630d2	-0.0006339672
135	0xb983e8b4	-0.00025159644
136	0xb7bcd499	-2.2510345e-05
137	0x37c8795e	2.3898374e-05
138	0xba29d4b1	-0.0006478532
139	0x3a05939c	0.0005095543
140	0x38475413	4.7523597e-05
141	0x37ca244f	2.4097184e-05
142	0x381ef2ee	3.789638e-05
143	0x380ca220	3.352959e-05
144	0xba1ee91a	-0.00060619565
145	0x3986b443	0.00025692777
146	0xb77240f3	-1.4439446e-05
147	0x37dcc2be	2.6316728e-05
148	0xba16cc54	-0.0005752493
149	0x39dbc280	0.0004191585
150	0x37cdfc02	2.4555255e-05
151	0x37a5719b	1.9722434e-05
152	0x382b3994	4.08232e-05
153	0x37c6493f	2.3637547e-05
154	0xba5736cf	-0.0008209766
155	0xb9c085a0	-0.00036720652
156	0xb7005e2a	-7.651319e-06
157	0x37e9d059	2.7872784e-05
158	0xb9b8bc4a	-0.000352355
159	0x38278d0e	3.994727e-05
160	0x37f89a76	2.963583e-05
161	0x37516f3b	1.2483269e-05
162	0x371ebd1a	9.4615625e-06
163	0x361e15e4	2.3556577e-06
164	0xba6fc440	-0.000914637
165	0xb9bde152	-0.00036216766
166	0xb4e15739	-4.197298e-07
167	0x37f04bf3	2.8645596e-05
168	0xb9d45848	-0.00040501566
169	0x38a65c10	7.932645e-05
170	0x37731fe8	1.4491357e-05
171	0x36e22a60	6.740258e-06
172	0xb7549fcd	-1.2673391e-05
173	0xb5bdcf01	-1.4141843e-06
174	0xb95840e9	-0.00020623546
175	0xb8bd5da3	-9.0296635e-05
176	0x36cf3a7c	6.175889e-06
177	0x37efddd6	2.859432e-05
178	0x36fbf607	7.5090243e-06
179	0xb845cda7	-4.715999e-05
180	0x37fe7346	3.0332838e-05
181	0x3815a6ce	3.5679717e-05
182	0x37f84891	2.9597695e-05
183	0x382be4ac	4.0982544e-05
184	0xb9bb9e4a	-0.00035785354
185	0x3a72afd0	0.00092577655
186	0x3783c111	1.570632e-05
187	0x37ff1206	3.0406762e-05
188	0x3912f014	0.00014013081
189	0xb8f0cf11	-0.00011482661
190	0x388de9c3	6.7669454e-05
191	0x382943de	4.0355946e-05
192	0x386c4e90	5.633995e-05
193	0x382124de	3.8419726e-05
194	0xba0518a7	-0.0005077221
195	0xb9385c0c	-0.00017581898
196	0x37d170dc	2.4967296e-05
197	0x3806b638	3.2117794e-05
198	0x3975857e	0.0002341475
199	0xb9b93193	-0.00035322885
200	0x37c04c0f	2.2923601e-05
201	0x37ea5602	2.7935024e-05
202	0x381402c5	3.528853e-05
203	0x3821e8d0	3.8602215e-05
204	0xba642e11	-0.0008704374
205	0x3885cd87	6.380217e-05
206	0x380a2db8	3.2944343e-05
207	0x38095d2a	3.275011e-05
208	0x3a2fadd1	0.0006701621
209	0xb9f7b27d	-0.00047244495
210	0x384f78c6	4.9465125e-05
211	0x3852825f	5.018932e-05
212	0x385032d8	4.9638416e-05
213	0x38876193	6.455476e-05
214	0xba1026ae	-0.0005498928
215	0x3a61ac09	0.0008608704
216	0x381912e5	3.649564e-05
217	0x380f8527	3.4217865e-05
218	0x3a87ff5f	0.0010375789
219	0xb9e419ef	-0.0004350687
220	0x382feaae	4.1941814e-05
221	0x386743e5	5.5137923e-05
222	0x37f53d03	2.9234687e-05
223	0x383ac52e	4.4529494e-05
224	0xb8ac42bb	-8.214029e-05
225	0xba0cf23c	-0.0005376672
226	0x381e5ece	3.775843e-05
227	0x380cdb5c	3.3582895e-05
228	0x3a51b111	0.0007999102
229	0xba0286c5	-0.00049791887
230	0x3892cfa5	7.000499e-05
231	0x386eec83	5.696389e-05
232	0x3874b2be	5.83406e-05
233	0x384a891f	4.8288257e-05
234	0xb85b7e30	-5.233119e-05
235	0xb93f74d3	-0.000182587
236	0x38271cec	3.984284e-05
237	0x380d3dbc	3.3674514e-05
238	0x3a75b4fa	0.0009372976
239	0xb9704a7d	-0.00022915933
240	0x38595863	5.181915e-05
241	0x38814b3f	6.165215e-05
242	0x3899826d	7.319902e-05
243	0x389fd362	7.621084e-05
244	0xb9599d53	-0.0002075334
245	0x39f95b7f	0.0004756115
246	0x38390e44	4.4120723e-05
247	0x380f995c	3.4236684e-05
248	0x3a9e2984	0.0012066816
249	0xb9ded6f2	-0.00042503286
250	0x38e8e39a	0.00011105016
251	0x38e9a3e6	0.00011140834
252	0x38f4eea1	0.00011679275
253	0x3905cb0e	0.00012759512
254	0xba3b2527	-0.000713902
255	0x3aaa12e0	0.0012975596

exp_avg_sq f4 [128, 303]
0	0x371eba68	9.460935e-06
1	0x371f1744	9.4825555e-06
2	0x371ede79	9.469332e-06
3	0x371f1a97	9.483329e-06
4	0x3742eda4	1.1618631e-05
5	0x37384d8b	1.0985309e-05
6	0x371ee0ce	9.469875e-06
7	0x37211bfc	9.602863e-06
8	0x3726e30f	9.947237e-06
9	0x3713c52a	8.807789e-06
10	0x371faf01	9.517885e-06
11	0x371fbf28	9.521646e-06
12	0x371f9fcd	9.514345e-06
13	0x371fac3f	9.517243e-06
14	0x374bafa5	1.2140638e-05
15	0x37343b7b	1.0742685e-05
16	0x371f0d48	9.480231e-06
17	0x37213053	9.607599e-06
18	0x37279334	9.988249e-06
19	0x3715466f	8.897491e-06
20	0x372026ed	9.545806e-06
21	0x37202ca9	9.547141e-06
22	0x372031e5	9.54836e-06
23	0x3720460a	9.55305e-06
24	0x3744acc3	1.1722735e-05
25	0x373711fa	1.09118355e-05
26	0x371f4ff2	9.495752e-06
27	0x37214967	9.613438e-06
28	0x3726ce18	9.942356e-06
29	0x371cfbde	9.356967e-06
30	0x3720a10c	9.57424e-06
31	0x3720caca	9.583959e-06
32	0x3720b22e	9.578229e-06
33	0x37211c2f	9.60291e-06
34	0x3723e16c	9.768042e-06
35	0x3729c99e	1.0120128e-05
36	0x371faad9	9.516917e-06
37	0x37216572	9.619967e-06
38	0x3720e23e	9.589419e-06
39	0x37231250	9.719821e-06
40	0x3721af48	9.637159e-06
41	0x3721bf2a	9.640857e-06
42	0x3721d849	9.646706e-06
43	0x37221694	9.661209e-06
44	0x3717d376	9.049536e-06
45	0x370d7b3c	8.432948e-06
46	0x372023f6	9.545116e-06
47	0x37218cc7	9.629125e-06
48	0x372063f2	9.5600135e-06
49	0x37255577	9.854665e-06
50	0x37229688	9.691001e-06
51	0x37229c73	9.692379e-06
52	0x3722c178	9.700998e-06
53	0x3722f06c	9.71193e-06
54	0x37098010	8.195653e-06
55	0x36fe4c86	7.5786984e-06
56	0x3720bae0	9.580253e-06
57	0x3721bada	9.639853e-06
58	0x371996d2	9.154626e-06
59	0x372705de	9.955342e-06
60	0x3723144a	9.720281e-06
61	0x3722fda8	9.715011e-06
62	0x372361cd	9.738328e-06
63	0x372352e1	9.734854e-06
64	0x36fc850a	7.525673e-06
65	0x36f4c4d2	7.2946796e-06
66	0x37215476	9.616013e-06
67	0x3721ee75	9.651868e-06
68	0x371da0bb	9.395352e-06
69	0x3722f810	9.713709e-06
70	0x37238e21	9.748649e-06
71	0x372393db	9.749982e-06
72	0x3723f69a	9.7729735e-06
73	0x37240f85	9.778775e-06
74	0x3703f2ea	7.864766e-06
75	0x36ebacda	7.0236683e-06
76	0x3721f722	9.653888e-06
77	0x37222c6b	9.666294e-06
78	0x3722f962	9.714016e-06
79	0x371fd920	9.527692e-06
80	0x37249bf1	9.81147e-06
81	0x3724946e	9.809721e-06
82	0x3724e16e	9.827649e-06
83	0x37250eb5	9.838191e-06
84	0x3719a5f1	9.158147e-06
85	0x3702401a	7.763529e-06
86	0x3722aad3	9.695726e-06
87	0x372275f6	9.683417e-06
88	0x3724bb83	9.81882e-06
89	0x371f02f5	9.477827e-06
90	0x37257b18	9.863426e-06
91	0x37257e6a	9.8641995e-06
92	0x3725c9e1	9.88177e-06
93	0x3725dce4	9.8861965e-06
94	0x371c3699	9.311037e-06
95	0x37014aa5	7.706379e-06
96	0x37236fe7	9.741611e-06
97	0x3722c461	9.7016755e-06
98	0x3727ee63	1.0009479e-05
99	0x37188c97	9.09264e-06
100	0x3725f679	9.892153e-06
101	0x3725b32b	9.876482e-06
102	0x37260379	9.89518e-06
103	0x3725c0bf	9.879644e-06
104	0x371bdb72	9.2898135e-06
105	0x370b3a55	8.298627e-06
106	0x37241eb9	9.782315e-06
107	0x3723137a	9.720092e-06
108	0x3724ec03	9.8301125e-06
109	0x370f2c62	8.533798e-06
110	0x37260336	9.895119e-06
111	0x37259d7d	9.8714345e-06
112	0x3725dc00	9.885989e-06
113	0x372595df	9.869661e-06
114	0x371f255a	9.485835e-06
115	0x370b2ec9	8.295939e-06
116	0x3724b8e2	9.818208e-06
117	0x3723592e	9.736321e-06
118	0x37268f43	9.927727e-06
119	0x37051f3d	7.934691e-06
120	0x3725b1cc	9.876163e-06
121	0x372583b3	9.86543e-06
122	0x37256762	9.858837e-06
123	0x37253c6a	9.848833e-06
124	0x3712880a	8.733952e-06
125	0x370be7bf	8.339003e-06
126	0x37253aea	9.848483e-06
127	0x37239a5e	9.7514985e-06
128	0x3728757b	1.0040933e-05
129	0x36f51595	7.3040815e-06
130	0x37257035	9.860892e-06
131	0x37253740	9.84763e-06
132	0x37254574	9.850937e-06
133	0x3725274a	9.843914e-06
134	0x37016d40	7.714436e-06
135	0x3708bc6f	8.150105e-06
136	0x3725a3fa	9.872945e-06
137	0x3723d740	9.765674e-06
138	0x372c73a7	1.0278926e-05
139	0x36e9f386	6.972291e-06
140	0x372509ac	9.837018e-06
141	0x3724cf82	9.823476e-06
142	0x3725006e	9.834866e-06
143	0x3724d9f7	9.825911e-06
144	0x36f309b6	7.243095e-06
145	0x36f41f23	7.2753915e-06
146	0x3725ecf2	9.8899345e-06
147	0x37240d8a	9.778314e-06
148	0x372a1a20	1.0138872e-05
149	0x36e8892c	6.9301077e-06
150	0x3725186b	9.840452e-06
151	0x3724f3d1	9.83193e-06
152	0x3724f231	9.831551e-06
153	0x3724cbc6	9.822606e-06
154	0x36f4c09c	7.2941893e-06
155	0x3706c396	8.032561e-06
156	0x37261db7	9.90129e-06
157	0x3724435d	9.790846e-06
158	0x372fbca2	1.0474732e-05
159	0x36e7c52b	6.90729e-06
160	0x3724be4c	9.819469e-06
161	0x3724f593	9.832339e-06
162	0x3724e29e	9.827925e-06
163	0x3724f5fa	9.832433e-06
164	0x36e50c9b	6.8261993e-06
165	0x36fcd148	7.534549e-06
166	0x3726491d	9.911394e-06
167	0x37247b48	9.803865e-06
168	0x372daf77	1.0352457e-05
169	0x36eb70fd	7.0166993e-06
170	0x372537dc	9.847772e-06
171	0x37251e98	9.84189e-06
172	0x3724fb47	9.833667e-06
173	0x37250576	9.836038e-06
174	0x36dd5319	6.595987e-06
175	0x36eb2cab	7.008746e-06
176	0x37266417	9.917675e-06
177	0x3724b76e	9.81787e-06
178	0x37246a3b	9.799895e-06
179	0x36ed9f53	7.081698e-06
180	0x3725a378	9.872827e-06
181	0x37258346	9.865331e-06
182	0x3725c5a4	9.880783e-06
183	0x3725bd23	9.878803e-06
184	0x36da73a2	6.5103677e-06
185	0x36ed6cdd	7.0758238e-06
186	0x3726786d	9.92241e-06
187	0x3724f746	9.832735e-06
188	0x37263e92	9.908939e-06
189	0x36f10598	7.183011e-06
190	0x3725f19d	9.891021e-06
191	0x3725d88c	9.885185e-06
192	0x3725eb30	9.889525e-06
193	0x3725fa8a	9.8931e-06
194	0x36e8231b	6.9182256e-06
195	0x36e64e1e	6.863628e-06
196	0x37267dc1	9.92365e-06
197	0x37253ca4	9.848885e-06
198	0x37239bfd	9.751876e-06
199	0x36ed0dc3	7.0647525e-06
200	0x37267ce0	9.923446e-06
201	0x37265666	9.914487e-06
202	0x37265706	9.914633e-06
203	0x37268949	9.926335e-06
204	0x36f58247	7.3167353e-06
205	0x36eb45d2	7.011674e-06
206	0x372694a4	9.928979e-06
207	0x37258d06	9.867601e-06
208	0x3725c615	9.880886e-06
209	0x36e98cb8	6.960323e-06
210	0x3727060b	9.955383e-06
211	0x3726e5e2	9.947895e-06
212	0x3727061d	9.955399e-06
213	0x37273397	9.965987e-06
214	0x36ef6b49	7.1352447e-06
215	0x36f19557	7.199745e-06
216	0x3726c14d	9.939377e-06
217	0x3725e517	9.8881055e-06
218	0x37222340	9.66416e-06
219	0x36e3de5c	6.791013e-06
220	0x37278f25	9.987304e-06
221	0x37277dd3	9.983271e-06
222	0x3727998b	9.989725e-06
223	0x3727a38f	9.992057e-06
224	0x36ed43e9	7.071056e-06
225	0x37028bb6	7.781133e-06
226	0x37270114	9.954227e-06
227	0x37264398	9.910109e-06
228	0x372009f7	9.539063e-06
229	0x36e50c2e	6.8261497e-06
230	0x3727edf5	1.0009379e-05
231	0x3727fdb9	1.001305e-05
232	0x37282c56	1.0023903e-05
233	0x37282afe	1.002359e-05
234	0x36f11eb9	7.1859363e-06
235	0x36e5a95f	6.844449e-06
236	0x37275015	9.972621e-06
237	0x3726a6d2	9.933212e-06
238	0x371d96e1	9.3930585e-06
239	0x36ddbcaa	6.6082766e-06
240	0x372841ca	1.0028898e-05
241	0x37281f27	1.00208335e-05
242	0x37284a46	1.0030873e-05
243	0x372859c2	1.0034479e-05
244	0x36e6e2d0	6.8809386e-06
245	0x36fc97ac	7.527842e-06
246	0x3727ab6b	9.993887e-06
247	0x37270cd1	9.95696e-06
248	0x371791ed	9.034277e-06
249	0x36df08d3	6.646945e-06
250	0x372873d1	1.0040546e-05
251	0x37282ddb	1.0024257e-05
252	0x3728790c	1.0041764e-05
253	0x372821fe	1.0021495e-05
254	0x36df00d3	6.646014e-06
255	0x36ecd560	7.058188e-06

exp_avg f4 [128]
0	0x3a4c3b9a	0.0007790864
1	0x39c70aae	0.00037964195
2	0x39e6c628	0.00044016656
3	0xba8287a4	-0.0009958637
4	0x3a503554	0.0007942517
5	0xb926a0db	-0.00015890917
6	0x39b4eeeb	0.00034510283
7	0xb7ad2bbc	-2.0643572e-05
8	0x3a5bf7a6	0.00083910895
9	0x38afea45	8.3882864e-05
10	0x3946e017	0.00018966231
11	0xba1af88b	-0.00059116696
12	0x39e7586f	0.00044125642
13	0xb9e25185	-0.00043166816
14	0xb86c1069	-5.6282068e-05
15	0x39eac114	0.00044775812
16	0x39466930	0.00018921937
17	0xba19074c	-0.0005837574
18	0xb9e090d9	-0.0004283253
19	0x38b75ecc	8.743777e-05
20	0xba83c407	-0.0010052928
21	0xb8480cb0	-4.7695532e-05
22	0xb9480d14	-0.00019078358
23	0xba917b5c	-0.0011099386
24	0x390f3974	0.00013658946
25	0x37ce6844	2.4605666e-05
26	0xb96d726a	-0.00022644704
27	0xba0cd111	-0.00053717295
28	0xb9b250ca	-0.00034010998
29	0x390debba	0.00013534623
30	0xb8400619	-4.5782046e-05
31	0xba002cbd	-0.0004889479
32	0x3a5970e5	0.00082947157
33	0x3a144f23	0.0005657544
34	0x3736a21c	1.0885789e-05
35	0xba89e0c5	-0.0010519257
36	0x39166f0b	0.00014346481
37	0x39a774dc	0.0003193979
38	0x39bbf103	0.00035846987
39	0x393b5e1d	0.0001786877
40	0xb8098595	-3.2787753e-05
41	0x39423bca	0.00018523555
42	0x38e2c5c4	0.000108133565
43	0xb95a7e79	-0.00020837215
44	0xba32c771	-0.000681988
45	0xb9a1a31c	-0.0003082984
46	0xbaa6280f	-0.0012676733
47	0xb9e9a53a	-0.00044564327
48	0x35700e30	8.942761e-07
49	0xbab981fc	-0.0014153118
50	0xb92341bb	-0.00015569378
51	0x3a5f482a	0.0008517528
52	0x38fc51fb	0.000120315664
53	0xb90d18fe	-0.00013456118
54	0xb900fc7d	-0.0001230109
55	0xba3a1579	-0.00070985366
56	0x3a2785db	0.00063904905
57	0xba889356	-0.0010419886
58	0xb91951f1	-0.00014621743
59	0x37c8af4f	2.3923492e-05
60	0xb8f3bf7b	-0.00011622809
61	0xb955ecba	-0.0002040145
62	0xb9341c8f	-0.00017176777
63	0x39447017	0.00018733773
64	0x39a50af7	0.00031479422
65	0x3a1e5df7	0.00060412235
66	0xb99ed46d	-0.00030294378
67	0x3a1f4dc6	0.0006076958
68	0x37d453d7	2.531141e-05
69	0xba3828e8	-0.00070251385
70	0x3a3355b7	0.00068410806
71	0xb65d42e6	-3.2970506e-06
72	0xb983bc65	-0.00025126632
73	0x39ab5e29	0.00032685816
74	0xba756ab6	-0.00093619095
75	0x3a270a39	0.0006372068
76	0xb9ae2625	-0.00033216286
77	0xb903aebc	-0.00012558227
78	0xba039de2	-0.000502078
79	0x396ea172	0.00022757592
80	0x3961dcc6	0.00021539917
81	0x39446e8c	0.00018733199
82	0x374016c8	1.1449396e-05
83	0x3a2620b7	0.00063372724
84	0x38f2d706	0.000115795105
85	0x38caca9b	9.669849e-05
86	0xb9d713ee	-0.00041022844
87	0xb7ed482a	-2.8286206e-05
88	0x39ad6c6e	0.00033077918
89	0x3846be7b	4.7384277e-05
90	0xb8b88c8c	-8.7999826e-05
91	0x39a71777	0.00031870205
92	0x394aeda0	0.00019352743
93	0x39ac1716	0.00032823597
94	0x3ab1fe6f	0.0013579855
95	0x3a6fa4b7	0.0009141671
96	0x39937573	0.0002812553
97	0xba0612dc	-0.00051145046
98	0xb907a7cf	-0.00012937117
99	0xb996f37c	-0.0002879164
100	0x3a5b0451	0.000835483
101	0xb9dd5119	-0.00042212827
102	0x3921e586	0.0001543966
103	0x39e57b4c	0.00043770147
104	0xb9ee0cfa	-0.00045404566
105	0xba1372d2	-0.00056247145
106	0xb9b91ef2	-0.00035309006
107	0x38521212	5.008473e-05
108	0xba687b19	-0.00088684406
109	0x39731370	0.00023181527
110	0xb997a2d2	-0.00028922275
111	0x38e930d8	0.00011119404
112	0xb83af8b0	-4.4577464e-05
113	0x397d0ed6	0.00024133487
114	0x3a4793ff	0.00076133007
115	0x39a9f771	0.0003241855
116	0xb7ca7ff3	-2.4139857e-05
117	0x3a0c9dd2	0.0005364093
118	0x3a5046e7	0.00079451356
119	0x38279520	3.9954786e-05
120	0x3825489b	3.9406685e-05
121	0xb95d8f88	-0.00021129672
122	0x3a876ff5	0.0010333048
123	0x3a54a92c	0.0008112367
124	0x37ae998c	2.0813917e-05
125	0xba389eee	-0.00070427253
126	0x38be4bf4	9.0740534e-05
127	0x3a80bdcd	0.000982219

exp_avg_sq f4 [128]
0	0x3732ec1f	1.0664603e-05
1	0x3669721c	3.4786126e-06
2	0x3723241f	9.723967e-06
3	0x37211743	9.601764e-06
4	0x3728d745	1.0063702e-05
5	0x35e44bcb	1.7009382e-06
6	0x36e94f57	6.9531775e-06
7	0x35c82a62	1.4913496e-06
8	0x35eec3c2	1.7789355e-06
9	0x365d280a	3.2954872e-06
10	0x363ae07e	2.7846831e-06
11	0x37146672	8.84534e-06
12	0x357e807d	9.480935e-07
13	0x3611613b	2.166328e-06
14	0x35c0898c	1.4345146e-06
15	0x35c9dca3	1.5039881e-06
16	0x37863879	1.6000342e-05
17	0x37ad3cac	2.065146e-05
18	0x36f3d883	7.2671696e-06
19	0x35d18e7e	1.5613184e-06
20	0x3734cf67	1.0777126e-05
21	0x350fec28	5.3615304e-07
22	0x359f3065	1.1860508e-06
23	0x37385b41	1.0988501e-05
24	0x35ebacde	1.7559175e-06
25	0x341df0ca	1.4709363e-07
26	0x35a266a7	1.2099816e-06
27	0x35ad6633	1.2919248e-06
28	0x3639f10c	2.7707456e-06
29	0x36c312e8	5.813654e-06
30	0x35f64024	1.8347096e-06
31	0x364a231a	3.0120777e-06
32	0x367f2c63	3.8023798e-06
33	0x35aa3c51	1.2683541e-06
34	0x353e6362	7.0925137e-07
35	0x37a52146	1.9685027e-05
36	0x35a0639d	1.194992e-06
37	0x36207575	2.3910227e-06
38	0x3702e3c9	7.801639e-06
39	0x3518165b	5.6656944e-07
40	0x3614201a	2.2072404e-06
41	0x366b3cc1	3.5053092e-06
42	0x35bc0e8c	1.4011325e-06
43	0x360d0c49	2.1017788e-06
44	0x35e42ea7	1.7000901e-06
45	0x367ed0f6	3.797058e-06
46	0x378d01ab	1.6809287e-05
47	0x365eeb50	3.3217548e-06
48	0x36e5eec4	6.852528e-06
49	0x36244e9b	2.4483659e-06
50	0x35c860f9	1.4929384e-06
51	0x36d0ca9c	6.22247e-06
52	0x36ce7d88	6.153892e-06
53	0x371a5d1c	9.200794e-06
54	0x36269002	2.4819751e-06
55	0x36c91347	5.992511e-06
56	0x362a48bb	2.5374309e-06
57	0x37330f58	1.0672804e-05
58	0x36285acf	2.5086808e-06
59	0x36150bcd	2.22096e-06
60	0x35fd2c5e	1.8862881e-06
61	0x3602e6d8	1.9505878e-06
62	0x36184e4d	2.2695342e-06
63	0x3630f7d5	2.63703e-06
64	0x36605a25	3.3431072e-06
65	0x36bdd683	5.6576114e-06
66	0x35e52a34	1.7074112e-06
67	0x371bf0c8	9.294781e-06
68	0x370f19be	8.529458e-06
69	0x3792f806	1.7520051e-05
70	0x36534a40	3.148467e-06
71	0x35d7e4d7	1.608535e-06
72	0x37805e49	1.5302694e-05
73	0x35cdcfca	1.5334165e-06
74	0x36923d79	4.3582954e-06
75	0x3602471c	1.94129e-06
76	0x36662bf3	3.4298253e-06
77	0x35356c5b	6.758543e-07
78	0x3674507f	3.6405688e-06
79	0x36329859	2.6612745e-06
80	0x373cebe6	1.1260598e-05
81	0x37190474	9.1205475e-06
82	0x3611b2fb	2.1710864e-06
83	0x37b6b356	2.17796e-05
84	0x361e050b	2.354677e-06
85	0x351f4194	5.9327544e-07
86	0x35d49f54	1.5841601e-06
87	0x3727b21c	9.995445e-06
88	0x372f5a64	1.04518585e-05
89	0x3555cc4e	7.9645986e-07
90	0x36cc0533	6.080279e-06
91	0x35f406f3	1.8181439e-06
92	0x355de672	8.266426e-07
93	0x36367ee3	2.7193971e-06
94	0x377ec8f9	1.5186372e-05
95	0x368aa8c5	4.132368e-06
96	0x359de762	1.1764753e-06
97	0x3616440c	2.239135e-06
98	0x3707884e	8.078363e-06
99	0x35c89814	1.4945422e-06
100	0x374c1fc8	1.2166747e-05
101	0x3692cb29	4.37479e-06
102	0x351396d9	5.498128e-07
103	0x377bb000	1.5001744e-05
104	0x37488b38	1.1953343e-05
105	0x36ec142a	7.0356955e-06
106	0x35fe6ef4	1.8956766e-06
107	0x3701a144	7.726547e-06
108	0x36850d9c	3.965293e-06
109	0x35e13ec5	1.6782075e-06
110	0x3697312a	4.505874e-06
111	0x358490dc	9.876926e-07
112	0x362ddce5	2.5907586e-06
113	0x36cebf61	6.161558e-06
114	0x37983854	1.8146042e-05
115	0x368ca62d	4.1916705e-06
116	0x359fff07	1.1920646e-06
117	0x3627d02e	2.5006116e-06
118	0x360f114d	2.131873e-06
119	0x35de9181	1.6582636e-06
120	0x33b0304d	8.2044245e-08
121	0x35f29aec	1.8075493e-06
122	0x37382b39	1.0977318e-05
123	0x36e2a0c2	6.7540395e-06
124	0x36451060	2.936482e-06
125	0x36aebd18	5.2076175e-06
126	0x35b6e0e3	1.3625507e-06
127	0x3716efc2	8.99652e-06
