experiments/ppo_spy_base_20251206_104906/best_model.pth (torch, 348789 bytes, 21 tensors)

shared_net.0.weight f4 [128, 153]
0	0xbd92f2b6	-0.071752
1	0x3dbab3df	0.09116339
2	0x3e52d42e	0.20588753
3	0x3e54505e	0.20733783
4	0xbeb69bda	-0.3566578
5	0x3cb6d3c9	0.022317784
6	0x3da38a9c	0.07985422
7	0x3e1ef18a	0.15521827
8	0x3d87e825	0.06636075
9	0xbe170da9	-0.14751305
10	0x3dcc6a0e	0.09981166
11	0x3e3cb861	0.1842971
12	0xbe3c96be	-0.18416879
13	0x3dd1d85f	0.10246348
14	0xbcc8e89a	-0.024524976
15	0xbd9e9ae1	-0.077443846
16	0x3ca1f3b8	0.019769534
17	0xbe898c88	-0.2686503
18	0x3d2473f3	0.04014964
19	0xbdd94ad8	-0.106099784
20	0x3d846a8e	0.06465636
21	0xbe366ed4	-0.17815715
22	0xbd8caa15	-0.06868378
23	0xbea96a67	-0.3308899
24	0xbe104b39	-0.14091195
25	0x3d791102	0.060807236
26	0x3d680728	0.05664745
27	0x3d5fcc51	0.05463821
28	0x3ddf2f7d	0.108977295
29	0x3c21de7b	0.009879704
30	0xbe253a1a	-0.16135445
31	0xbdc18d22	-0.09450747
32	0xbdcca588	-0.0999251
33	0xbcac8a12	-0.02106193
34	0x3d8c653d	0.06855247
35	0xbce26b55	-0.02763907
36	0xbdcdcedd	-0.10049222
37	0x3cade41d	0.021226937
38	0xbe2d62d5	-0.16932233
39	0x3d1c63ee	0.038181238
40	0x3cb9338f	0.022607593
41	0x3db8ff60	0.09033084
42	0x3c98c133	0.018646812
43	0xbd933bf5	-0.0718917
44	0xbeaa1be3	-0.332244
45	0xbe278805	-0.16360481
46	0xbc945d04	-0.01811076
47	0x3c9ef09e	0.019401845
48	0xbe512a74	-0.20426351
49	0xbe154e08	-0.14580548
50	0x3d85ae55	0.06527392
51	0xbcdae477	-0.026720269
52	0x3dcaca10	0.099018216
53	0xbd83e41f	-0.06439995
54	0x3dd874e8	0.10569173
55	0x3da4d1fe	0.08047865
56	0xbdca53ee	-0.098792896
57	0x3c13c16b	0.009018282
58	0x3d796b46	0.06089332
59	0xbc9bf501	-0.019037725
60	0xbdc31275	-0.09525005
61	0x3d93da04	0.072193176
62	0xbdb7cf6c	-0.089751095
63	0x3dd082d2	0.10181202
64	0xbd896c2a	-0.06710084
65	0xbe00fd83	-0.12596707
66	0xbe9e54f4	-0.3092419
67	0xbd0f1689	-0.0349336
68	0x3a81305e	0.0009856333
69	0xbc5f9e85	-0.013648634
70	0xbd6c71d6	-0.05772575
71	0x3d62a5e6	0.055333994
72	0xbe8c60df	-0.27417657
73	0xbcc53504	-0.024073131
74	0x3e24d99f	0.16098641
75	0x3c547159	0.012966477
76	0xbd2dd668	-0.0424408
77	0xbd633f38	-0.055480212
78	0x3c72e818	0.014825843
79	0x3dc1eb38	0.094686925
80	0xbdf685f9	-0.12037272
81	0xbe8d8f4e	-0.27648395
82	0x3d32ae63	0.04362334
83	0xbc5bb7b7	-0.0134105
84	0xba7c474e	-0.00096236623
85	0xbd8b5b68	-0.06804544
86	0xbd3d6c98	-0.04624614
87	0x3e86dace	0.2633881
88	0x3e01d45e	0.12678668
89	0x3e27de9d	0.16393514
90	0xbd0bfe95	-0.034178335
91	0x3d646a4c	0.055765435
92	0x3d000aac	0.031260177
93	0xbbe610d7	-0.0070210504
94	0xbd40b6e1	-0.047049407
95	0x3d9f3643	0.077740215
96	0xbdf76ea5	-0.12081651
97	0xbe44a750	-0.1920445
98	0x3dc3ddbf	0.09563779
99	0xbd9f7315	-0.07785622
100	0xbcf9806b	-0.030456742
101	0x3cf27e35	0.029601196
102	0x3c77a83f	0.015115797
103	0xbe467c9e	-0.19383475
104	0xbc3665fa	-0.011132712
105	0x3d1deefd	0.038557995
106	0xbe3475c7	-0.17623053
107	0x3e22f592	0.1591399
108	0xbc7e83dc	-0.015534367
109	0xbc6a068e	-0.014283789
110	0x3cf4e783	0.02989555
111	0x3e07af0b	0.13250367
112	0xbca4437d	-0.020051712
113	0xbe0107b6	-0.12600598
114	0xbd12d52f	-0.03584784
115	0x3d817699	0.06321449
116	0x3c859868	0.016308025
117	0x3af0ab9d	0.0018361692
118	0x3ea36b7f	0.3191795
119	0x3d8ad557	0.067789726
120	0xbd5071bf	-0.050889727
121	0x3e089ae6	0.13340339
122	0x3e422417	0.1895908
123	0x3cb17312	0.021661315
124	0xbda9557e	-0.082682595
125	0x3d66a9df	0.056314345
126	0x3e842bea	0.25814754
127	0x3d01b975	0.031671006
128	0x3e4e39eb	0.20139281
129	0xbc787174	-0.015163768
130	0x3c950c11	0.01819423
131	0xbab7bf48	-0.0014018798
132	0x3d2e16b8	0.042502135
133	0xbd485f0e	-0.048918776
134	0x3e3093c7	0.17243873
135	0x3e129ed2	0.14318398
136	0x3d82fa61	0.06395412
137	0x3cf44b4e	0.029821064
138	0xbb75d2ae	-0.0037509608
139	0x3e55ab08	0.20866024
140	0xbd171f87	-0.0368953
141	0xbced6650	-0.02897945
142	0xbd2aa6f9	-0.041663144
143	0xbd510d00	-0.05103779
144	0xbc73dd5d	-0.01488432
145	0x3e287745	0.16451748
146	0xbc4ab271	-0.012371645
147	0x3d7c876b	0.061652582
148	0x3c98e23a	0.01866256
149	0x3e27de9c	0.16393512
150	0xbd08f8d5	-0.03344043
151	0xbd0de856	-0.0346454
152	0xbef0eb94	-0.47054732
153	0xbd8e6f8a	-0.06954868
154	0xbd94eb4f	-0.07271444
155	0x3a2718d4	0.0006374244
156	0x3e366b4d	0.1781437
157	0xbe0803de	-0.13282725
158	0x3e093727	0.13399945
159	0x3ddea5ef	0.10871493
160	0xbd3e9dd7	-0.046537247
161	0x3e224200	0.1584549
162	0xbe60291e	-0.21890685
163	0x3c9da7bd	0.019245023
164	0x3d1325d2	0.03592474
165	0xbde8a120	-0.11358857
166	0xbe109752	-0.14120224
167	0xbd686b68	-0.056743056
168	0x3d978c27	0.07399779
169	0xbe66d8e5	-0.22543676
170	0xbdec91c3	-0.11551239
171	0xbcf957da	-0.030437399
172	0xbe167897	-0.14694439
173	0xbe042971	-0.12906434
174	0x3db1d376	0.08682911
175	0xbe2d5583	-0.16927151
176	0x3cb42a1a	0.021992732
177	0xbd77c04c	-0.060486123
178	0xbe090492	-0.1338065
179	0xbe233645	-0.15938671
180	0x3d94097e	0.07228373
181	0xbe025c27	-0.12730466
182	0xbd30e488	-0.043186694
183	0x3e1f2019	0.15539588
184	0x3daa4047	0.08313041
185	0x3dbeee1b	0.09322759
186	0x3e268cd4	0.16264659
187	0xbe039ecb	-0.12853543
188	0x3cdb15db	0.02674382
189	0xbe7308b2	-0.23733786
190	0x3da6be13	0.081417225
191	0xbd3f69b0	-0.04673165
192	0xbe41b53e	-0.18916795
193	0xbb75596c	-0.0037437333
194	0xbdf34e21	-0.11880136
195	0x3e4636ea	0.19356886
196	0xbe4ac7f6	-0.19802842
197	0xbde0a580	-0.109690666
198	0x3e107115	0.14105637
199	0x3e72719b	0.2367615
200	0xbac3fa24	-0.0014951867
201	0x3d2f2a39	0.042764876
202	0xbd55cb9d	-0.052196134
203	0x3dab1a43	0.083546184
204	0xbe129914	-0.14316207
205	0xbdfd668e	-0.123730764
206	0x3d75e21e	0.060030095
207	0xbe46aaab	-0.19401042
208	0x3e883f92	0.26611
209	0x3dcf7416	0.101295635
210	0xbc42d10c	-0.011890661
211	0x3c3236e3	0.010877344
212	0xbe097bad	-0.13426085
213	0x3d0eb7a9	0.03484312
214	0x3dbfe48d	0.093697645
215	0xbba284eb	-0.0049596927
216	0x3d18c3fb	0.037296277
217	0x3d0b9980	0.034081936
218	0xbc8e4eb4	-0.017371513
219	0x3d296c7a	0.041363217
220	0xbd6a9904	-0.057274833
221	0xbd5599a4	-0.052148476
222	0x3d7aa503	0.061192524
223	0x3e0c549f	0.13704155
224	0x3deba2a4	0.115056306
225	0xbd91355c	-0.070902556
226	0xbdabcb2f	-0.083883636
227	0x3d0e41e5	0.03473081
228	0xbdef2c4b	-0.1167837
229	0xbd92e373	-0.07172289
230	0x3c009db9	0.007850104
231	0xbda402ed	-0.080083705
232	0xbd59c358	-0.05316481
233	0x3dbadc12	0.09124006
234	0x3ce84eba	0.028357852
235	0x3ce66005	0.028121958
236	0x3c84c9e4	0.01620955
237	0xbd92c868	-0.07167131
238	0xbb07f166	-0.002074325
239	0xbd00180b	-0.03127293
240	0xbe39c6d0	-0.18142247
241	0x3d014bf6	0.031566583
242	0x3df64727	0.1202529
243	0xbd071336	-0.032977305
244	0xbdb87260	-0.0900619
245	0xbd8105df	-0.06299948
246	0xbe07e78f	-0.13271926
247	0xbdec866c	-0.115490764
248	0xbc621cdc	-0.013800826
249	0x3d01bec6	0.031676076
250	0xbd8e174c	-0.06938037
251	0x3d5b2e59	0.053510997
252	0x3d34f377	0.0441775
253	0x3c71e389	0.014763721
254	0x3d4b78ff	0.049675938
255	0xbd39503e	-0.04524254

shared_net.0.bias f4 [128]
0	0xbc3b62fd	-0.011437175
1	0xbd18024e	-0.037111573
2	0x3cc68409	0.024232881
3	0xbe39d648	-0.18148148
4	0x3dca338f	0.09873115
5	0xbcac6544	-0.021044381
6	0xbd6a4cc6	-0.057202123
7	0xbd8d205d	-0.068909384
8	0x3da2e2dd	0.07953427
9	0xbc5fcc64	-0.01365957
10	0xbec7cf91	-0.39025548
11	0xbd7f0432	-0.06225986
12	0x3d8b1322	0.06790759
13	0xbd7da294	-0.061922625
14	0x3d846bec	0.06465897
15	0xbe5b60b5	-0.2142361
16	0x3c8f1fa7	0.017471148
17	0xbd8b32ef	-0.06796824
18	0xbe003cb5	-0.12523158
19	0xbd3cbd9f	-0.046079274
20	0xbdcdc332	-0.10046996
21	0x3d9123d2	0.0708691
22	0xbe928109	-0.2861407
23	0x3c9a3bb5	0.018827299
24	0x3d6394bd	0.05556177
25	0xbd887452	-0.06662811
26	0x3d0e9bba	0.03481648
27	0x3dc243b6	0.09485571
28	0xbdc9ca8c	-0.09853086
29	0x3e3807af	0.17971681
30	0xbdcdadd2	-0.10042919
31	0x3d576024	0.05258192
32	0x3d12bc3b	0.03582404
33	0xbdcab4f6	-0.09897797
34	0x3df1919f	0.11795353
35	0x3de09b17	0.10967081
36	0x3de1c256	0.11023395
37	0xbdbc08d5	-0.09181372
38	0xbe476426	-0.19471797
39	0x3d7edad1	0.0622204
40	0x3e56f72d	0.20992728
41	0xbd9ee9f4	-0.07759467
42	0x3d64aeb8	0.055830687
43	0xbe0b8c73	-0.13627796
44	0x3e9f1a18	0.31074595
45	0x3d1e1e57	0.038603153
46	0xbafdf213	-0.0019374512
47	0x3d4d6bca	0.050151624
48	0xbe40bb6d	-0.18821497
49	0x3e9359d4	0.2877947
50	0x3e683e10	0.22679925
51	0xbd698ea8	-0.057020813
52	0xbbec5d38	-0.007213261
53	0xbd4f0959	-0.050546024
54	0xbd2e1491	-0.042500082
55	0x3da0a55e	0.07844041
56	0x3d8b8b77	0.0681371
57	0x3d46374d	0.048392583
58	0x3d04772d	0.032340217
59	0xbdc5a4ab	-0.096505485
60	0xbe6a93ac	-0.22907895
61	0x3ccc5a26	0.02494533
62	0x3d73856a	0.059453405
63	0x3e6e668e	0.23281309
64	0x3d29015c	0.041261062
65	0x3d14950b	0.03627495
66	0x3d93e3ad	0.0722116
67	0x3da75920	0.08171296
68	0x3d986251	0.07440627
69	0xbe876c91	-0.26450017
70	0xbc9c3c4f	-0.019071726
71	0x3e38291c	0.17984432
72	0xbd2fb602	-0.042898186
73	0x3e839642	0.25700575
74	0xbe2c9edd	-0.16857477
75	0x3d9f5db2	0.07781543
76	0x3e665314	0.2249263
77	0x3e627acb	0.22117154
78	0xbd8164c9	-0.06318051
79	0xbd39f843	-0.045402776
80	0x3d833b65	0.06407813
81	0xbe1a1caa	-0.15049997
82	0xbd7b86c5	-0.061407823
83	0xbe0b1123	-0.13580756
84	0xbe1dd756	-0.15414175
85	0xbc9c4ced	-0.01907965
86	0xbe0374a8	-0.1283747
87	0xbdc531d3	-0.09628644
88	0x3d3a42a6	0.045473717
89	0xbe82d77b	-0.25555024
90	0x3d8b03f4	0.067878634
91	0x3c3e175b	0.011602248
92	0x3dbf398f	0.0933715
93	0x3dafe947	0.08589416
94	0xbe801e8a	-0.250233
95	0x3ce37e14	0.02777008
96	0xbd878d71	-0.06618775
97	0xbca25cf3	-0.019819712
98	0x3d8c12a6	0.068394944
99	0x3e8ba859	0.27276877
100	0xbac87e71	-0.0015296472
101	0x3dc76511	0.09736074
102	0x3e79e76e	0.2440469
103	0xbd9ebc89	-0.07750804
104	0x3c7afdea	0.015319327
105	0xbe5630e6	-0.20917091
106	0x3d294a92	0.04133088
107	0x3e6f6f07	0.23382197
108	0x3d4a84c6	0.04944303
109	0xbe210ec9	-0.15728296
110	0xbdf46ce0	-0.11934829
111	0xbebc3492	-0.36758858
112	0x3d06879a	0.032844163
113	0xbd23dd1a	-0.04000578
114	0xbd7514e3	-0.059834372
115	0xbc223258	-0.009899698
116	0xbe6474fc	-0.22310251
117	0x3d757a35	0.059931
118	0x3cbd1847	0.023082865
119	0xbeb07eb7	-0.34471676
120	0xbba61ad8	-0.005069118
121	0x3eb43542	0.35196882
122	0xbcdce0fe	-0.026962753
123	0x3bb3c0a5	0.0054856115
124	0x3e93df93	0.2888151
125	0x3d18bc2e	0.037288837
126	0x3c5ab87a	0.013349647
127	0x3d657744	0.056021944

shared_net.3.weight f4 [64, 128]
0	0xbe1915fb	-0.14949791
1	0xbe2c125c	-0.16803879
2	0x3d322e74	0.043501332
3	0x3d2c6b52	0.042094536
4	0xbbc95a21	-0.0061447774
5	0x3dad646e	0.08466421
6	0xbdcd4255	-0.100224175
7	0x3e084c3b	0.1331033
8	0xbe927f30	-0.2861266
9	0x3e5f2003	0.21789555
10	0xbe356df9	-0.17717732
11	0x3ec620b2	0.3869682
12	0x3dd704de	0.10498975
13	0x3dd8a7cd	0.105788805
14	0xbe8fd51f	-0.28092286
15	0x3e231e83	0.15929608
16	0x3db1a653	0.08674302
17	0xbdaf0f44	-0.085478336
18	0x3dc8a553	0.09797158
19	0xbb953219	-0.0045530912
20	0xbbdc89e8	-0.006730307
21	0xbe3883f3	-0.18019085
22	0xbd71fa8e	-0.05907684
23	0x3bfddac6	0.007747027
24	0x3d2b637e	0.04184293
25	0x3d20845c	0.039188728
26	0x3d8e378d	0.06944189
27	0x3cde4460	0.027132213
28	0xbd23a7bc	-0.039954886
29	0xbe02a34b	-0.12757604
30	0x3e23165a	0.15926495
31	0xbdbd67d2	-0.09248318
32	0x3c29068d	0.010316503
33	0x3d7fcebd	0.06245302
34	0xbe6c0f89	-0.23052801
35	0x3da9885f	0.08277964
36	0xbd8fbefb	-0.070188485
37	0x3d023181	0.03178549
38	0x3e4cc214	0.1999591
39	0xbeaea6bb	-0.3411158
40	0xbd53da80	-0.05172205
41	0xbc867836	-0.016414743
42	0x3e371656	0.17879614
43	0x3e36509c	0.17804188
44	0x3d53ba09	0.05169109
45	0x3c97ac66	0.018514823
46	0x3eb9336a	0.36172038
47	0xbd87a44c	-0.06623134
48	0x3e180863	0.1484695
49	0xbe2fedb2	-0.17180517
50	0x3e3b7bdd	0.18308969
51	0xbd4bdb3a	-0.049769618
52	0x3cb9537b	0.022622814
53	0x3d895300	0.06705284
54	0x3d9b92ca	0.07596357
55	0xbe314fda	-0.17315617
56	0x3d282abb	0.041056376
57	0x3dfcf359	0.123511024
58	0xbe4496b4	-0.19198114
59	0x3e519453	0.20466737
60	0xbe5f9bca	-0.21836773
61	0x3e9164ad	0.28397122
62	0x3d525b49	0.051356588
63	0x3e6f9740	0.23397541
64	0x3dd0e670	0.102002025
65	0x3dc2dc95	0.09514729
66	0x3d8af689	0.06785304
67	0x3c8ab60f	0.016932515
68	0xbda23bc7	-0.07921558
69	0x3dd2c8f1	0.10292233
70	0xbd6fc639	-0.05853865
71	0x3b94173e	0.0045193722
72	0x3d680002	0.056640632
73	0xbd834e5d	-0.06411431
74	0x3db88125	0.09009007
75	0xbd57f4ac	-0.05272357
76	0x3da8c301	0.08240319
77	0x3da722dd	0.081609465
78	0x3d89ea62	0.06734158
79	0x3e2fedbd	0.17180534
80	0xbc423601	-0.011853696
81	0xbe19b7c7	-0.15011512
82	0x3e89193b	0.26777062
83	0x3ea8ad82	0.32944876
84	0xbd74f9cb	-0.059808534
85	0xbe2e48b7	-0.17019926
86	0x3d63340a	0.05546955
87	0x3c96f294	0.018426217
88	0xbdfc9889	-0.12333781
89	0x3e17dd4e	0.14830515
90	0xbe58ba0d	-0.21164723
91	0xbe46fe1c	-0.19432873
92	0xbdf534ff	-0.11972999
93	0x3e93fc41	0.28903392
94	0xbdd2e0f9	-0.102968164
95	0xbdc7e7e9	-0.0976103
96	0x3e026907	0.12735377
97	0x3d8862cf	0.06659471
98	0x3c240709	0.010011443
99	0xbdafd11d	-0.08584807
100	0x3d5b6521	0.05356324
101	0x3c7865a5	0.015160953
102	0xbe8cac68	-0.27475286
103	0x3ca36952	0.019947682
104	0xbe1f8f12	-0.1558192
105	0xbcf8f0b4	-0.030388214
106	0xbe1b97a1	-0.1519456
107	0x3e0001ee	0.12500736
108	0xbdac9878	-0.084275186
109	0x3db0d028	0.08633453
110	0x3d4c4c82	0.04987765
111	0x3e6b22e5	0.2296253
112	0xbe54bd65	-0.20775373
113	0xbaf40877	-0.0018618245
114	0xbe666e78	-0.22503078
115	0x3db803ad	0.08985076
116	0x3d8421da	0.06451769
117	0xbd99f75f	-0.075178854
118	0x3e813e54	0.25242865
119	0xbcc07e6b	-0.02349778
120	0xb79b1f9a	-1.8492156e-05
121	0xbbfd2d64	-0.0077263582
122	0x3d78f208	0.060777694
123	0x3cc23659	0.023707556
124	0x3c515aa4	0.012777958
125	0xbe16c839	-0.14724816
126	0xbdaecfa4	-0.08535698
127	0xbe340cd3	-0.17583017
128	0xbe52f920	-0.20602846
129	0x3e71a54a	0.23598209
130	0x3e703dbf	0.23461054
131	0xbd04f7bd	-0.032462824
132	0x3e93ab91	0.28841832
133	0x3c77fb14	0.015135545
134	0x3e453f0a	0.19262329
135	0x3e05d164	0.13068157
136	0xbd8f25b0	-0.0698961
137	0x3d675920	0.05648148
138	0xbc8f6b1a	-0.017507125
139	0xbd8ad4a5	-0.0677884
140	0xbe9224ab	-0.285436
141	0xbcd6ae2c	-0.026206098
142	0xbc3eb1f9	-0.011639112
143	0xbde96dfd	-0.11397932
144	0xbc93a200	-0.018021584
145	0xbe4d3767	-0.20040666
146	0xbde61a6e	-0.1123551
147	0xbe0843f5	-0.13307174
148	0xbd47d3b2	-0.048785873
149	0x3c1c3c88	0.009535916
150	0x3d92ebc5	0.07173876
151	0x3d4fc5fc	0.050725922
152	0xbe728834	-0.2368477
153	0x3dca3ffc	0.09875485
154	0xbd34a9fe	-0.04410743
155	0x3cfacb4b	0.030614516
156	0xbd269594	-0.040669993
157	0x3e8666bd	0.26250258
158	0x3dc8f799	0.098128505
159	0xbb8adc89	-0.0042377156
160	0x3dae79f1	0.08519352
161	0xbceaf6ab	-0.028682074
162	0xbe563ea6	-0.20922336
163	0x3e4000ce	0.18750307
164	0xbdbaf7d6	-0.09129302
165	0xbcbee14f	-0.023300795
166	0xbdeead6b	-0.116541706
167	0xbd57adb6	-0.052655898
168	0x3dd13c06	0.10216527
169	0x3da84dee	0.08217989
170	0x3d9035a1	0.07041479
171	0x3e5c60af	0.21521257
172	0x3afac704	0.0019132798
173	0x3da323bd	0.07965801
174	0x3d15b72d	0.036551643
175	0x3e056b97	0.13029324
176	0xb92f1398	-0.000166966
177	0xbe9b016a	-0.30274516
178	0x3cd98539	0.026552783
179	0x3db0af54	0.08627191
180	0xbe903d06	-0.28171557
181	0xbccd0068	-0.025024608
182	0xbe1921b2	-0.1495426
183	0xbe4fc986	-0.20291719
184	0x3e1d4bfa	0.15361014
185	0x3ca3ad49	0.01998009
186	0xbeaa5215	-0.3326575
187	0xbc5d86a0	-0.013520867
188	0x3c7f7727	0.015592373
189	0x3c3edcc4	0.011649314
190	0xbe2ed87b	-0.17074768
191	0xbc28c824	-0.0103016235
192	0x3d1238c2	0.03569866
193	0xbd82d5bf	-0.06388425
194	0xbd3bb031	-0.045822326
195	0xbc8e9611	-0.017405542
196	0xbeb1dc84	-0.34738553
197	0xbc9858e9	-0.018597083
198	0x3e215dec	0.15758485
199	0xbe851d72	-0.25999027
200	0x3de8b5e6	0.113628194
201	0x3da9ac3e	0.08284806
202	0x3d436740	0.04770589
203	0x3cf29548	0.029612198
204	0x3e1de2dc	0.15418571
205	0x3d13aca2	0.036053307
206	0xbdf99318	-0.12186259
207	0x3b854b52	0.004067817
208	0xbe3b0c5a	-0.1826643
209	0xbde8f859	-0.113754936
210	0xbd59ff2a	-0.05322186
211	0xbe9cf090	-0.30652285
212	0x3ddf851f	0.10914063
213	0x3e0fe114	0.14050704
214	0x3a8ef0a9	0.0010905463
215	0xbc83513d	-0.016029948
216	0xbd8857e1	-0.066573866
217	0xbddf8605	-0.10914234
218	0xbe26100c	-0.16217059
219	0x3e8a9f0e	0.27074474
220	0xbdb918e4	-0.09037951
221	0xbd858d1b	-0.06521054
222	0xbc8ef4e4	-0.017450757
223	0xbd3986ea	-0.04529468
224	0x3d788d0d	0.06068139
225	0xbe5a7d9d	-0.2133698
226	0xbe80bc3c	-0.2514361
227	0x3d0cf9a2	0.034417756
228	0x3e5aa5d9	0.21352328
229	0xbe9efae7	-0.31050798
230	0x3e03a7f0	0.12857032
231	0x3da33d36	0.079706594
232	0xbe2626aa	-0.16225687
233	0x3de09f73	0.109679125
234	0xbe265da5	-0.1624666
235	0x3d10541c	0.035236463
236	0xbacf2a9e	-0.0015805548
237	0x3e6a789e	0.22897574
238	0xbc2a3454	-0.010388453
239	0xbde31380	-0.11087704
240	0x3c8e179c	0.017345242
241	0xbbb5bd9b	-0.0055462844
242	0xbe78464a	-0.24245563
243	0xbe437166	-0.19086227
244	0x3dd3709f	0.10324215
245	0xbe42e693	-0.1903327
246	0x3dccd69d	0.10001872
247	0x3c00d8fa	0.007864231
248	0x3d09a659	0.033605907
249	0xbd03e807	-0.0322037
250	0x3ea64116	0.32471532
251	0x3d5bdae3	0.053675544
252	0x3e333e9f	0.17504357
253	0x3e228537	0.1587113
254	0xbde93484	-0.1138697
255	0x3cbd3d93	0.02310065

shared_net.3.bias f4 [64]
0	0x3b2607cf	0.0025334244
1	0x3dbb0478	0.09131712
2	0x3de14b6a	0.11000712
3	0xbd6b3278	-0.057421178
4	0xbddb86c8	-0.10719067
5	0xbda11afb	-0.07866474
6	0x3d8df4e0	0.06931472
7	0x3ce96dbb	0.028494706
8	0x3d9ce6af	0.07661187
9	0x3c1f69ad	0.009729785
10	0x3ddcf6a0	0.107892275
11	0xbcba7c2d	-0.02276429
12	0xbd7bfda0	-0.061521173
13	0x3ea16e6b	0.31529555
14	0xbdb90931	-0.09034956
15	0xbe7d6fb0	-0.24749637
16	0x3c99508b	0.018715164
17	0x3e3ec411	0.18629481
18	0x3d06d7dc	0.032920703
19	0x3e920274	0.28517497
20	0xbd2fac71	-0.042889062
21	0x3e4c1b15	0.19932206
22	0x3cf07012	0.029350314
23	0x3d80058b	0.06251057
24	0xbd94c7a9	-0.07264645
25	0xbd61546d	-0.055012155
26	0x3ce3e09f	0.027817069
27	0xbdf6768e	-0.12034331
28	0x3cfb1013	0.030647313
29	0x3ce897b4	0.02839265
30	0xbdf0314f	-0.11728155
31	0xbc54ab00	-0.012980223
32	0x3c504d25	0.012713705
33	0x3c1825fd	0.009286401
34	0xbd3d3914	-0.046197012
35	0xbd151b5a	-0.036403038
36	0xbd1c10ad	-0.03810184
37	0x3d51b5eb	0.05119888
38	0xbdadd179	-0.08487219
39	0x3bc09aaf	0.0058778147
40	0xbd47ea4e	-0.048807435
41	0xba52fe85	-0.00080487906
42	0x3e1fa8d8	0.15591753
43	0x3b46ce8b	0.0030335512
44	0x3d368c9c	0.04456769
45	0x3c850d3e	0.016241666
46	0x3c72277e	0.0147799235
47	0x3c1eb80f	0.009687438
48	0xbe2b4ea6	-0.16729221
49	0x3cee58b4	0.029095031
50	0x3e15d2c0	0.14631176
51	0xbe359ad7	-0.17734848
52	0xbd0d2e63	-0.034468066
53	0xbe007448	-0.12544358
54	0xbca156c2	-0.01969469
55	0x3e22e876	0.1590899
56	0xbe0886df	-0.13332699
57	0xbd35a769	-0.044349108
58	0xbe0af6c8	-0.13570702
59	0x3dca6ef7	0.09884446
60	0x3dce871c	0.10084364
61	0xbe03f601	-0.12886812
62	0xbe17e906	-0.14834985
63	0xbdb94d2f	-0.09047925

actor.weight f4 [3, 64]
0	0x3c908915	0.01764349
1	0x3cadd002	0.02121735
2	0x3d299072	0.04139752
3	0x3d130ecd	0.035902787
4	0xbcb5306a	-0.022117812
5	0x3c549db2	0.012977051
6	0x3d219e32	0.039457507
7	0xbc9bec31	-0.019033523
8	0x3c530d65	0.0128816115
9	0xbcce3366	-0.025170993
10	0x3cdd632f	0.027024833
11	0xbcef545c	-0.02921503
12	0x3c8a9a1f	0.016919194
13	0x3cc170bb	0.023613324
14	0xbca856a2	-0.020549122
15	0xbc9b3e77	-0.018950684
16	0x3c7fa5a3	0.015603456
17	0x3d3681dc	0.044557437
18	0xbd07c786	-0.033149265
19	0x3cc6fc4f	0.024290232
20	0xbd2e2a3a	-0.04252074
21	0x3c5e2cd3	0.013560492
22	0xbcf65922	-0.030071799
23	0x3ce5ce49	0.028052466
24	0x3d37f8ea	0.044915117
25	0xbc388722	-0.011262687
26	0xbcc5e262	-0.0241558
27	0xbc3129a8	-0.010813154
28	0xbcac976d	-0.0210683
29	0xba4c2921	-0.0007788111
30	0xbd294cfa	-0.041333176
31	0x3cd06860	0.025440395
32	0xbc504d1b	-0.012713696
33	0x3c341c59	0.010993087
34	0xbcf82aaf	-0.03029379
35	0x3c50b254	0.012737829
36	0x3c9c204b	0.019058367
37	0xbd23c564	-0.03998317
38	0xbb8cc425	-0.004295843
39	0xbcdbd7dd	-0.02683633
40	0xbce35d05	-0.027754316
41	0x3ce4e461	0.02794093
42	0x3c16f132	0.009212779
43	0x3a659a9e	0.00087586965
44	0x3c5a1168	0.013309814
45	0x3c5f09a6	0.01361314
46	0x3d012cba	0.031536795
47	0x3d03a46d	0.03213923
48	0xbc877d9d	-0.01653939
49	0xbcfa15e7	-0.030528022
50	0xbcde4c6e	-0.027136054
51	0xbcaadd75	-0.020857552
52	0xbd155b87	-0.03646424
53	0xbd229a0d	-0.039697696
54	0xbcc0ae6e	-0.023520675
55	0x3c771b66	0.015082216
56	0xbd220dfb	-0.039564114
57	0x3c28354c	0.010266613
58	0xbc9f9b36	-0.01948319
59	0x3c7e2ac6	0.015513128
60	0x3cbeb2c5	0.023278603
61	0xbc9eb650	-0.019374043
62	0x3cebad51	0.028769167
63	0xbd0a36a2	-0.03374351
64	0x3c9b1214	0.018929519
65	0x3c716eb4	0.014735866
66	0x3c1acc74	0.0094481595
67	0xbc933079	-0.01796745
68	0xbd1714cf	-0.03688508
69	0xbc8bd2e0	-0.017068326
70	0x3c614548	0.013749428
71	0x3c706389	0.0146721685
72	0xbb77a4c8	-0.0037787426
73	0xbb57137e	-0.0032818015
74	0x3c10d9df	0.008841007
75	0x3b97a5b5	0.004627908
76	0x3c4acc86	0.012377864
77	0xbc07e822	-0.008295091
78	0xbce0b392	-0.027429376
79	0x3ac6ced2	0.0015167838
80	0x3c926ad8	0.017873213
81	0x3cec90da	0.028877664
82	0x3ba7b40d	0.0051178993
83	0x3b4ccadc	0.0031248843
84	0x3c2a1de4	0.010383103
85	0xbb2089cb	-0.0024496194
86	0xbb49cf4f	-0.0030793732
87	0xbb36cbb4	-0.0027892413
88	0x3ba435c2	0.0050112912
89	0xbc8237e5	-0.015895793
90	0xbd1eb402	-0.038745888
91	0x3b98fedd	0.004669054
92	0x3ce6c95e	0.028172191
93	0xbc9b160a	-0.018931407
94	0xbca166fa	-0.019702423
95	0x3c8c6aa8	0.017140701
96	0xbc9632cc	-0.018334769
97	0x3ca6f896	0.020382207
98	0xbae6cbe2	-0.0017608369
99	0xbd451457	-0.0481151
100	0xbc1771d1	-0.009243445
101	0xbc468d13	-0.012118596
102	0xbcacd397	-0.021096988
103	0xbc13c8fe	-0.009020088
104	0xbceca913	-0.028889215
105	0x3c0a0af8	0.008425467
106	0x3bcca230	0.00624492
107	0x3c316902	0.0108282585
108	0x3ce8d384	0.028421171
109	0x3c2a4e00	0.010394573
110	0x3c5c20ee	0.013435585
111	0x3ca9b0c6	0.020714175
112	0xbbf6a47f	-0.0075269337
113	0xbb9afbfc	-0.004729746
114	0x3d5b4a2f	0.053537544
115	0xbccf887d	-0.025333637
116	0xbc949387	-0.018136753
117	0x3b8c85ae	0.004288397
118	0x3a84fb5a	0.0010145709
119	0x3cd16939	0.02556287
120	0xbbf0b10c	-0.0073453244
121	0xbd1043bb	-0.035220843
122	0xbcb189ca	-0.021672148
123	0x3d0302a3	0.031984936
124	0x3d071425	0.032978196
125	0xbd005014	-0.03132637
126	0xbd21fbc4	-0.039546743
127	0xbcc0aa84	-0.023518808
128	0xbd38d17b	-0.04512165
129	0xbd1f3a05	-0.03887369
130	0xbd8ac3c8	-0.067756236
131	0xbcbfa086	-0.023391973
132	0x3d8e3f92	0.06945719
133	0x3b936f63	0.0044993623
134	0xbd8dd97e	-0.06926249
135	0x3b8d0fee	0.0043048775
136	0xbc57ac3c	-0.0131636225
137	0x3d1e8cbe	0.03870844
138	0xbd3b0af1	-0.04566473
139	0x3d163d91	0.036679808
140	0xbd08d74b	-0.033408444
141	0xbcae1ca3	-0.02125389
142	0x3d76340c	0.06010823
143	0x3c8a0f15	0.016852895
144	0xbd143ea0	-0.036192536
145	0xbdba9227	-0.091099076
146	0x3d0122c6	0.031527303
147	0xbcf3423b	-0.029694667
148	0x3d26468b	0.04059462
149	0xbc587a8a	-0.013212809
150	0x3d2e9986	0.04262688
151	0xbcf8f691	-0.03039101
152	0xbd847eee	-0.064695224
153	0x3d185f4e	0.037200265
154	0x3d9cfbc9	0.07665212
155	0x3be16ba8	0.0068792887
156	0xbbf14684	-0.0073631424
157	0x3cb38194	0.021912374
158	0x3d9b49d4	0.07582441
159	0xbd4367ba	-0.047706343
160	0x3d2a5e44	0.041593805
161	0xbd3bfc09	-0.045894656
162	0x3d41ce7c	0.04731606
163	0x3d2b08c6	0.041756414
164	0xbc561f15	-0.013068934
165	0x3d867009	0.06564338
166	0x3ce80dff	0.028326986
167	0x3d31867d	0.04334115
168	0x3d8d427d	0.06897447
169	0xbd4eb847	-0.05046871
170	0xbca4b05d	-0.020103628
171	0xbc3b1266	-0.011417961
172	0xbd42ad7d	-0.047528733
173	0xbcf19b40	-0.029492974
174	0xbd6f8dd7	-0.05848488
175	0xbd86d168	-0.0658291
176	0x3cdc4813	0.026889836
177	0x3d317984	0.043328777
178	0xbd0286fd	-0.031867016
179	0x3d6b96cf	0.05751687
180	0x3d982af2	0.07430066
181	0x3d418263	0.047243487
182	0x3cb289ee	0.021794286
183	0xbd61ebcb	-0.05515651
184	0x3d5ccc41	0.05390573
185	0x3cfca4fc	0.03084039
186	0x3d712912	0.05887706
187	0xbd5ae322	-0.053439267
188	0xbd8fb83a	-0.0701756
189	0x3d798a5c	0.060922965
190	0x3c02aae7	0.007975317
191	0x3d9253e7	0.07144909

actor.bias f4 [3]
0	0x3d66344c	0.056202218
1	0x3b8d4be4	0.0043120254
2	0xbd9914f6	-0.07474701

critic.weight f4 [1, 64]
0	0x3e76b07a	0.24090758
1	0x3e2a76b2	0.16646841
2	0x3e9e0bc9	0.30868366
3	0x3e8b41a1	0.27198508
4	0xbeae41c3	-0.34034547
5	0x3e571b57	0.21006523
6	0x3eb173fa	0.34658796
7	0xbe42c598	-0.19020689
8	0x3e3bc7a5	0.18337877
9	0xbe60a7b8	-0.2193898
10	0x3e432c50	0.19059873
11	0xbe7dcc6e	-0.24785015
12	0x3eedec0a	0.46469146
13	0x3e1654ff	0.14680861
14	0xbeadba5c	-0.33931243
15	0xbe1e7334	-0.15473634
16	0x3ea5ba22	0.3236857
17	0x3e7bfbf1	0.24607827
18	0xbeb5c69f	-0.35503098
19	0x3e178f37	0.14800726
20	0xbe7908cb	-0.2431976
21	0x3e02962d	0.127526
22	0xbecf9da0	-0.40549946
23	0x3e7dc559	0.24782313
24	0x3e375a03	0.1790543
25	0xbe83844e	-0.25686878
26	0xbea88dc3	-0.32920656
27	0xbe11111f	-0.14166687
28	0x3e8f831f	0.28029725
29	0xbe88ca91	-0.26717046
30	0xbe9830ea	-0.29724818
31	0x3e8046dc	0.2505406
32	0xbe91fc38	-0.2851274
33	0x3e8caa92	0.27473885
34	0xbe4da4d4	-0.20082408
35	0xbe7f1eaa	-0.24914041
36	0x3e937a29	0.28804138
37	0xbe8a54a8	-0.27017713
38	0xbe667904	-0.22507101
39	0xbe91a015	-0.28442445
40	0xbe822f89	-0.2542689
41	0x3e6212f4	0.22077543
42	0x3e92c23d	0.28663817
43	0x3e469ff9	0.19396962
44	0x3ea59b75	0.32345167
45	0x3e8f4299	0.27980497
46	0x3e6c33ef	0.23066686
47	0x3e947278	0.28993583
48	0xbe3159ea	-0.17319456
49	0xbe450b6b	-0.19242637
50	0x3e7ccb56	0.24686942
51	0xbe8e6f8f	-0.27819487
52	0xbeb06e33	-0.34459075
53	0xbe9e3b33	-0.3090454
54	0xbe48597f	-0.1956539
55	0x3e8f044c	0.27932966
56	0xbec024c7	-0.3752806
57	0xbe8ba878	-0.2727697
58	0xbeb427c1	-0.3518658
59	0x3e8b0c7b	0.2715796
60	0x3e8a0f51	0.2696481
61	0xbe82fdb4	-0.25584185
62	0xbe822a64	-0.25422966
63	0xbeabb085	-0.3353311

exp_avg f4 [128, 153]
0	0x38fb3f88	0.00011980446
1	0x3900b0a1	0.0001227283
2	0x38f84a08	0.00011839351
3	0x3907cd5f	0.0001295111
4	0xb9a3a622	-0.0003121356
5	0x390d5e0a	0.0001348184
6	0x390a30fd	0.00013178955
7	0x38f7db33	0.00011818707
8	0x39039dc8	0.00012551912
9	0x388350f9	6.261649e-05
10	0x390d71ee	0.0001348925
11	0x390b529c	0.00013286847
12	0x38fed581	0.00012151432
13	0x39044388	0.00012613658
14	0xb99eaa4a	-0.00030262984
15	0x3904a991	0.0001265167
16	0x39027e1b	0.00012444744
17	0x38d53057	0.000101656355
18	0x38dd2af6	0.00010546103
19	0x38ba100d	8.872161e-05
20	0x38eb35f3	0.00011215722
21	0x38e85e82	0.000110802255
22	0x38bb7589	8.9387475e-05
23	0x38e2d354	0.00010815883
24	0x3987b78f	0.00025885968
25	0x38cff54e	9.916221e-05
26	0x38d0f0d3	9.96307e-05
27	0x3894baaa	7.091959e-05
28	0x389f0ef3	7.584495e-05
29	0x3a012174	0.00049259444
30	0x38a10826	7.678596e-05
31	0x38a97089	8.079509e-05
32	0x38862ab9	6.3975756e-05
33	0x38997b52	7.318579e-05
34	0xb7fda940	-3.0238763e-05
35	0x38ab45b7	8.166901e-05
36	0x38ce0a43	9.824757e-05
37	0x38ac1151	8.2048246e-05
38	0x38db99a1	0.000104713494
39	0x381dd7b7	3.7632617e-05
40	0x38c7139d	9.492713e-05
41	0x38bba499	8.9475136e-05
42	0x38afefb4	8.3892985e-05
43	0x38b9e853	8.864761e-05
44	0xb9371c67	-0.0001746282
45	0x38d9129f	0.00010350835
46	0x38e71855	0.000110194705
47	0x38cbd7f1	9.7200165e-05
48	0x38e0773e	0.00010703363
49	0xb93144a7	-0.0001690561
50	0x38f15fd3	0.00011509624
51	0x38e607a5	0.000109686785
52	0x38ccc645	9.7644086e-05
53	0x38d6bac8	0.00010239106
54	0x398d9093	0.00027001332
55	0x38e82abe	0.000110705834
56	0x38f90077	0.00011873332
57	0x38edbb71	0.00011335954
58	0x390df55c	0.00013538211
59	0x37c80e6a	2.384857e-05
60	0x392c57fa	0.00016435972
61	0x391ee0bb	0.00015151773
62	0x39251a05	0.00015745319
63	0x3925cedc	0.00015812687
64	0xba00342b	-0.0004890586
65	0x391d5a2b	0.00015006277
66	0x391c4105	0.00014901541
67	0x391b1ce0	0.00014792709
68	0x391aa10e	0.00014746582
69	0xb9eb9ac3	-0.00044938
70	0x39268816	0.0001588169
71	0x3923fa15	0.00015638054
72	0x39211636	0.0001536243
73	0x3929bb10	0.00016186782
74	0xb96be1c5	-0.00022495452
75	0x39233035	0.0001556285
76	0x391f27b3	0.00015178211
77	0x39266da0	0.00015871832
78	0x392443cb	0.00015665514
79	0xb8ab5bb3	-8.170996e-05
80	0x3935551a	0.00017293208
81	0x392e8c6f	0.00016646249
82	0x392d6efb	0.00016539909
83	0x393167dc	0.00016918726
84	0xb9ffceb3	-0.00048791393
85	0x393afd01	0.00017832594
86	0x3932520f	0.00017005972
87	0x393a7805	0.00017783053
88	0x3936d19b	0.00017434957
89	0xb9e05ebf	-0.000427952
90	0x39395854	0.0001767588
91	0x39274445	0.00015951793
92	0x393542ef	0.0001728644
93	0x392a9f72	0.00016271861
94	0xba304887	-0.00067246746
95	0x392d3d48	0.00016521395
96	0x39281db9	0.00016032801
97	0x391acb7b	0.00014762387
98	0x392cf0df	0.0001649293
99	0xb9235b89	-0.00015578991
100	0x39364b86	0.00017385007
101	0x392c80ac	0.00016451132
102	0x392d11f5	0.00016505255
103	0x392fe522	0.00016774659
104	0xb9d5d93a	-0.00040788372
105	0x39368047	0.0001740466
106	0x393a703e	0.00017780156
107	0x39232cee	0.00015561629
108	0x3929dec7	0.00016200087
109	0xb9943ac1	-0.00028272535
110	0x392e18b1	0.00016603131
111	0x3927b98f	0.00015995487
112	0x39265b7c	0.00015865074
113	0x39242ef8	0.00015657756
114	0x378bfeff	1.6688833e-05
115	0x392a2537	0.00016226327
116	0x3922663a	0.00015487606
117	0x392b6bdf	0.00016348016
118	0x3924fa56	0.00015733516
119	0xb9fdc9f3	-0.00048406384
120	0x392f8884	0.00016740157
121	0x393c014b	0.00017929559
122	0x39348356	0.00017215064
123	0x3941c9aa	0.0001848104
124	0xb850caa4	-4.977979e-05
125	0x3954160a	0.00020226106
126	0x3944db1c	0.00018773641
127	0x394e11b5	0.00019652287
128	0x394c2d14	0.00019471749
129	0xb9ebd70e	-0.0004498292
130	0x394d4e54	0.00019579503
131	0x394f5b07	0.00019774969
132	0x394f44e8	0.00019766728
133	0x394c4c31	0.0001948334
134	0xb9fdcad1	-0.0004840703
135	0x39528e05	0.00020080067
136	0x3952c615	0.00020100952
137	0x3957a0c1	0.00020563883
138	0x395784a8	0.00020553416
139	0xb9db1ef2	-0.0004179399
140	0x395fc38c	0.00021339784
141	0x39685f82	0.00022160824
142	0x396b5821	0.00022444177
143	0x39751fa6	0.0002337681
144	0xba5d4a71	-0.00084415736
145	0x396df193	0.00022692075
146	0x3957b706	0.0002057218
147	0x395b19bf	0.00020895059
148	0x3946f0a7	0.00018972401
149	0xba16fa8d	-0.0005759381
150	0x36e7eded	6.9120347e-06
151	0xb6c0057f	-5.7226857e-06
152	0x39825ec9	0.00024866153
153	0x398f5cfc	0.00027344364
154	0x3994ec23	0.00028404695
155	0x398eff5f	0.00027274617
156	0x39950f20	0.00028430764
157	0xb9a98e65	-0.00032340284
158	0x39927372	0.00027933303
159	0x39909a26	0.0002758067
160	0x3987df9c	0.00025915809
161	0x398c6259	0.00026776156
162	0xb9789f44	-0.00023710454
163	0x3992ea5a	0.00028021896
164	0x39956ca5	0.0002850044
165	0x398bc753	0.00026660654
166	0x399150df	0.0002771681
167	0xb9eb71db	-0.00044907522
168	0x39919861	0.00027770086
169	0x39917609	0.00027744498
170	0x398a82b8	0.00026418804
171	0x399056fe	0.00027530635
172	0xb92f1a5b	-0.00016699119
173	0x39925f95	0.00027918504
174	0x39923f50	0.00027894462
175	0x398ac4e9	0.0002646812
176	0x398e6eaa	0.00027166802
177	0xb8c6fe6b	-9.488765e-05
178	0x398b831c	0.0002660983
179	0x3988e967	0.0002611384
180	0x39818f99	0.00024711786
181	0x39823347	0.00024833737
182	0xb6c9385c	-5.996828e-06
183	0x3980d302	0.00024571276
184	0x3982c651	0.0002494329
185	0x3975fb37	0.00023458606
186	0x39808f72	0.00024520938
187	0xb9a10323	-0.0003071065
188	0x3985c1aa	0.00025512028
189	0x3985ee9a	0.0002554551
190	0x39809f0d	0.00024532565
191	0x39815efc	0.00024675566
192	0xb9c208be	-0.00037009077
193	0x396fe5eb	0.00022878467
194	0x39700562	0.00022890189
195	0x396417a1	0.00021752577
196	0x396f629f	0.00022829555
197	0xb987bafb	-0.00025888518
198	0x39730e21	0.0002317955
199	0x397cd453	0.0002411169
200	0x396701bf	0.00022030527
201	0x39737a57	0.00023219861
202	0x3850d714	4.979137e-05
203	0x3973e547	0.00023259698
204	0x397a90e9	0.00023895841
205	0x39677329	0.00022072777
206	0x3977384a	0.00023576725
207	0x394a6e80	0.00019305386
208	0x396a96d7	0.00022372171
209	0x3976756b	0.0002350413
210	0x396302b7	0.00021649418
211	0x39760e5a	0.00023465735
212	0x388fae53	6.851242e-05
213	0x397bf5fb	0.0002402886
214	0x397cc2ad	0.00024105115
215	0x39736538	0.00023211993
216	0x39800bf7	0.00024422977
217	0xb9384232	-0.00017572267
218	0x3976617d	0.00023496705
219	0x397a33fd	0.00023861225
220	0x3977cf12	0.00023632895
221	0x3982236b	0.0002482192
222	0xb9e9220c	-0.0004446659
223	0x397fc0b5	0.00024390484
224	0x39810f51	0.0002461621
225	0x39811609	0.00024621215
226	0x39869208	0.00025667273
227	0xb8e0ccbc	-0.00010719287
228	0x3981a620	0.0002472857
229	0x39847c02	0.00025269395
230	0x397ca895	0.00024095394
231	0x3983696e	0.00025064818
232	0x3934b58f	0.00017233774
233	0x3983e887	0.00025159513
234	0x398384f8	0.00025085337
235	0x3981a866	0.00024730264
236	0x39834dc9	0.00025044222
237	0xb98a9f2d	-0.00026440006
238	0x397f01cc	0.00024319364
239	0x3983aac8	0.0002511351
240	0x397a4905	0.0002386906
241	0x3980732a	0.00024499866
242	0xb62df27f	-2.592016e-06
243	0x398178a9	0.00024694696
244	0x3983718a	0.0002507086
245	0x39817aa5	0.00024696175
246	0x3984c4b8	0.0002532357
247	0xb9b568a4	-0.00034600974
248	0x398a5a7b	0.00026388824
249	0x398813a3	0.00025954572
250	0x3982ed69	0.00024972417
251	0x398885de	0.0002603968
252	0xb8bfa2b8	-9.1378985e-05
253	0x398be8a2	0.0002668547
254	0x398f4f9b	0.00027334396
255	0x398acc5b	0.00026473668

exp_avg_sq f4 [128, 153]
0	0x3707ff0f	8.1060125e-06
1	0x37082778	8.115421e-06
2	0x37072d82	8.057223e-06
3	0x3707ab90	8.086572e-06
4	0x36aba06a	5.114872e-06
5	0x37084138	8.121417e-06
6	0x370896ad	8.141314e-06
7	0x3707d58c	8.096347e-06
8	0x37087f9a	8.135941e-06
9	0x36c0b0f2	5.742645e-06
10	0x3708c3c7	8.151815e-06
11	0x37091133	8.169841e-06
12	0x370858eb	8.1269345e-06
13	0x3708d7e5	8.156499e-06
14	0x36cd62eb	6.1209917e-06
15	0x37089bdb	8.14252e-06
16	0x37090062	8.1659255e-06
17	0x3708058d	8.107524e-06
18	0x3708b17c	8.1475555e-06
19	0x36bde508	5.6593017e-06
20	0x3708e59c	8.159692e-06
21	0x37090e7d	8.16921e-06
22	0x3708b16c	8.147541e-06
23	0x3709156a	8.170822e-06
24	0x370625df	7.99584e-06
25	0x3708e13a	8.158671e-06
26	0x3708fef9	8.165597e-06
27	0x3708838f	8.136863e-06
28	0x37090e7a	8.169207e-06
29	0x3700aa05	7.66898e-06
30	0x3708ac47	8.146343e-06
31	0x37093e35	8.18032e-06
32	0x3708e56c	8.159648e-06
33	0x3709aebb	8.206519e-06
34	0x37015408	7.708564e-06
35	0x370964ae	8.189278e-06
36	0x3709a424	8.204053e-06
37	0x3708f9f8	8.164432e-06
38	0x37099fc8	8.203038e-06
39	0x36e69a9f	6.8725344e-06
40	0x3708e744	8.160077e-06
41	0x37090836	8.167748e-06
42	0x3708626f	8.12915e-06
43	0x3708d0a5	8.1548105e-06
44	0x36c5709b	5.8841665e-06
45	0x3708dd61	8.1577755e-06
46	0x370906d5	8.167427e-06
47	0x370863a0	8.129427e-06
48	0x37092324	8.174018e-06
49	0x36e2b34c	6.7561978e-06
50	0x370933c4	8.177889e-06
51	0x37098db4	8.198829e-06
52	0x37096aa8	8.190669e-06
53	0x3709cbed	8.2133165e-06
54	0x3718d32b	9.109072e-06
55	0x37099806	8.201232e-06
56	0x3709ef1d	8.221509e-06
57	0x3709bf03	8.21031e-06
58	0x370a5b9a	8.246769e-06
59	0x3712cdf6	8.750232e-06
60	0x370a7590	8.252813e-06
61	0x370a38d2	8.2386705e-06
62	0x3709e857	8.219932e-06
63	0x370a10d0	8.229355e-06
64	0x371c1588	9.303338e-06
65	0x370a208e	8.233021e-06
66	0x370a2cab	8.235841e-06
67	0x3709e185	8.218344e-06
68	0x370a6d47	8.250884e-06
69	0x3717445f	9.01622e-06
70	0x370ac42c	8.271116e-06
71	0x370add7b	8.277008e-06
72	0x370a9639	8.260417e-06
73	0x370b54b7	8.30477e-06
74	0x37286236	1.0036447e-05
75	0x370b4bc3	8.302685e-06
76	0x370b0b7c	8.2877195e-06
77	0x370b023a	8.285564e-06
78	0x370afdb6	8.284513e-06
79	0x37459941	1.1777797e-05
80	0x370a5eae	8.247485e-06
81	0x370a145d	8.230182e-06
82	0x370a047e	8.226487e-06
83	0x370a29b0	8.235147e-06
84	0x371db9ed	9.401218e-06
85	0x3709f18e	8.222078e-06
86	0x3709de33	8.217571e-06
87	0x370995e9	8.20074e-06
88	0x3709cbbb	8.213271e-06
89	0x3717141f	9.004986e-06
90	0x3709256d	8.17455e-06
91	0x37096fab	8.191836e-06
92	0x370915e4	8.170933e-06
93	0x370944a7	8.181821e-06
94	0x370a8215	8.255728e-06
95	0x37086521	8.129778e-06
96	0x37085076	8.1249655e-06
97	0x3707e5d3	8.100137e-06
98	0x3707b8af	8.089627e-06
99	0x36fc3095	7.515841e-06
100	0x370767dd	8.07081e-06
101	0x370756a2	8.066798e-06
102	0x3706f3a1	8.043747e-06
103	0x3706de5a	8.038793e-06
104	0x37154cbb	8.898957e-06
105	0x3706bcc3	8.030972e-06
106	0x3706ae5a	8.027617e-06
107	0x3706437e	8.002737e-06
108	0x370677ef	8.014947e-06
109	0x36fc26c9	7.5147004e-06
110	0x37067b29	8.015698e-06
111	0x3706ba86	8.030451e-06
112	0x370644fa	8.003082e-06
113	0x37066f2d	8.0129075e-06
114	0x37108b85	8.615553e-06
115	0x3706429f	8.002534e-06
116	0x37063c21	8.001022e-06
117	0x3705c88a	7.974109e-06
118	0x3705f8a0	7.985305e-06
119	0x370eb192	8.505203e-06
120	0x3705e422	7.980534e-06
121	0x3705b900	7.970491e-06
122	0x37058746	7.958914e-06
123	0x3705d20a	7.976321e-06
124	0x37066f24	8.012899e-06
125	0x3705fcf8	7.986317e-06
126	0x3705b7d3	7.970218e-06
127	0x370572ad	7.954118e-06
128	0x3705ba64	7.970815e-06
129	0x370389bb	7.840276e-06
130	0x3705a7a9	7.966454e-06
131	0x3705df09	7.979347e-06
132	0x3705aec2	7.968107e-06
133	0x37061e7d	7.994121e-06
134	0x37014251	7.70444e-06
135	0x3705dea0	7.979252e-06
136	0x3705cefc	7.97561e-06
137	0x370591ea	7.961391e-06
138	0x3705ba20	7.970753e-06
139	0x3708c217	8.151422e-06
140	0x37052e8f	7.938258e-06
141	0x37053f46	7.94215e-06
142	0x3704bbb9	7.911521e-06
143	0x370503f4	7.928338e-06
144	0x3701f3e2	7.745783e-06
145	0x37049d06	7.904373e-06
146	0x370496cd	7.902924e-06
147	0x37047bd7	7.896647e-06
148	0x3704a5c1	7.906406e-06
149	0x37169e2c	8.977524e-06
150	0x33fa3f45	1.1653041e-07
151	0x34da979a	4.071597e-07
152	0x359f129b	1.1851838e-06
153	0x36b97ec9	5.5281894e-06
154	0x36ba9089	5.560058e-06
155	0x36b81cc9	5.4869784e-06
156	0x36b8f571	5.5122005e-06
157	0x362a591a	2.5383838e-06
158	0x36b869ce	5.4959446e-06
159	0x36b989eb	5.5294854e-06
160	0x36b6eebb	5.4518146e-06
161	0x36b7c15c	5.476335e-06
162	0x36109315	2.1543285e-06
163	0x36b70ffa	5.455685e-06
164	0x36b80d39	5.4851666e-06
165	0x36b59d96	5.4125658e-06
166	0x36b64cfb	5.4329844e-06
167	0x362d53f9	2.5827887e-06
168	0x36b52843	5.3989074e-06
169	0x36b63a17	5.430785e-06
170	0x36b3852c	5.350119e-06
171	0x36b483a4	5.379743e-06
172	0x36162e1d	2.2378583e-06
173	0x36b3eca9	5.3621666e-06
174	0x36b4f2f4	5.3927015e-06
175	0x36b227a8	5.30943e-06
176	0x36b30e64	5.336291e-06
177	0x36278289	2.496092e-06
178	0x36b2d1a2	5.329218e-06
179	0x36b3e00d	5.3606987e-06
180	0x36b12c9d	5.2802047e-06
181	0x36b227e6	5.309458e-06
182	0x36135b0d	2.1957705e-06
183	0x36b19be2	5.293158e-06
184	0x36b2f99d	5.333872e-06
185	0x36b01b78	5.2484065e-06
186	0x36b18745	5.2907585e-06
187	0x360b69ef	2.0774276e-06
188	0x36b12fd8	5.280581e-06
189	0x36b23945	5.3114804e-06
190	0x36af8b43	5.2316186e-06
191	0x36b0d4f1	5.2699984e-06
192	0x360e760c	2.1228361e-06
193	0x36b099d4	5.2631167e-06
194	0x36b16445	5.286684e-06
195	0x36af0825	5.2163546e-06
196	0x36b02b1a	5.2502264e-06
197	0x361c673a	2.3305897e-06
198	0x36b02b6c	5.2502637e-06
199	0x36b128c6	5.2797577e-06
200	0x36ae8c7c	5.2019586e-06
201	0x36afeb38	5.2427895e-06
202	0x36125140	2.180299e-06
203	0x36b00ff6	5.247067e-06
204	0x36b0e295	5.2715864e-06
205	0x36ae4e73	5.194737e-06
206	0x36af7102	5.2285623e-06
207	0x360dd270	2.1133128e-06
208	0x36af249c	5.2196683e-06
209	0x36b0061a	5.245919e-06
210	0x36ad897c	5.171807e-06
211	0x36aecdfa	5.209583e-06
212	0x36265a03	2.4788321e-06
213	0x36af0168	5.21557e-06
214	0x36b0070f	5.2460305e-06
215	0x36ad7768	5.1697025e-06
216	0x36aedf04	5.2115665e-06
217	0x364688a9	2.9583846e-06
218	0x36ae9659	5.203107e-06
219	0x36afd9df	5.24077e-06
220	0x36ad966d	5.1733136e-06
221	0x36af13d2	5.217714e-06
222	0x363ff4d6	2.8603731e-06
223	0x36aef595	5.2141936e-06
224	0x36b01d29	5.2486034e-06
225	0x36adaee6	5.1761626e-06
226	0x36af23f9	5.219594e-06
227	0x364ed75f	3.0821755e-06
228	0x36af10a9	5.217346e-06
229	0x36b00bb6	5.246572e-06
230	0x36adb9ad	5.1774173e-06
231	0x36af03e3	5.215859e-06
232	0x36457e79	2.9428904e-06
233	0x36af1007	5.2172722e-06
234	0x36aff086	5.243407e-06
235	0x36addc9d	5.1814845e-06
236	0x36af423a	5.223116e-06
237	0x36610549	3.353069e-06
238	0x36aed5e8	5.210506e-06
239	0x36afb169	5.2360597e-06
240	0x36ad8c9a	5.17217e-06
241	0x36aef98b	5.2146547e-06
242	0x3666517d	3.4320103e-06
243	0x36ae5cbf	5.196401e-06
244	0x36af8ae5	5.231576e-06
245	0x36ad8101	5.17082e-06
246	0x36aecf78	5.2097566e-06
247	0x36858ae0	3.979876e-06
248	0x36ae2f56	5.1911147e-06
249	0x36aefe4b	5.2152077e-06
250	0x36ad2e1f	5.161171e-06
251	0x36ae1e21	5.1891116e-06
252	0x367e8fcf	3.7932657e-06
253	0x36ad6156	5.167133e-06
254	0x36ae20c9	5.189421e-06
255	0x36ac5a32	5.1364996e-06

exp_avg f4 [128]
0	0x38aef502	8.342603e-05
1	0xba192214	-0.0005841565
2	0x39cae57b	0.0003869942
3	0x38968e3c	7.1790506e-05
4	0x38ac363e	8.2117025e-05
5	0xb83b0e15	-4.459739e-05
6	0xb964763c	-0.0002178782
7	0x38bc55d8	8.980528e-05
8	0x3a045cc6	0.0005049225
9	0x398bb6e3	0.00026648407
10	0x394c4814	0.00019481807
11	0xb9b77894	-0.00034994318
12	0xb906e444	-0.00012864271
13	0x3a061658	0.0005115024
14	0xba13da82	-0.0005640165
15	0xb7e0be87	-2.6791602e-05
16	0xb7cc818c	-2.437902e-05
17	0xba0015b0	-0.0004886044
18	0xb94aa269	-0.00019324724
19	0x3704ad91	7.908225e-06
20	0x3a0c162f	0.0005343882
21	0xb97b5393	-0.00023968359
22	0x39914010	0.00027704285
23	0x3a3d93e7	0.0007231817
24	0xba95bc05	-0.0011423832
25	0xb9188cfc	-0.0001454837
26	0xba9c32e8	-0.0011917027
27	0x393b3035	0.00017851668
28	0x3aa3b912	0.0012491068
29	0xba10ad1f	-0.0005518961
30	0x39b022c5	0.0003359524
31	0xb9b37bb3	-0.00034233704
32	0xba7393e2	-0.00092917506
33	0x3a6d9910	0.00090636406
34	0xb9e80290	-0.00044252397
35	0xb8bc5102	-8.9796275e-05
36	0xbaa496e3	-0.0012557175
37	0x3a78e9d0	0.000949529
38	0x3a52750c	0.00080283056
39	0xb98b01af	-0.000265134
40	0x38d3b335	0.00010094644
41	0xb962ba7a	-0.00021622507
42	0xba3a2063	-0.0007100163
43	0x3a54baec	0.0008115012
44	0x391598ae	0.00014266625
45	0xb8b3899a	-8.5610154e-05
46	0x3a16a78b	0.0005747012
47	0xba20f677	-0.0006140242
48	0x39ae3a53	0.0003323132
49	0x38c82cc7	9.5450836e-05
50	0xb89bc31c	-7.427318e-05
51	0x39bcb043	0.0003598948
52	0xb7535c80	-1.2598117e-05
53	0x3ad08c13	0.0015910886
54	0x39f219b6	0.00046176993
55	0x39bbe071	0.0003583464
56	0xba2e7b87	-0.000665598
57	0xb7b64d0c	-2.1731968e-05
58	0x38950266	7.1053204e-05
59	0x3a5b09e3	0.000835566
60	0x3932fa22	0.00017068585
61	0x391e206b	0.00015080131
62	0xb8ffb1e1	-0.0001219248
63	0xb761b2b4	-1.3452653e-05
64	0xbaa3af4d	-0.0012488157
65	0xb9d4a7aa	-0.0004056071
66	0x37a0ccdd	1.9168883e-05
67	0xba5d95e7	-0.0008452818
68	0xb9066ff6	-0.00012820945
69	0x39074dd6	0.000129036
70	0x39a65521	0.00031725413
71	0xba426da7	-0.0007416852
72	0x3a8bb8ad	0.0010659896
73	0xb9720ef9	-0.00023084496
74	0x39eb7d5b	0.0004491609
75	0xb8b2a81e	-8.519016e-05
76	0xb8f4c861	-0.0001167215
77	0xb9cc96bc	-0.00039022218
78	0xb881a724	-6.182332e-05
79	0x3a4f1b93	0.0007900532
80	0xb9ab1839	-0.0003263371
81	0x398ab524	0.0002645637
82	0x3a043536	0.00050433294
83	0x38bf8463	9.132249e-05
84	0x38ebffad	0.000112532965
85	0xb892387d	-6.972344e-05
86	0x38985bb0	7.265003e-05
87	0x39cda22b	0.00039221472
88	0xba0ef63e	-0.0005453563
89	0xb888e562	-6.527711e-05
90	0xb9842158	-0.00025201845
91	0xb99485a2	-0.00028328324
92	0x3a307502	0.0006731303
93	0xb9da7d51	-0.00041673568
94	0x3975eceb	0.0002345328
95	0xba80804a	-0.0009803858
96	0x394004eb	0.00018312379
97	0x37e3dd46	2.7163547e-05
98	0xba295220	-0.0006459076
99	0xb6b89be2	-5.5017745e-06
100	0xb8635b6d	-5.4206164e-05
101	0xba78657c	-0.00094755716
102	0xba2254d2	-0.0006192449
103	0x3a8d581c	0.0010783705
104	0x39e5b31b	0.00043811728
105	0x38d87b95	0.000103227016
106	0xb8cd2b7c	-9.783261e-05
107	0xb930a295	-0.00016845234
108	0xb9f003ae	-0.0004577911
109	0x39d52ee0	0.0004066145
110	0xba00563c	-0.00048956624
111	0x39957d61	0.0002851291
112	0xba05e105	-0.0005107078
113	0xb8f455c7	-0.00011650804
114	0xb9270dde	-0.00015931527
115	0x39c5bfa3	0.0003771755
116	0x3873c210	5.811645e-05
117	0xb9b95c97	-0.00035354935
118	0xb9ca4f08	-0.00038587325
119	0x37571f10	1.2822231e-05
120	0xb84bbabc	-4.857288e-05
121	0x36b27320	5.3182157e-06
122	0x3a023588	0.0004967083
123	0xb90acf49	-0.00013237925
124	0xb8a78ec6	-7.989774e-05
125	0xb985230d	-0.00025393852
126	0xba35ae6b	-0.00069305924
127	0xb9e8bd52	-0.00044391543

exp_avg_sq f4 [128]
0	0x3716e15e	8.993169e-06
1	0x36e9ea9c	6.9712532e-06
2	0x367a40b3	3.7290563e-06
3	0x359d0030	1.1697466e-06
4	0x35e42a6c	1.699967e-06
5	0x36b0a056	5.2638743e-06
6	0x366dd43a	3.5439284e-06
7	0x364abe57	3.0211138e-06
8	0x387c590f	6.0164424e-05
9	0x37342ff3	1.074e-05
10	0x35a912ee	1.259699e-06
11	0x38196304	3.6570258e-05
12	0x363d2591	2.8185061e-06
13	0x377ba639	1.4999468e-05
14	0x37a7a9c8	1.9987012e-05
15	0x354abd3e	7.552625e-07
16	0x37b57889	2.163301e-05
17	0x36efcf29	7.1468717e-06
18	0x368b1d84	4.145959e-06
19	0x37009348	7.663686e-06
20	0x372c6bed	1.0277127e-05
21	0x380601dd	3.1949825e-05
22	0x356ec528	8.894881e-07
23	0x37352f35	1.0799432e-05
24	0x378ff997	1.7163153e-05
25	0x35944797	1.1047695e-06
26	0x37727439	1.4451384e-05
27	0x380533b9	3.175784e-05
28	0x38060c64	3.195963e-05
29	0x36b66f64	5.4369903e-06
30	0x3589e645	1.0274313e-06
31	0x37de84ce	2.6526304e-05
32	0x379d22de	1.8732095e-05
33	0x3755a5a8	1.2734359e-05
34	0x38b90811	8.82299e-05
35	0x36f780e3	7.376178e-06
36	0x382399d2	3.9005485e-05
37	0x37dda639	2.6422656e-05
38	0x37280bf8	1.0016367e-05
39	0x37c32627	2.3263578e-05
40	0x343de746	1.7686133e-07
41	0x3652004b	3.129261e-06
42	0x37ab2dd8	2.0406136e-05
43	0x38553710	5.083444e-05
44	0x367763fc	3.6864067e-06
45	0x364fcb8c	3.0963884e-06
46	0x3774eb11	1.4598264e-05
47	0x37b6b546	2.1780503e-05
48	0x35b9c31e	1.3840361e-06
49	0x3689c896	4.1062694e-06
50	0x352d065c	6.4456776e-07
51	0x3801f56c	3.0984564e-05
52	0x3718bf3f	9.104434e-06
53	0x38018309	3.0878033e-05
54	0x37bfed54	2.2879489e-05
55	0x378677ac	1.6029771e-05
56	0x37ba76c8	2.222824e-05
57	0x379d5bf4	1.8758677e-05
58	0x37a2076f	1.9315366e-05
59	0x383ba892	4.4741268e-05
60	0x360811ac	2.0275866e-06
61	0x37130cc3	8.764854e-06
62	0x35c2d323	1.4515575e-06
63	0x35c2be75	1.4509557e-06
64	0x37c98945	2.4024988e-05
65	0x37bcd911	2.2512426e-05
66	0x37105342	8.602454e-06
67	0x38b6911f	8.705467e-05
68	0x3818387a	3.6292222e-05
69	0x35e05aaf	1.6715693e-06
70	0x37a33e70	1.9460189e-05
71	0x36e4ca0c	6.818451e-06
72	0x37c19812	2.3078206e-05
73	0x34d1413d	3.897675e-07
74	0x36877349	4.0367345e-06
75	0x359c4af3	1.1644719e-06
76	0x35c3a34a	1.4576156e-06
77	0x3755c093	1.27406265e-05
78	0x356c26de	8.797341e-07
79	0x37322aa9	1.0619559e-05
80	0x3703db4d	7.859268e-06
81	0x36d3845d	6.303699e-06
82	0x381bd920	3.7157093e-05
83	0x36888911	4.0690725e-06
84	0x35a98690	1.2630644e-06
85	0x36883397	4.0591217e-06
86	0x3501bc1e	4.832999e-07
87	0x3813142a	3.506631e-05
88	0x376311c5	1.3534392e-05
89	0x3546b04f	7.401731e-07
90	0x3674cbe5	3.6477516e-06
91	0x362716a0	2.4898109e-06
92	0x36fe35a8	7.5760363e-06
93	0x37052ce5	7.937871e-06
94	0x35c51fa4	1.4686852e-06
95	0x37952ad2	1.7782124e-05
96	0x36c296c5	5.7992024e-06
97	0x36e864fd	6.9258954e-06
98	0x384a19df	4.8184647e-05
99	0x3520c9a8	5.9898093e-07
100	0x339fe236	7.445162e-08
101	0x38330da1	4.268962e-05
102	0x373eca76	1.1372022e-05
103	0x380861b6	3.2515927e-05
104	0x3705939a	7.961784e-06
105	0x35fdf906	1.8922444e-06
106	0x37db5f42	2.6151192e-05
107	0x35a049fd	1.1942462e-06
108	0x36c061c7	5.7334287e-06
109	0x36b78411	5.4691996e-06
110	0x36b9d978	5.5387463e-06
111	0x35cc84fe	1.523789e-06
112	0x37eaeb9c	2.8004688e-05
113	0x3726859f	9.925482e-06
114	0x35a51f47	1.2302561e-06
115	0x37a53223	1.969288e-05
116	0x35d2b3ea	1.5698581e-06
117	0x37f268ea	2.8897502e-05
118	0x36eb811b	7.0185756e-06
119	0x361f0742	2.369707e-06
120	0x37b84a8a	2.196922e-05
121	0x35549fb2	7.920854e-07
122	0x379290c0	1.747196e-05
123	0x371c2836	9.307687e-06
124	0x35d7c5ad	1.607628e-06
125	0x370a0f36	8.228983e-06
126	0x3782267a	1.5515125e-05
127	0x376209c8	1.3472927e-05
