experiments/ppo_spy_base_20251206_104906/final_model.pth (torch, 348827 bytes, 21 tensors)

shared_net.0.weight f4 [128, 153]
0	0xbd62d089	-0.055374656
1	0x3dd30042	0.103027835
2	0x3e695827	0.22787534
3	0x3e62df03	0.22155385
4	0xbec00f3c	-0.37511623
5	0x3cf4fcf2	0.02990577
6	0x3da8108b	0.0820628
7	0x3e2d5944	0.16928583
8	0x3d94cab6	0.072652265
9	0xbe330125	-0.17480905
10	0x3dd83ee6	0.10558872
11	0x3e3e6343	0.18592553
12	0xbe2c3b1a	-0.1681942
13	0x3de4fb9c	0.11180803
14	0xbd300dc0	-0.042981863
15	0xbd978d55	-0.07400004
16	0x3caa1ed9	0.020766662
17	0xbe825157	-0.25452682
18	0x3d45a841	0.048256163
19	0xbe2b0825	-0.16702326
20	0x3d872730	0.06599271
21	0xbe392e81	-0.18084146
22	0xbd769127	-0.06019702
23	0xbeab544e	-0.33462757
24	0xbe2328ce	-0.15933535
25	0x3d642e74	0.055708364
26	0x3d4a5e47	0.049406316
27	0x3d79cf65	0.060988802
28	0x3ddef283	0.10886099
29	0xbc8ec150	-0.017426163
30	0xbe2a5214	-0.16632873
31	0xbdc7f207	-0.0976296
32	0xbdc762e1	-0.097356565
33	0xbcbaa2f1	-0.022782775
34	0x3d5e564c	0.054281518
35	0xbd09f0ea	-0.03367702
36	0xbde48136	-0.111574575
37	0x3c99142b	0.018686375
38	0xbe373c04	-0.17893988
39	0x3ce02e99	0.02736597
40	0x3c31eac2	0.010859193
41	0x3da04cdb	0.07827159
42	0x3c5fea8a	0.013666758
43	0xbda43396	-0.08017652
44	0xbe928ac4	-0.28621495
45	0xbe319dca	-0.17345348
46	0xbcee6ed6	-0.029105585
47	0x3c818aec	0.015813313
48	0xbe58c419	-0.21168555
49	0xbe2fdd19	-0.17174186
50	0x3d655a32	0.05599422
51	0xbd1c5aa9	-0.038172398
52	0x3dc52044	0.09625295
53	0xbd92ba60	-0.071644545
54	0x3e05f7a5	0.1308275
55	0x3d90e4eb	0.07074913
56	0xbddda3dc	-0.10822269
57	0x3bb17045	0.005414995
58	0x3d4f8066	0.05065956
59	0xbcc23b78	-0.023709998
60	0xbde60cef	-0.11232936
61	0x3d67947f	0.0565381
62	0xbdcc031a	-0.09961529
63	0x3db4a330	0.08820188
64	0xbd754610	-0.05988127
65	0xbe10a11d	-0.1412396
66	0xbea52cd1	-0.32260755
67	0xbd286ba3	-0.041118275
68	0xbc0c7908	-0.008573778
69	0x3d102d23	0.035199296
70	0xbd93a1b4	-0.07208577
71	0x3d27d4ab	0.0409743
72	0xbe8fc79a	-0.2808197
73	0xbd11e53e	-0.035619013
74	0x3e2401db	0.16016333
75	0x3b00987c	0.0019622138
76	0xbd61bdfb	-0.05511282
77	0xbd77a4b4	-0.060459808
78	0x3b99e69c	0.0046966802
79	0x3dc6322e	0.0967754
80	0xbe098102	-0.13428119
81	0xbe923bd5	-0.28561273
82	0x3d2eff87	0.04272416
83	0xbc997648	-0.018733159
84	0x3c8ae2bd	0.01695382
85	0xbd99c4b7	-0.075082235
86	0xbd5b462f	-0.05353373
87	0x3e882987	0.26594183
88	0x3df21363	0.11820104
89	0x3e1ba395	0.1519912
90	0xbd29175d	-0.041282047
91	0x3d3af540	0.045644045
92	0x3cfe7a60	0.031064212
93	0xbc961401	-0.018320085
94	0xbcfa9be7	-0.030591918
95	0x3d952001	0.07281495
96	0xbe01e6cf	-0.12685703
97	0xbe3cf60a	-0.18453231
98	0x3dc1dae4	0.09465578
99	0xbd790e52	-0.060804673
100	0xbd02e381	-0.031955246
101	0x3d078e22	0.033094533
102	0x3cd7e9fc	0.02635669
103	0xbe3c9992	-0.18417957
104	0xbd648001	-0.055786137
105	0x3d3f9116	0.046769224
106	0xbe2ebd17	-0.1706432
107	0x3e37f45b	0.17964308
108	0xbb0e1eee	-0.0021685916
109	0xbbe4c624	-0.006981628
110	0x3d22878f	0.03968006
111	0x3e1417f9	0.1446227
112	0x3b07b9d2	0.0020710123
113	0xbde5356f	-0.11191832
114	0x3b974578	0.0046164356
115	0x3da3476d	0.07972608
116	0x3d0400f9	0.03222749
117	0x3cef3ed2	0.02920476
118	0x3eade31a	0.33962327
119	0x3d949296	0.072545215
120	0xbcfdaf05	-0.030967245
121	0x3e193d6c	0.14964837
122	0x3e5f1161	0.21783973
123	0x3d237f91	0.03991658
124	0xbd5f5423	-0.0545236
125	0x3d9136b4	0.07090512
126	0x3e8b4f9d	0.27209178
127	0x3d5f3f89	0.05450395
128	0x3e614e11	0.22002436
129	0x3d23cbfd	0.03998946
130	0x3d036a79	0.032083962
131	0x3be4b6f1	0.006979816
132	0x3d74bd24	0.05975069
133	0xbd1a6691	-0.03769547
134	0x3e535262	0.20636895
135	0x3e16734a	0.14692417
136	0x3d854221	0.06506754
137	0x3d1cddd0	0.038297474
138	0xba847b44	-0.0010107537
139	0x3e47b352	0.19501999
140	0xbd1ca6d4	-0.038245037
141	0xbcfb7f16	-0.030700248
142	0xbd261356	-0.040545784
143	0xbd62b467	-0.055347826
144	0x3cc98962	0.024601642
145	0x3e296bae	0.16544983
146	0xbb9e75e0	-0.004835829
147	0x3d93d112	0.07217611
148	0x3d19907f	0.037491318
149	0x3e1e76ff	0.15475081
150	0x3d30dfcb	0.043182176
151	0xbec79715	-0.38982454
152	0xbf3edce5	-0.7455581
153	0xbda22324	-0.07916859
154	0xbdb7420c	-0.08948144
155	0x3ad00f8b	0.0015873773
156	0x3e2e98e2	0.17050508
157	0xbe8794ff	-0.26480862
158	0x3df7bdb4	0.1209673
159	0x3dbbc44d	0.09168301
160	0xbd44987d	-0.047996987
161	0x3e1a2af2	0.15055445
162	0xbea2880e	-0.31744426
163	0x3c0500df	0.0081178835
164	0x3cb15179	0.021645295
165	0xbde35edf	-0.111020796
166	0xbe144f7f	-0.1448345
167	0xbdb18039	-0.08667035
168	0x3d850d0a	0.06496628
169	0xbe7240b3	-0.23657493
170	0xbde4c5c6	-0.11170535
171	0xbd05c1f3	-0.032655668
172	0xbe5bba3a	-0.21457759
173	0xbe0e10b0	-0.13873553
174	0x3d9a798e	0.07542716
175	0xbe2c3e90	-0.1682074
176	0x3c8a9b5b	0.016919782
177	0xbdfd3508	-0.123636305
178	0xbe10d8d7	-0.14145218
179	0xbe291ab7	-0.16514097
180	0x3d9fc098	0.07800406
181	0xbdfd4e54	-0.123684555
182	0xbe08054d	-0.13283272
183	0x3e1bf344	0.15229517
184	0x3da3e06c	0.080017895
185	0x3dce1ed8	0.10064477
186	0x3e2c5db7	0.16832624
187	0xbe3d8965	-0.18509443
188	0x3cf12fb1	0.029441686
189	0xbe71e87e	-0.23623845
190	0x3dbe957c	0.09305856
191	0xbd1d9b81	-0.03847838
192	0xbe6c8c32	-0.23100355
193	0x3ac9d67b	0.0015399003
194	0xbdea82bd	-0.114507176
195	0x3e5557fe	0.20834348
196	0xbe417e4c	-0.18895835
197	0xbe68cf99	-0.22735442
198	0x3e131343	0.14362817
199	0x3e71d98c	0.23618144
200	0x3bdfe2a7	0.006832439
201	0x3d35cc7e	0.044384472
202	0xbe125226	-0.1428915
203	0x3da59d9a	0.08086701
204	0xbe193403	-0.14961247
205	0xbdf5c1f3	-0.119998835
206	0x3d6c8625	0.057745118
207	0xbe9b7ab1	-0.30367044
208	0x3e877b67	0.26461336
209	0x3dcddab9	0.10051484
210	0xbba98f1f	-0.005174532
211	0x3c635f5d	0.013877717
212	0xbe2da206	-0.16956338
213	0x3d0d521b	0.03450213
214	0x3dbf6eea	0.09347327
215	0x3b17de66	0.0023173331
216	0x3d1b36d3	0.03789408
217	0xbd8ba55b	-0.068186484
218	0xbc75ab16	-0.014994403
219	0x3d292563	0.04129542
220	0xbd45a34b	-0.04825143
221	0xbd4f0471	-0.050541345
222	0xbc20adff	-0.009807109
223	0x3e0e812e	0.13916466
224	0x3defa7cb	0.11701926
225	0xbd80a566	-0.06281547
226	0xbdabf33b	-0.08396002
227	0xbc9b6b27	-0.018971993
228	0xbdedd4ef	-0.116128795
229	0xbd98ba4f	-0.074574105
230	0x3c655f60	0.01399979
231	0xbdacf4e5	-0.084451474
232	0xbd851831	-0.06498755
233	0x3db3710b	0.087617956
234	0x3cd46d06	0.025930893
235	0x3d0e8467	0.034794237
236	0x3c83b878	0.016079172
237	0xbda64f84	-0.08120635
238	0x3905ff5b	0.00012778996
239	0xbd0ba89a	-0.034096338
240	0xbe2fa326	-0.1715208
241	0x3d035604	0.032064453
242	0x3d439885	0.047752876
243	0xbcfe8ae0	-0.03107208
244	0xbdbb1013	-0.09133925
245	0xbd5e2bd2	-0.05424101
246	0xbe088160	-0.13330603
247	0xbe17ecf3	-0.14836483
248	0xbc839665	-0.016062925
249	0x3ce783e7	0.028261138
250	0xbd792d33	-0.06083412
251	0x3d652c95	0.05595072
252	0x3d505d48	0.05087021
253	0x3c8c47d5	0.017124096
254	0x3d49838f	0.04919773
255	0xbd173e96	-0.03692492

shared_net.0.bias f4 [128]
0	0xbc06a1cf	-0.008217289
1	0xbd8b9a4e	-0.06816541
2	0x3d82a813	0.06379714
3	0xbe89d5b8	-0.26920867
4	0x3e6dd30d	0.2322504
5	0xbdb6a3f3	-0.089179896
6	0xbe5936bd	-0.21212287
7	0xbde1d9dd	-0.11027882
8	0x3e6dcc10	0.23222375
9	0xbdfd89ce	-0.123798
10	0xbf19edda	-0.6012856
11	0xbe2ae40d	-0.16688557
12	0x3d0a2af5	0.033732373
13	0xbe149d67	-0.14513169
14	0x3e245c5c	0.16050857
15	0xbec49361	-0.3839369
16	0x3da16e19	0.078823276
17	0xbbb367ff	-0.005475044
18	0xbe09a6f3	-0.13442592
19	0xbd3a786b	-0.045524996
20	0xbe5cee7f	-0.21575354
21	0x3e299ebd	0.1656446
22	0xbed91c4a	-0.42404395
23	0xbda65958	-0.0812251
24	0x3df19939	0.11796803
25	0xbdf54309	-0.119756766
26	0x3e13654c	0.1439411
27	0x3e742ba4	0.23844773
28	0xbe419d09	-0.1890756
29	0x3e9aadbb	0.3021067
30	0xbd8ae299	-0.06781501
31	0x3e301f35	0.17199405
32	0x3e14da18	0.14536321
33	0xbe5fdc91	-0.21861483
34	0x3e7c07f1	0.24612404
35	0x3e11f1be	0.14252374
36	0x3e72414c	0.23657721
37	0xbe50001f	-0.20312546
38	0xbe91d520	-0.28482914
39	0x3e36acd0	0.1783936
40	0x3ee2eb17	0.44319984
41	0x3c0d922a	0.008640805
42	0x3e22cc51	0.15898253
43	0xbe921bb9	-0.28536776
44	0x3eb1d1d5	0.34730402
45	0xbd1d1e0a	-0.038358726
46	0xbda42b67	-0.08016091
47	0x3e0c58ae	0.13705704
48	0xbe8a3ce8	-0.26999593
49	0x3f05b5d7	0.5223059
50	0x3e3e1b39	0.18565072
51	0xbe48196f	-0.19540952
52	0x3dae9755	0.08524958
53	0xbddf673d	-0.10908363
54	0xbe18577d	-0.14877124
55	0x3e13b06e	0.14422771
56	0x3e482312	0.19544628
57	0x3e2af4c0	0.16694927
58	0x3e040399	0.12891997
59	0xbe6193e9	-0.2202908
60	0xbe8a2470	-0.26980925
61	0xbd357b45	-0.044307012
62	0x3c909101	0.017647268
63	0x3e8b77e5	0.2723991
64	0x3e0eb3a3	0.13935713
65	0x3df9b586	0.12192826
66	0x3e1a6b21	0.15079929
67	0x3e5f2634	0.21791917
68	0x3e50adc0	0.2037878
69	0xbe8cb46f	-0.2748141
70	0xbde97c4a	-0.114006594
71	0x3e9f78bd	0.31146803
72	0xbdea3e75	-0.11437694
73	0x3ec0738c	0.37588155
74	0xbe9021e3	-0.28150854
75	0x3e793002	0.2433472
76	0x3e7702cf	0.24122165
77	0x3ee39a89	0.44453838
78	0x3cf0fc7c	0.029417269
79	0xbdf7d4fe	-0.12101172
80	0x3e036b15	0.12833817
81	0xbe31909b	-0.17340319
82	0xbe313308	-0.17304623
83	0xbe4132ed	-0.18867083
84	0xbe83ea0f	-0.2576451
85	0xbbbe140c	-0.0058007296
86	0xbe5e7f0e	-0.21728155
87	0xbe5ac41f	-0.21363877
88	0x3e12b7e5	0.14327963
89	0xbe92cffb	-0.28674302
90	0x3e3ce7f7	0.18447863
91	0x3d721b37	0.059107985
92	0x3e257d6f	0.1616113
93	0x3e502899	0.20327987
94	0xbe9ea5f9	-0.30986002
95	0x3dcf440a	0.10120399
96	0xbe97161b	-0.29509053
97	0xbcd5cd0a	-0.026098747
98	0x3e3a2b6e	0.1818063
99	0x3eddb165	0.43299404
100	0x3e49f643	0.19722848
101	0x3e5b424e	0.21412012
102	0x3ee9a34c	0.45632398
103	0xbe241f7a	-0.16027632
104	0xbac09488	-0.0014692703
105	0xbe89b76c	-0.26897752
106	0x3df525c0	0.11970091
107	0x3ec6d761	0.38836196
108	0x3e4c5160	0.19952917
109	0xbeaf0ee2	-0.34191042
110	0xbe844f2c	-0.25841653
111	0xbf0c776d	-0.5486973
112	0x3e065a36	0.1312035
113	0xbd8eed5b	-0.06978866
114	0xbda1dc47	-0.07903343
115	0xbe273a51	-0.1633084
116	0xbe8c3983	-0.27387628
117	0x3e3394f0	0.17537284
118	0xbc6bee78	-0.014400117
119	0xbeea2bf6	-0.45736665
120	0xbd938210	-0.07202542
121	0x3f085d3e	0.53267276
122	0xbe0c902a	-0.13726869
123	0x3d367355	0.044543583
124	0x3ecbbde7	0.39793321
125	0x3e2623fd	0.16224666
126	0x3dbfb2b8	0.0936026
127	0x3dfda24f	0.123844735

shared_net.3.weight f4 [64, 128]
0	0xbe26b0df	-0.16278408
1	0xbdd4cef5	-0.103910364
2	0x3cbbdefa	0.022933472
3	0x3d514ce4	0.05109872
4	0x3cc252ca	0.023721118
5	0x3d8a71c6	0.06759982
6	0xbe075f36	-0.13219914
7	0x3e0d0737	0.13772283
8	0xbeeb6b7c	-0.45980442
9	0x3dbfa0a0	0.09356809
10	0xbe329ecd	-0.1744339
11	0x3ec73b41	0.38912395
12	0x3deac112	0.114626065
13	0x3e1e83a3	0.15479903
14	0xbedee7b5	-0.43536153
15	0x3e127664	0.14302975
16	0x3df64c4d	0.12026272
17	0xbd76c756	-0.060248695
18	0x3e01c354	0.12672168
19	0xbbb3bd48	-0.0054852106
20	0xbcbdde33	-0.023177242
21	0xbe4c469f	-0.19948815
22	0xbcb2349e	-0.021753605
23	0x3c30d65e	0.010793297
24	0xbd8d5cca	-0.06902464
25	0x3d8a6cd6	0.0675904
26	0x3caa41c7	0.020783318
27	0x3dc1101c	0.09426901
28	0xbe09649d	-0.13417287
29	0xbe5e8319	-0.21729697
30	0x3e5f2d95	0.21794732
31	0xbddfdad9	-0.10930414
32	0x3d5de41e	0.054172628
33	0xbb5565c3	-0.0032561875
34	0xbe84499a	-0.25837404
35	0xbd01285c	-0.03153263
36	0xbd52d6e6	-0.051474474
37	0x3d825a89	0.063649245
38	0x3e4062e4	0.18787724
39	0xbf10390b	-0.5633704
40	0xbd7bfab8	-0.0615184
41	0x3c6dc770	0.014512882
42	0x3e0c9e30	0.13732219
43	0x3e506bcf	0.20353626
44	0x3d4669b6	0.048440658
45	0x3d837dfe	0.064205155
46	0x3eb0387b	0.3441809
47	0xbe57a597	-0.21059261
48	0x3e166167	0.14685594
49	0xbe2f042e	-0.17091438
50	0x3e2e00c9	0.16992487
51	0xbdf4c350	-0.119513154
52	0x3d249316	0.040179335
53	0x3de41eca	0.11138685
54	0x3d74791c	0.05968581
55	0xbe1c70a2	-0.15277341
56	0x3d28a6bf	0.041174646
57	0x3e4a37e9	0.1974789
58	0xbd8ba7cc	-0.06819114
59	0x3e85f78d	0.2616543
60	0xbe55513a	-0.20831767
61	0x3ea0a9ac	0.3137945
62	0x3dc78d36	0.09743731
63	0x3e360be0	0.17777967
64	0x3e1ade0d	0.15123768
65	0x3d946117	0.07245081
66	0x3d86a399	0.065741725
67	0x3c44e2bb	0.012016947
68	0xbd086f42	-0.03330923
69	0x3daec7cb	0.08534201
70	0xbe0d1e09	-0.13780989
71	0x3bc0fb5c	0.0058893394
72	0x3d47f569	0.048818026
73	0xbd560d02	-0.0522585
74	0x3d69f047	0.057113912
75	0xbce3422b	-0.027741512
76	0x3de512f4	0.11185256
77	0x3d95d0f7	0.073152475
78	0x3dbb0d58	0.091334045
79	0x3e2af5ef	0.16695379
80	0x3ceb53e6	0.02872653
81	0xbdc27adf	-0.09496092
82	0x3eddfc5f	0.43356606
83	0x3eaafea2	0.33397394
84	0xbd6bdcb3	-0.057583522
85	0xbe1cbacc	-0.15305632
86	0x3ccc2347	0.024919165
87	0x3d9628ec	0.07332024
88	0xbe079ba7	-0.1324297
89	0x3e05ecb1	0.13078572
90	0xbe768ea8	-0.24077857
91	0xbe75d566	-0.24007186
92	0xbdcf444a	-0.10120447
93	0x3e8f00af	0.2793021
94	0xbdff9de5	-0.12481288
95	0xbe07e835	-0.13272174
96	0x3de8cec5	0.11367563
97	0x3d8b1688	0.06791407
98	0xbca78ce7	-0.02045293
99	0xbda3e5bc	-0.08002803
100	0x3d798585	0.06091835
101	0xbd93b198	-0.07211608
102	0xbeb4adba	-0.35288793
103	0xbd2c2b79	-0.042033646
104	0xbdeba194	-0.11505428
105	0xbd22e476	-0.03976866
106	0xbe357488	-0.17720234
107	0x3e137e50	0.14403653
108	0xbdd88a0c	-0.10573205
109	0x3d684ef9	0.05671594
110	0x3d75e5ac	0.060033485
111	0x3e5ad5fb	0.2137069
112	0xbe9616f6	-0.29314393
113	0x3d6a24ed	0.05716412
114	0xbe71ea26	-0.23624477
115	0x3db77ee4	0.08959749
116	0x3d41c571	0.047307435
117	0xbd34db5b	-0.044154506
118	0x3ea21946	0.31659907
119	0xbb919782	-0.00444311
120	0xbd5865d7	-0.052831497
121	0xbc0e2a42	-0.008677067
122	0x3da6f131	0.08151472
123	0x3daa8243	0.08325627
124	0xbc937d7d	-0.018004173
125	0xbd90e191	-0.070742734
126	0xbe2bb6c0	-0.16768932
127	0xbe2cac66	-0.1686264
128	0xbebdc1ae	-0.37061828
129	0x3e70e113	0.23523359
130	0x3e450527	0.19240247
131	0xbd7806a2	-0.0605532
132	0x3ea40cdb	0.32041058
133	0x3df838de	0.121202216
134	0x3e0b0054	0.13574344
135	0x3d327576	0.04356905
136	0xbe8f708b	-0.2801555
137	0x3bb2ab74	0.0054525677
138	0xbd1e25e7	-0.038610365
139	0xbc6905c0	-0.014222562
140	0xbec6321f	-0.38710114
141	0xbdfdc9c7	-0.123920016
142	0x3d85bbf4	0.0652999
143	0xbe009cd9	-0.12559833
144	0xbe1b2a19	-0.15152778
145	0xbdd44fbe	-0.10366772
146	0xbe3f9791	-0.18710162
147	0xbe2bd138	-0.1677903
148	0xbde271eb	-0.110568844
149	0x3b2dd2fb	0.002652346
150	0x3d005e45	0.031339902
151	0x3e154a13	0.14579038
152	0xbe8099bd	-0.25117293
153	0x3c8f286e	0.017475333
154	0xbe181820	-0.14852953
155	0xbd15e65f	-0.036596652
156	0xbd2f4a25	-0.04279532
157	0x3e88419f	0.26612565
158	0x3de2152e	0.11039196
159	0x3d9402aa	0.07227071
160	0x3d9ee6b2	0.077588454
161	0xbac4f6fd	-0.0015027222
162	0xbea97fcd	-0.33105317
163	0x3e2d4f22	0.16924718
164	0xbd79eac1	-0.061014894
165	0xbd4aa98c	-0.0494781
166	0xbe170500	-0.14748001
167	0xbdeb31a6	-0.11484079
168	0x3dc32890	0.09529221
169	0x3d8993c2	0.06717636
170	0x3e3d5d29	0.18492569
171	0x3eabf4d7	0.33585235
172	0xbd6946f4	-0.05695243
173	0x3e113730	0.14181209
174	0xbd2b923a	-0.0418875
175	0x3df5b6ee	0.11997782
176	0x3bde39f5	0.0067818114
177	0xbeb709d2	-0.3574968
178	0x3da94d3a	0.08266683
179	0x3e1ae7ce	0.15127489
180	0xbed4a785	-0.41534057
181	0xbd9f6f0f	-0.077848546
182	0xbe7b2a0f	-0.24527763
183	0xbe64eeae	-0.22356674
184	0x3e4e1b28	0.20127547
185	0xba594548	-0.0008288217
186	0xbeb2c9d3	-0.34919605
187	0xbd35aecf	-0.044356164
188	0x3bc4fcce	0.006011582
189	0x3e31a2fd	0.17347331
190	0xbe244d22	-0.16045049
191	0xbb0e8889	-0.0021748862
192	0xbd8a31c4	-0.06747773
193	0xbe0c19b4	-0.1368168
194	0xbcc5abf4	-0.024129845
195	0xbdc98255	-0.09839312
196	0xbe70e828	-0.2352606
197	0xbb2c3d60	-0.00262817
198	0x3e37cffe	0.17950436
199	0xbe7fd099	-0.24981917
200	0x3db6d641	0.089275844
201	0x3e0b2428	0.13588011
202	0xbd4deea1	-0.050276402
203	0x3ddb80ab	0.10717901
204	0x3deccf9a	0.11563034
205	0x3d58895d	0.052865375
206	0xbd5c14fc	-0.05373095
207	0xbb5bd3eb	-0.003354306
208	0xbdd8af0c	-0.105802625
209	0xbe4526ad	-0.19253035
210	0xbd87d0da	-0.06631632
211	0xbeb5bca8	-0.35495496
212	0x3ddd7cda	0.10814829
213	0x3e653201	0.22382356
214	0xbd3cc663	-0.046087634
215	0xbd24c7b2	-0.040229507
216	0xbe3d5d44	-0.1849261
217	0xbdbcaeb1	-0.09213007
218	0xbe448351	-0.19190718
219	0x3e6a833e	0.22901627
220	0x3c808cf8	0.01569222
221	0xbdc40d8a	-0.09572895
222	0xbdab4d32	-0.08364333
223	0xbde3f12e	-0.11129986
224	0x3da6a7cb	0.08137473
225	0xbe0ff471	-0.14058091
226	0xbe91d4f6	-0.2848279
227	0x3d4e8352	0.050418206
228	0x3e4c5a35	0.19956286
229	0xbec47618	-0.38371348
230	0x3e40db3b	0.1883363
231	0xbbdcf1db	-0.0067426986
232	0xbe2112b8	-0.15729797
233	0x3e25d350	0.1619389
234	0xbe9495d9	-0.29020575
235	0x3d9a90cd	0.0754715
236	0xbd069bad	-0.032863308
237	0x3e0b40a4	0.13598877
238	0x3e003164	0.12518841
239	0xbe215c1f	-0.15757798
240	0x3cad7137	0.02117215
241	0x3d023d70	0.031796873
242	0xbe866bee	-0.2625422
243	0xbe1495b4	-0.14510232
244	0x3ddc8a8f	0.107686155
245	0xbe37f25d	-0.17963548
246	0x3e18e33a	0.1493043
247	0x3d56b55b	0.052419048
248	0x3dc42bf2	0.095786944
249	0x3c990798	0.018680379
250	0x3ec5b5d6	0.38615292
251	0x3cd923eb	0.026506385
252	0x3e4f2955	0.2023061
253	0x3e6a64e4	0.22890049
254	0xbe268b22	-0.16264012
255	0x3bad5364	0.005289482

shared_net.3.bias f4 [64]
0	0x3be3ea2d	0.006955406
1	0x3e523b6e	0.20530483
2	0x3e74a558	0.23891199
3	0xbe1a2f22	-0.15057042
4	0xbe53f981	-0.20700647
5	0xbe18d8e6	-0.1492649
6	0x3dff6a32	0.12471427
7	0x3dd2ce9f	0.10293316
8	0x3e42d778	0.19027507
9	0xbd292408	-0.041294128
10	0x3e2c6ffc	0.16839594
11	0xbd63ac30	-0.055584133
12	0xbe07a436	-0.13246235
13	0x3ef1b8ad	0.4721121
14	0xbe36f94d	-0.17868538
15	0xbebe28fa	-0.37140638
16	0xb9babb79	-0.00035616363
17	0x3e63bf23	0.22240882
18	0x3c1a161f	0.009404688
19	0x3ed6a0db	0.41919598
20	0xbe03d1c0	-0.12872982
21	0x3d45fa53	0.04833443
22	0x3dd1facb	0.10252913
23	0x3e12af4d	0.14324684
24	0xbdc6fd23	-0.09716251
25	0xbd9e40c4	-0.07727197
26	0x3d5901cd	0.052980233
27	0xbdf81d8e	-0.12115012
28	0x3d8d2b65	0.068930425
29	0x3de521be	0.111880764
30	0xbe5438fd	-0.20724864
31	0xbdae5acb	-0.08513411
32	0xbcd6674c	-0.026172303
33	0x3be26255	0.0069086947
34	0xbda7d0f8	-0.081941545
35	0xbe045fd2	-0.12927178
36	0xbe10a0b2	-0.141238
37	0x3d803f4e	0.062620744
38	0xbdadcf6a	-0.08486827
39	0xbc1245cc	-0.008927774
40	0xbd8965f8	-0.06708902
41	0x3c9aa014	0.01887516
42	0x3e94c2cf	0.29054877
43	0x3def1814	0.116745144
44	0x3d4c87cf	0.049934205
45	0x3d9684b1	0.073495276
46	0x3dc2e90b	0.09517106
47	0x3c8fffd0	0.017578036
48	0xbe8e4966	-0.27790374
49	0x3c5117dc	0.012762036
50	0x3e85cacb	0.2613128
51	0xbeac1b24	-0.33614457
52	0xbdcbe9a1	-0.099566706
53	0xbe31e3b9	-0.17372026
54	0xbdb0a01a	-0.08624287
55	0x3e781ccd	0.24229737
56	0xbe8b2bdd	-0.27181903
57	0xbd02b6df	-0.03191268
58	0xbe7f144c	-0.24910086
59	0x3e11f654	0.14254123
60	0x3e219217	0.15778385
61	0xbe9ab6a1	-0.3021746
62	0xbe531db4	-0.206168
63	0xbe32b555	-0.17451985

actor.weight f4 [3, 64]
0	0x3d58b9e7	0.052911665
1	0x3cfa0023	0.030517643
2	0x3cd7fbf8	0.026365265
3	0x3d807f59	0.0627429
4	0xbc3ded23	-0.011592182
5	0x3d753f16	0.059874617
6	0x3d1f7896	0.03893336
7	0xbd2bf36b	-0.04198019
8	0x3ccbeb44	0.024892457
9	0xbd4803d0	-0.04883176
10	0x3d14b199	0.036302183
11	0xbd04a8c1	-0.0323875
12	0x3d6101d9	0.054933403
13	0x3d46102c	0.048355266
14	0xbc552a25	-0.013010536
15	0xbd21eebc	-0.039534315
16	0x3d58a5ed	0.052892614
17	0x3d15866e	0.036505155
18	0xbd09b314	-0.033618048
19	0x3d4a845c	0.049442634
20	0xbd29d619	-0.041463945
21	0x3cea0aae	0.028569546
22	0xbc7b1f7e	-0.015327333
23	0x3d1a768a	0.037710704
24	0x3d65f0ac	0.056137726
25	0xbcffc94c	-0.031223916
26	0xbd63453f	-0.05548596
27	0xbcbf78bb	-0.023372998
28	0x3c26c0aa	0.010177771
29	0xbc65a27c	-0.01401579
30	0xbcb75ec3	-0.022384053
31	0x3cd7d101	0.026344778
32	0xbcfdb7ec	-0.03097149
33	0x3c940268	0.018067554
34	0xbc7c9894	-0.015417237
35	0x3a230b66	0.0006219655
36	0x3d1371e6	0.035997294
37	0xbd0bfbf1	-0.034175817
38	0xbc136350	-0.008995846
39	0xbcc50b68	-0.02405329
40	0xbcbaf984	-0.022824056
41	0x3cf41e35	0.02979956
42	0x3c3ddd7f	0.011588453
43	0x3d081801	0.033226017
44	0x3d4d1542	0.0500691
45	0x3d08fe08	0.033445388
46	0x3c9859f1	0.018597575
47	0x3c95a1eb	0.018265685
48	0xbd0d5437	-0.03450414
49	0xbd73b425	-0.05949797
50	0xbbcebdc4	-0.006309243
51	0xbca188d7	-0.01971857
52	0xbc8d49da	-0.01724713
53	0xbc35b3d0	-0.011090234
54	0xbd470438	-0.048588008
55	0x3b828816	0.003983508
56	0xbcd53a0f	-0.026028661
57	0x3c98ca14	0.018651046
58	0xbc08a64b	-0.008340429
59	0x3ba0811f	0.004898205
60	0x3cce2acd	0.025166893
61	0xbc922b64	-0.017842956
62	0x3c945a5c	0.018109493
63	0xbc4341a8	-0.011917509
64	0xbca2cf11	-0.019874128
65	0x3be1a107	0.006885651
66	0x3c32b8f4	0.010908354
67	0xbcf451ad	-0.029824102
68	0xbcd3ff32	-0.025878523
69	0xbd246b80	-0.040141582
70	0x3c6698be	0.0140745025
71	0x3cac8d1a	0.021063376
72	0x3b3fdbf8	0.0029275399
73	0x3d123df1	0.035703603
74	0x3b8a4cf6	0.0042206002
75	0x3b93375a	0.0044926824
76	0xbbcfcfb1	-0.0063418974
77	0xbc90d090	-0.017677575
78	0xbcf276bd	-0.029597634
79	0x3c964d27	0.018347336
80	0xbba23752	-0.0049504424
81	0x3cf00d22	0.029303137
82	0x3a93eba2	0.0011285434
83	0xbc44e3bb	-0.012017186
84	0xbce1806a	-0.027527053
85	0x3b8e0095	0.0043335655
86	0xbc7930f6	-0.015209427
87	0x3b8e9a9c	0.004351927
88	0x3c8b6fce	0.017021086
89	0xbc208ff4	-0.009799946
90	0xbc711b4a	-0.014715979
91	0x3c71c465	0.014756297
92	0x3b1ac27b	0.0023614455
93	0xbcaae6f2	-0.020862076
94	0xbca9fdfa	-0.020750988
95	0x3d0c3ee0	0.03423965
96	0xbd025ed8	-0.03182873
97	0x3cf20693	0.02954415
98	0xbc88945d	-0.016672308
99	0xbd220fae	-0.039565735
100	0xbc961c84	-0.018324144
101	0xbd3141c7	-0.04327562
102	0xbd155799	-0.036460493
103	0xbbf063f2	-0.007336133
104	0xbc12e3c8	-0.00896544
105	0x3c9b5787	0.018962635
106	0x3a31a050	0.00067759026
107	0xbaa5c2fa	-0.0012646609
108	0x3caf0cd0	0.021368414
109	0x3c9d3708	0.01919128
110	0x3c8fdf89	0.017562645
111	0x3d55f2aa	0.052233376
112	0xbb90975d	-0.004412575
113	0x3d14c4b3	0.0363204
114	0x3cb9ed35	0.022696117
115	0xbc735978	-0.014852874
116	0xbc828506	-0.015932571
117	0xbbc31948	-0.0059539415
118	0x3c921463	0.017831987
119	0x3cd46c2d	0.025930488
120	0xbbe2e8cb	-0.0069247237
121	0xbcd2970b	-0.025706789
122	0xbce9c10c	-0.028534435
123	0x3cf7bc00	0.030241013
124	0x3ca1b0aa	0.01973756
125	0xbd04c6d9	-0.0324162
126	0xbd127898	-0.03575954
127	0xbcb6ca5b	-0.022313287
128	0xbd20e50e	-0.039280944
129	0xbd244bc7	-0.04011133
130	0xbd46ded8	-0.048552364
131	0xbd2fd9e0	-0.04293239
132	0x3d1f63e4	0.038913622
133	0xbcfd97bd	-0.030956144
134	0xbd8d1002	-0.06887819
135	0x3ced0ebb	0.028937688
136	0xbd1e21f0	-0.038606584
137	0x3c7e247c	0.015511628
138	0xbd5d68db	-0.054055076
139	0x3d2917f4	0.04128261
140	0xbd76da0a	-0.060266532
141	0xbd3461b2	-0.044038482
142	0x3d495536	0.04915353
143	0x3cbed438	0.023294553
144	0xbd74d25f	-0.059770938
145	0xbda7f871	-0.08201683
146	0x3d20810f	0.03918558
147	0xbd38bb8b	-0.04510073
148	0x3dc4c990	0.096087575
149	0xbd3bd192	-0.04585416
150	0x3d2a6558	0.041600555
151	0xbd6a746b	-0.05723993
152	0xbdd0fa2f	-0.10203969
153	0x3d661803	0.056175243
154	0x3db1689c	0.08662531
155	0x3c394aac	0.011309307
156	0xbc6bb763	-0.0143869845
157	0x3d39dca4	0.045376435
158	0x3d476a43	0.048685323
159	0xbd95203c	-0.07281539
160	0x3db21c0d	0.086967565
161	0xbd90ff18	-0.07079905
162	0x3d370956	0.044686638
163	0x3d3e9864	0.04653205
164	0xbce04fb3	-0.027381754
165	0x3dd0a014	0.101867825
166	0x3d64e23d	0.05587982
167	0x3d0f98c8	0.035057813
168	0x3cfac0af	0.030609457
169	0xbd9043ed	-0.07044206
170	0xbc3a1ed3	-0.011359888
171	0xbd2c0aa5	-0.04200234
172	0xbdb711a1	-0.08938909
173	0xbd909ec5	-0.07061533
174	0xbd2c0a3d	-0.04200195
175	0xbdbbc0f7	-0.091676645
176	0x3d430421	0.04761136
177	0x3cd9ad7b	0.02657198
178	0xbc9433e7	-0.018091155
179	0x3d1c74db	0.03819738
180	0x3d3090b9	0.04310677
181	0x3c9da55b	0.019243887
182	0x3d0d192c	0.034447834
183	0xbd278f9b	-0.040908437
184	0x3d066e5e	0.032820098
185	0x3bbf667d	0.005841075
186	0x3d545f61	0.051848773
187	0xbd19d39b	-0.03755532
188	0xbd596555	-0.053075153
189	0x3d76c29f	0.0602442
190	0x3c9359b1	0.017987104
191	0x3d1cd89d	0.038292516

actor.bias f4 [3]
0	0x3da34b08	0.079732955
1	0x3b9a7682	0.0047138343
2	0xbde2760e	-0.110576734

critic.weight f4 [1, 64]
0	0x3e74e230	0.23914409
1	0x3e5043cb	0.20338361
2	0x3e8dd234	0.27699435
3	0x3e853585	0.26017395
4	0xbe97ab4a	-0.2962287
5	0x3e77e271	0.24207474
6	0x3ea3fc08	0.32028222
7	0xbe7b6df3	-0.24553661
8	0x3e469efb	0.19396584
9	0xbe762a87	-0.2403966
10	0x3e5c7f7b	0.21533005
11	0xbe6819bb	-0.22666065
12	0x3eb9762b	0.36222968
13	0x3df71280	0.120640755
14	0xbea078cc	-0.3134216
15	0xbe07f9c0	-0.13278866
16	0x3e891a57	0.26777908
17	0x3e841cfc	0.25803363
18	0xbe7c983b	-0.24667446
19	0x3e0851f9	0.1331252
20	0xbe6a5acd	-0.228862
21	0x3e2d7b24	0.16941506
22	0xbeb313cd	-0.34976044
23	0x3e6fb39b	0.23408358
24	0x3e6cf7f9	0.23141469
25	0xbe8cbd3a	-0.27488118
26	0xbe8f4015	-0.27978578
27	0xbe074a91	-0.13212039
28	0x3ea62c01	0.32455447
29	0xbe9056f0	-0.28191328
30	0xbe8bd794	-0.2731291
31	0x3e720485	0.23634537
32	0xbe96f980	-0.29487228
33	0x3e85afa2	0.2611056
34	0xbe63a638	-0.22231376
35	0xbe8badab	-0.27280936
36	0x3e7a725b	0.24457686
37	0xbe74f85c	-0.23922867
38	0xbe8ca725	-0.2747127
39	0xbe7670e1	-0.24066497
40	0xbe861093	-0.2618452
41	0x3e4e2400	0.2013092
42	0x3e5e154c	0.21687812
43	0x3e3d36c7	0.18477927
44	0x3e974332	0.29543453
45	0x3e604215	0.21900208
46	0x3e63aba4	0.22233444
47	0x3e6f06ff	0.23342513
48	0xbe520d06	-0.2051278
49	0xbe594b97	-0.21220241
50	0x3e89469e	0.2681169
51	0xbeb4c3ef	-0.35305735
52	0xbe90f31d	-0.2831048
53	0xbe990804	-0.29888928
54	0xbe45eb75	-0.19328101
55	0x3e87c7d6	0.2651965
56	0xbeb26cdd	-0.3484868
57	0xbe847cae	-0.25876373
58	0xbeabb698	-0.33537745
59	0x3e90757b	0.2821463
60	0x3e8b1aab	0.27168784
61	0xbe6d5deb	-0.23180358
62	0xbe911181	-0.28333667
63	0xbe97f280	-0.296772

exp_avg f4 [128, 153]
0	0xba17c12b	-0.0005788977
1	0xba15b581	-0.0005710945
2	0xba1b0cc6	-0.0005914684
3	0xba184aaa	-0.00058094657
4	0x3a149ee9	0.00056694314
5	0xba0ebfc2	-0.0005445444
6	0xba0dc663	-0.0005408285
7	0xba126d10	-0.00055857096
8	0xba0d7b72	-0.0005397118
9	0x3a60afe8	0.0008571134
10	0xba104552	-0.00055034936
11	0xba0ce2fb	-0.0005374399
12	0xba0f1dea	-0.00054594746
13	0xba0c9b3a	-0.0005363707
14	0x39d8d8f8	0.00041360385
15	0xba088f67	-0.0005209357
16	0xba06a25e	-0.0005135889
17	0xba088876	-0.00052083225
18	0xba065a35	-0.0005125136
19	0xb8919fd9	-6.943913e-05
20	0xba03f3cb	-0.00050335814
21	0xba020ee8	-0.00049613276
22	0xba03bc9b	-0.0005025358
23	0xb9fece07	-0.00048600158
24	0x390a2231	0.00013173443
25	0xba0409fa	-0.0005036887
26	0xba04396c	-0.0005043957
27	0xba03b21f	-0.00050237955
28	0xba05ffb8	-0.00051116524
29	0x3a02236b	0.0004964384
30	0xba054291	-0.00050834665
31	0xba072f47	-0.0005156886
32	0xba04a720	-0.0005060304
33	0xba026614	-0.0004974317
34	0x3a01b0b8	0.00049472926
35	0xba00673c	-0.00048981956
36	0xba01bb2a	-0.0004948849
37	0xb9ff34a5	-0.00048676613
38	0xba025161	-0.0004971233
39	0xb942e6bd	-0.00018587238
40	0xb9f91fb7	-0.0004751661
41	0xb9f8ebb0	-0.00047477847
42	0xba01121f	-0.000492366
43	0xb9ffbdb0	-0.00048778718
44	0x39af2d97	0.00033412568
45	0xb9f97bad	-0.00047585127
46	0xb9fc4162	-0.000481139
47	0xb9ff14fd	-0.00048653028
48	0xb9ffcb66	-0.00048788934
49	0x39bb9a40	0.00035782345
50	0xb9f78261	-0.0004720865
51	0xb9fb97c1	-0.00047987516
52	0xb9f91875	-0.00047511203
53	0xb9f90362	-0.000474955
54	0x3986ebd2	0.00025734172
55	0xb9f8b6ea	-0.00047438528
56	0xba00e6cb	-0.00049172033
57	0xb9f9aeeb	-0.00047623305
58	0xb9fca156	-0.0004818539
59	0xb8d99676	-0.00010375392
60	0xb9fca203	-0.00048185894
61	0xba003ad9	-0.00048915815
62	0xba01d4e3	-0.0004952682
63	0xba013d77	-0.00049301184
64	0x3a018ac8	0.00049416395
65	0xba00fe6c	-0.00049207243
66	0xba033ed2	-0.00050066144
67	0xba011a74	-0.00049249013
68	0xba02382c	-0.00049674767
69	0xb9e18414	-0.0004301375
70	0xba059b87	-0.0005096723
71	0xba02863d	-0.00049791095
72	0xba0c7a6b	-0.0005358818
73	0xba08723a	-0.00052050094
74	0x3a9050e7	0.0011010439
75	0xba0dd445	-0.0005410354
76	0xba0b44c3	-0.00053126755
77	0xba0d5ff1	-0.00053930195
78	0xba0e4ac0	-0.0005428009
79	0x3a3a5027	0.00071072805
80	0xba08cbc2	-0.00052183506
81	0xba0eb7be	-0.000544425
82	0xba100e95	-0.0005495337
83	0xba112400	-0.00055366755
84	0x3a7a9497	0.0009558885
85	0xba1182a7	-0.000555078
86	0xba10c5c4	-0.00055226334
87	0xba143877	-0.0005654166
88	0xba1420f2	-0.0005650661
89	0x39cfefc9	0.0003966077
90	0xba11777f	-0.00055491173
91	0xba132425	-0.0005612991
92	0xba13c613	-0.00056371203
93	0xba14ae94	-0.0005671766
94	0x39df9439	0.0004264431
95	0xba18aa79	-0.0005823742
96	0xba11f053	-0.0005567122
97	0xba16394c	-0.0005730584
98	0xba116624	-0.0005546531
99	0x39ef9f03	0.00045704105
100	0xba0f2c15	-0.0005461586
101	0xba106395	-0.0005508003
102	0xba13c0a6	-0.0005636312
103	0xba11cb29	-0.0005561584
104	0x3a358ad2	0.0006925288
105	0xba14b1a6	-0.00056722236
106	0xba149be2	-0.00056689803
107	0xba170517	-0.00057609513
108	0xba14f685	-0.0005682486
109	0x3a00aaae	0.0004908246
110	0xba18ca7c	-0.00058285124
111	0xba19a728	-0.0005861395
112	0xba19f403	-0.00058728474
113	0xba168d14	-0.0005743068
114	0x39409fb7	0.00018370045
115	0xba118825	-0.0005551598
116	0xba0efbf3	-0.00054544135
117	0xba10f68d	-0.0005529903
118	0xba0dec6c	-0.0005413953
119	0x3a0a2d0f	0.00052709965
120	0xba107e92	-0.00055120245
121	0xba0ff306	-0.00054912304
122	0xba124f7e	-0.0005581303
123	0xba10fbad	-0.00055306667
124	0x399fd543	0.00030485736
125	0xba11427b	-0.00055412174
126	0xba11ecad	-0.00055665785
127	0xba15bd4d	-0.0005712107
128	0xba10db17	-0.0005525811
129	0x3a4667e9	0.00075685844
130	0xba13db52	-0.0005640286
131	0xba15078e	-0.00056850247
132	0xba184a38	-0.00058093993
133	0xba199d90	-0.00058599655
134	0x3a4a1f41	0.00077103457
135	0xba1afea7	-0.000591258
136	0xba19a718	-0.0005861386
137	0xba1e490c	-0.00060381065
138	0xba1e5502	-0.0006039889
139	0x3a5c3627	0.00084004033
140	0xba20735f	-0.0006120707
141	0xba18ff2e	-0.00058363646
142	0xba1dd2f3	-0.00060205086
143	0xba163198	-0.0005729436
144	0x3a712759	0.00091992837
145	0xba15e20b	-0.0005717582
146	0xba175ff4	-0.0005774491
147	0xba19c00b	-0.00058651034
148	0xba1f254c	-0.00060709263
149	0x3a7f9a89	0.00097505056
150	0x370078fa	7.657562e-06
151	0x397a5c4e	0.00023876244
152	0xb7de0177	-2.6465144e-05
153	0x37f47bce	2.9144718e-05
154	0x381102e2	3.457338e-05
155	0x37b6ca4b	2.179029e-05
156	0x37ecb291	2.8216544e-05
157	0x38eb1336	0.000112092515
158	0x38361bbd	4.3418015e-05
159	0x3821c416	3.856801e-05
160	0x3817dbf5	3.6206056e-05
161	0x3805e7ca	3.192554e-05
162	0xb860c254	-5.3586744e-05
163	0x37f60279	2.9326637e-05
164	0x381380d8	3.5167526e-05
165	0x37f752cb	2.9483248e-05
166	0x3803232e	3.1265597e-05
167	0xb98b6578	-0.00026587746
168	0x384245e2	4.6318288e-05
169	0x38635ad3	5.4205604e-05
170	0x382abca4	4.0706844e-05
171	0x3860ba9d	5.357956e-05
172	0xb90941c3	-0.00013089836
173	0x3855d1f8	5.0978706e-05
174	0x38355229	4.323028e-05
175	0x382dcd61	4.143769e-05
176	0x3826b754	3.974822e-05
177	0xb8bc75cb	-8.986479e-05
178	0x3821fb12	3.861922e-05
179	0x382d6d38	4.1348132e-05
180	0x3813d806	3.524872e-05
181	0x38213a70	3.8439815e-05
182	0x39252616	0.00015749814
183	0x381d67dd	3.7528447e-05
184	0x380098cd	3.0659885e-05
185	0x37d0dfa8	2.489968e-05
186	0x37d5b6c8	2.5476693e-05
187	0x39532a1a	0.00020138212
188	0x37e87e20	2.7715287e-05
189	0x37d9dc73	2.597107e-05
190	0x37c1bcd9	2.3095332e-05
191	0x37af7e88	2.0920546e-05
192	0x3725e7ce	9.888738e-06
193	0x380b762a	3.325023e-05
194	0x37ec6f64	2.8185263e-05
195	0x37b13df9	2.1128903e-05
196	0x37840157	1.573625e-05
197	0x39ad569a	0.00033061655
198	0x378689cc	1.6038211e-05
199	0x37a8c4dd	2.0118832e-05
200	0x37ac8996	2.0568066e-05
201	0x37c1168e	2.3017896e-05
202	0x382db1b4	4.1411913e-05
203	0x37f6a6f0	2.9403222e-05
204	0x380a6b2a	3.300157e-05
205	0x37e54c20	2.7334376e-05
206	0x380a0aba	3.2911754e-05
207	0x3820eec7	3.836935e-05
208	0x38122c6a	3.4850476e-05
209	0x38051457	3.1728614e-05
210	0x37e2b7ed	2.7026947e-05
211	0x37fea618	3.0356503e-05
212	0x3804ab4c	3.1630785e-05
213	0x37e8b790	2.7742033e-05
214	0x37e6fc6d	2.7535682e-05
215	0x37859470	1.5923957e-05
216	0x37970888	1.8004575e-05
217	0x395ebf06	0.00021242732
218	0x37bc8079	2.2471171e-05
219	0x37ab3d8e	2.0413452e-05
220	0x378cfc66	1.6806833e-05
221	0x37c1109d	2.3015129e-05
222	0xb8ca30b1	-9.64118e-05
223	0x37d8fb89	2.5866337e-05
224	0x37f29a5e	2.892053e-05
225	0x379b00c6	1.84778e-05
226	0x37e2e548	2.7048067e-05
227	0xb876ea77	-5.8869333e-05
228	0x36db1a4e	6.529771e-06
229	0x379a47b2	1.8391616e-05
230	0x35b3e134	1.3402082e-06
231	0x37a902c0	2.014765e-05
232	0x396aa3d3	0.00022377008
233	0x37bb98e9	2.2363341e-05
234	0x37a6e5e0	1.9895786e-05
235	0x3741014c	1.1503998e-05
236	0x36f565c7	7.3134174e-06
237	0x390a89b5	0.00013212005
238	0x36fe3f5d	7.5771663e-06
239	0x37426186	1.15860075e-05
240	0xb54f41ff	-7.7209546e-07
241	0x35965cf4	1.1202924e-06
242	0x395f0d06	0.00021271789
243	0x3725cd2f	9.882539e-06
244	0x373985d3	1.1058018e-05
245	0x36e66b5a	6.8670315e-06
246	0xb53a31c6	-6.936283e-07
247	0x3959ee0c	0.00020783412
248	0xb7580b95	-1.28773e-05
249	0xb6c78be4	-5.9469476e-06
250	0xb6e89554	-6.931523e-06
251	0xb694aae2	-4.430637e-06
252	0xb7241c17	-9.781702e-06
253	0x3504a62d	4.941565e-07
254	0x3716b6aa	8.9832265e-06
255	0xb74326cb	-1.1631938e-05

exp_avg_sq f4 [128, 153]
0	0x36e95bbe	6.9546213e-06
1	0x36e9ba5e	6.965637e-06
2	0x36e86dd1	6.926923e-06
3	0x36e920cd	6.9477596e-06
4	0x368c15c2	4.174858e-06
5	0x36e90a11	6.945113e-06
6	0x36e9628b	6.955413e-06
7	0x36e86e28	6.9269627e-06
8	0x36e89db8	6.9324997e-06
9	0x36a0e855	4.7954186e-06
10	0x36e8c789	6.9373677e-06
11	0x36e91f33	6.947573e-06
12	0x36e7a0c6	6.903053e-06
13	0x36e8577b	6.924323e-06
14	0x36981c30	4.5332345e-06
15	0x36e7b858	6.905797e-06
16	0x36e8c86e	6.937472e-06
17	0x36e72606	6.888763e-06
18	0x36e886f5	6.92985e-06
19	0x369ff4d0	4.767069e-06
20	0x36e7da66	6.9097614e-06
21	0x36e859b3	6.924581e-06
22	0x36e70ab1	6.885581e-06
23	0x36e7e5eb	6.9111024e-06
24	0x36b013db	5.24752e-06
25	0x36e7a842	6.9039243e-06
26	0x36e844cf	6.922149e-06
27	0x36e741b8	6.891987e-06
28	0x36e8487e	6.922578e-06
29	0x36caddd9	6.0458956e-06
30	0x36e79eac	6.9028083e-06
31	0x36e89931	6.9319726e-06
32	0x36e7d0f6	6.9086627e-06
33	0x36e8ce5d	6.9381626e-06
34	0x36dc8915	6.5724694e-06
35	0x36e8339c	6.920147e-06
36	0x36e8f01f	6.9420926e-06
37	0x36e7de6c	6.91023e-06
38	0x36e911d6	6.9460175e-06
39	0x36c8a46d	5.979606e-06
40	0x36e82994	6.918979e-06
41	0x36e900fc	6.9440557e-06
42	0x36e7cb19	6.90798e-06
43	0x36e8fdef	6.9437006e-06
44	0x36a4270f	4.892128e-06
45	0x36e8543b	6.9239445e-06
46	0x36e90421	6.944422e-06
47	0x36e7a5aa	6.9036223e-06
48	0x36e9316a	6.9496937e-06
49	0x36b52fa4	5.3997665e-06
50	0x36e97893	6.957978e-06
51	0x36e9a03e	6.9625958e-06
52	0x36e96c67	6.956561e-06
53	0x36ea62a0	6.985225e-06
54	0x36f75cc5	7.3719734e-06
55	0x36eac210	6.9963353e-06
56	0x36eb6950	7.0158057e-06
57	0x36eac5f7	6.9967896e-06
58	0x36eb97e3	7.0212277e-06
59	0x36f80d22	7.392505e-06
60	0x36eb51aa	7.0130527e-06
61	0x36ebace7	7.0236742e-06
62	0x36eadc88	6.9994167e-06
63	0x36eb9903	7.0213587e-06
64	0x36f02e28	7.1579307e-06
65	0x36ec4af2	7.042073e-06
66	0x36ecf39f	7.0617093e-06
67	0x36ec3261	7.039213e-06
68	0x36eda8f0	7.0828173e-06
69	0x36e88b8f	6.9303856e-06
70	0x36ee968e	7.1104796e-06
71	0x36ee915b	7.1098743e-06
72	0x36ef1bd8	7.1259965e-06
73	0x36f02700	7.1570976e-06
74	0x370ec7fc	8.510422e-06
75	0x36efe956	7.149919e-06
76	0x36f011af	7.154616e-06
77	0x36efa779	7.1422514e-06
78	0x36f03619	7.158855e-06
79	0x371c3c8b	9.312421e-06
80	0x36efe4f8	7.1494105e-06
81	0x36eff11a	7.150823e-06
82	0x36efa870	7.1423638e-06
83	0x36ef9dad	7.141111e-06
84	0x370e2ea2	8.474717e-06
85	0x36eed3f9	7.1176296e-06
86	0x36eec7a2	7.116193e-06
87	0x36ee7e46	7.107653e-06
88	0x36eeb69a	7.1142103e-06
89	0x370559f5	7.9483625e-06
90	0x36ed3e8a	7.070431e-06
91	0x36ed63d7	7.0747733e-06
92	0x36ecc7ea	7.056621e-06
93	0x36ece8b5	7.0604387e-06
94	0x36deebd5	6.64357e-06
95	0x36ebd855	7.02873e-06
96	0x36eb9434	7.020799e-06
97	0x36eaef8e	7.0016313e-06
98	0x36eaa81a	6.993313e-06
99	0x36cb7ca6	6.0643824e-06
100	0x36e9baaa	6.9656717e-06
101	0x36ea5313	6.9834146e-06
102	0x36e8f53b	6.9426874e-06
103	0x36e949d7	6.952537e-06
104	0x36e31a7f	6.7682117e-06
105	0x36e83242	6.9199896e-06
106	0x36e86f3a	6.9270873e-06
107	0x36e7017c	6.8845093e-06
108	0x36e762c4	6.8958343e-06
109	0x36b8c069	5.506027e-06
110	0x36e7b4d1	6.9053863e-06
111	0x36e7f7da	6.91319e-06
112	0x36e6cd5b	6.8784407e-06
113	0x36e7903d	6.901128e-06
114	0x36d6e5a6	6.4044316e-06
115	0x36e752b2	6.8939635e-06
116	0x36e7e567	6.9110424e-06
117	0x36e68067	6.869482e-06
118	0x36e790ad	6.901179e-06
119	0x36cf0204	6.1693154e-06
120	0x36e7b3a8	6.905251e-06
121	0x36e787a1	6.9001258e-06
122	0x36e6a2e4	6.873497e-06
123	0x36e75180	6.8938243e-06
124	0x36c36adf	5.8238943e-06
125	0x36e6d1fa	6.8789786e-06
126	0x36e79cf6	6.902609e-06
127	0x36e6b2f7	6.8753684e-06
128	0x36e7dc55	6.9099865e-06
129	0x36dd2c40	6.5914646e-06
130	0x36e7b962	6.905918e-06
131	0x36e813cc	6.9164435e-06
132	0x36e78369	6.8996346e-06
133	0x36e85265	6.923731e-06
134	0x36ccf48f	6.108144e-06
135	0x36e796d6	6.901896e-06
136	0x36e7b1fb	6.905056e-06
137	0x36e6c9cf	6.8780278e-06
138	0x36e733c6	6.8903637e-06
139	0x36cf66e3	6.1810583e-06
140	0x36e6b770	6.875889e-06
141	0x36e66efe	6.8674553e-06
142	0x36e5be1a	6.8468626e-06
143	0x36e5f39d	6.853092e-06
144	0x36d492b9	6.335173e-06
145	0x36e4c672	6.8180316e-06
146	0x36e55cde	6.835543e-06
147	0x36e493d7	6.8121403e-06
148	0x36e53b8b	6.8316635e-06
149	0x37048fa3	7.901256e-06
150	0x33cfa12b	9.668505e-08
151	0x35005310	4.780459e-07
152	0x355aff58	8.15829e-07
153	0x369d4095	4.686483e-06
154	0x369e3c94	4.715819e-06
155	0x369c8000	4.6640635e-06
156	0x369d1991	4.681941e-06
157	0x35ff3443	1.9014191e-06
158	0x369c5521	4.6590726e-06
159	0x369d687a	4.6911273e-06
160	0x369b37a7	4.6258388e-06
161	0x369be4ad	4.6459813e-06
162	0x35e49945	1.7031931e-06
163	0x369b7e27	4.634046e-06
164	0x369c49d9	4.6577593e-06
165	0x369a3ea1	4.5968486e-06
166	0x369ae6ef	4.616442e-06
167	0x35f387a8	1.8144392e-06
168	0x369aa239	4.608443e-06
169	0x369bb849	4.6408136e-06
170	0x36997c94	4.574258e-06
171	0x369a9b77	4.607656e-06
172	0x35e941bb	1.7378983e-06
173	0x369a56d8	4.5996676e-06
174	0x369b73c7	4.632838e-06
175	0x3698ed99	4.557613e-06
176	0x3699fd47	4.5892407e-06
177	0x35f0407e	1.7900163e-06
178	0x36996544	4.571544e-06
179	0x369a2424	4.593765e-06
180	0x3697f157	4.5282463e-06
181	0x3698a955	4.549666e-06
182	0x35ee365c	1.7748202e-06
183	0x36980b22	4.531249e-06
184	0x3699040e	4.5602274e-06
185	0x3696dd79	4.496131e-06
186	0x3697d054	4.5244033e-06
187	0x35edf427	1.7728934e-06
188	0x3697b8a3	4.521645e-06
189	0x3698b01e	4.5504557e-06
190	0x369698ae	4.4881226e-06
191	0x36979a24	4.518095e-06
192	0x35e9a18e	1.7406871e-06
193	0x3697975c	4.5177712e-06
194	0x36985e09	4.5409e-06
195	0x36962a1d	4.475251e-06
196	0x36972a56	4.5050792e-06
197	0x35ee32ec	1.7747202e-06
198	0x3696d9cc	4.4957033e-06
199	0x36977657	4.5139273e-06
200	0x36951872	4.443392e-06
201	0x36964605	4.4784997e-06
202	0x35db3a93	1.6333819e-06
203	0x3696236a	4.474471e-06
204	0x3696c7f2	4.493625e-06
205	0x3694980a	4.4284434e-06
206	0x369593c3	4.4577478e-06
207	0x35d165db	1.5601357e-06
208	0x3695342b	4.446619e-06
209	0x3696594b	4.4807434e-06
210	0x3693cd55	4.404845e-06
211	0x369517d2	4.443319e-06
212	0x35d078a1	1.5532315e-06
213	0x3694e3ce	4.4372637e-06
214	0x3695b83a	4.461993e-06
215	0x369368a3	4.3931227e-06
216	0x36947eb1	4.4254925e-06
217	0x35ec0cc8	1.758709e-06
218	0x36943cff	4.4178446e-06
219	0x36956f00	4.453468e-06
220	0x3692ffe2	4.3809277e-06
221	0x3694330a	4.4166854e-06
222	0x36053729	1.9850652e-06
223	0x36943e92	4.418028e-06
224	0x369573d7	4.4540316e-06
225	0x3692fa4e	4.3802784e-06
226	0x36945f28	4.4218214e-06
227	0x360db0bb	2.1113508e-06
228	0x3693c446	4.4037906e-06
229	0x3694a990	4.4304834e-06
230	0x36923606	4.357428e-06
231	0x36934dcb	4.3899977e-06
232	0x360e85b7	2.1237481e-06
233	0x3693ba39	4.4026206e-06
234	0x369493f4	4.4279677e-06
235	0x369255b0	4.3611144e-06
236	0x36939ae5	4.3989735e-06
237	0x360b2721	2.073539e-06
238	0x36935f50	4.392037e-06
239	0x36945f3d	4.421831e-06
240	0x36922d27	4.3563955e-06
241	0x369328fa	4.3857117e-06
242	0x360b9114	2.079706e-06
243	0x3692cded	4.375112e-06
244	0x36940326	4.4111102e-06
245	0x3691cc63	4.3451305e-06
246	0x3692f8dd	4.3801106e-06
247	0x361de3e3	2.352747e-06
248	0x3692b45c	4.3721357e-06
249	0x3693b3fe	4.4018952e-06
250	0x3691d5d4	4.3462296e-06
251	0x3692b88d	4.3726236e-06
252	0x363a0136	2.7716865e-06
253	0x36926f6a	4.3641094e-06
254	0x36936c9c	4.393585e-06
255	0x3691adb7	4.34156e-06

exp_avg f4 [128]
0	0x39622b66	0.00021569207
1	0x3931a15f	0.00016940151
2	0xb90c00d9	-0.00013351756
3	0x38d31077	0.00010064331
4	0xb93b1354	-0.0001784091
5	0xb8f9a8bc	-0.000119046745
6	0x39072a87	0.00012890446
7	0xb7bca2c4	-2.248714e-05
8	0xba7c21a9	-0.0009618053
9	0xb82127cd	-3.842246e-05
10	0x39416dda	0.00018446837
11	0x368887ec	4.0689392e-06
12	0x396bf180	0.00022501312
13	0xba85156c	-0.0010153479
14	0xba840cf8	-0.0010074666
15	0x35e0a49c	1.6737208e-06
16	0xba17a68a	-0.0005785009
17	0x38eb33b9	0.00011215307
18	0x39f0233c	0.0004580262
19	0x398e96f8	0.0002719683
20	0x38b948ad	8.835024e-05
21	0xb88913dc	-6.536368e-05
22	0x38db5ad3	0.00010459651
23	0x3a48ffd8	0.0007667518
24	0x39278117	0.00015974451
25	0xb9067331	-0.00012822148
26	0x3922fa8d	0.00015542861
27	0xb93cd321	-0.00018007729
28	0x3984279d	0.00025206516
29	0x39c6cd5a	0.00037918502
30	0xb896f178	-7.1975344e-05
31	0xb91472c1	-0.00014157129
32	0xb91b9592	-0.00014837671
33	0xb953cc31	-0.00020198595
34	0x39afcd09	0.00033531364
35	0xb9a85a26	-0.00032110623
36	0xba266ea2	-0.0006348883
37	0x39ad7c80	0.0003308989
38	0x38f7afda	0.00011810633
39	0xba08be23	-0.0005216321
40	0xb72d0cdc	-1.0314598e-05
41	0xb9858f74	-0.00025474618
42	0x3825aa04	3.9497405e-05
43	0xb688c414	-4.0759423e-06
44	0x39995d21	0.0002925182
45	0x399550b1	0.00028479614
46	0x38629e54	5.4030053e-05
47	0xba8d13bf	-0.0010763331
48	0x38f7acaf	0.000118100426
49	0xb995cd7f	-0.000285726
50	0xb7ee2899	-2.8390716e-05
51	0x39fc5ec6	0.00048135797
52	0xba0ca6de	-0.00053654413
53	0xb97a9032	-0.00023895575
54	0x3822101f	3.8638824e-05
55	0xb98e36e7	-0.00027125256
56	0xb98bd13b	-0.00026668035
57	0xb8df8721	-0.00010658638
58	0xb921e8f3	-0.00015440937
59	0x391a2162	0.0001469902
60	0xb91b8c38	-0.00014834187
61	0x3931a12f	0.00016940081
62	0xb87dfe9d	-6.0557028e-05
63	0xb8ac2b47	-8.20966e-05
64	0x38caa1d5	9.662254e-05
65	0xb98e3347	-0.00027122555
66	0x39c9a414	0.00038459955
67	0xba8fbc04	-0.0010966067
68	0xb942729f	-0.00018543981
69	0xb9224d94	-0.00015478424
70	0xb590cbe1	-1.0788173e-06
71	0xb91abb5b	-0.0001475638
72	0x39fde4a0	0.0004842626
73	0xb8ab1a69	-8.158835e-05
74	0x38935288	7.024879e-05
75	0xb97b3a1f	-0.00023958877
76	0x380d89a8	3.3745222e-05
77	0xb9e04785	-0.00042777896
78	0xb93f6751	-0.00018253668
79	0x38e1db86	0.000107697255
80	0x395bda93	0.00020966893
81	0x3a3ad118	0.00071264943
82	0xb952406f	-0.00020051164
83	0x39a72587	0.00031880682
84	0xb90f64d2	-0.00013675101
85	0x39ffea4e	0.0004881196
86	0xb8956e4e	-7.1254195e-05
87	0x3999ca68	0.00029333238
88	0x38b92c3b	8.829726e-05
89	0xb84d8b40	-4.9005495e-05
90	0x39504252	0.00019861132
91	0x39abcca5	0.00032768134
92	0x3a3ddf4a	0.00072430505
93	0x3899fb3a	7.342403e-05
94	0x39089c26	0.0001302814
95	0x39b703b2	0.00034907233
96	0xb8f05563	-0.00011459996
97	0xba02d6c7	-0.0004991111
98	0xb9842167	-0.0002520189
99	0xb90fb3bf	-0.00013704503
100	0xb877162e	-5.8910045e-05
101	0x39e3a87d	0.00043422348
102	0xb9daa72a	-0.00041704747
103	0xb83994fd	-4.4246193e-05
104	0xb91dc3c2	-0.00015045612
105	0xba083e9b	-0.0005197317
106	0xb9a33f4d	-0.00031136945
107	0x37e2b8b4	2.7027309e-05
108	0xba158a5e	-0.0005704517
109	0xb9a232d3	-0.00030936915
110	0x39cab592	0.00038663723
111	0x3959709e	0.00020736686
112	0xba989dd1	-0.0011643713
113	0x3a025df5	0.0004973107
114	0x38ad4e2c	8.2638435e-05
115	0xb926847b	-0.00015880346
116	0x3841680e	4.6111694e-05
117	0xb9c84d4d	-0.00038204566
118	0x39b1cae8	0.00033911248
119	0xb8527790	-5.0179253e-05
120	0xb9ec15c4	-0.00045029644
121	0xb8eeece9	-0.00011392852
122	0xb918a6eb	-0.00014558031
123	0x3949fff5	0.00019264205
124	0xb94ef07d	-0.0001973528
125	0x388a400a	6.592281e-05
126	0x37d89a10	2.5820947e-05
127	0xb60ed89e	-2.1285737e-06

exp_avg_sq f4 [128]
0	0x36f50849	7.3025335e-06
1	0x36c5aec7	5.8914043e-06
2	0x368cb2f0	4.193156e-06
3	0x35946ff5	1.1059443e-06
4	0x3676e101	3.6787826e-06
5	0x369e3cc3	4.7158405e-06
6	0x364be90c	3.0385008e-06
7	0x35a7c6c8	1.2500323e-06
8	0x38f049cb	0.00011457837
9	0x37ab18bc	2.0396306e-05
10	0x356a7dcf	8.735487e-07
11	0x37fc3037	3.0063193e-05
12	0x362eb8c3	2.6035566e-06
13	0x37a7b872	1.999384e-05
14	0x376b0fef	1.4010801e-05
15	0x355516f6	7.9382096e-07
16	0x375ac93c	1.3040666e-05
17	0x373375ce	1.069666e-05
18	0x3642457c	2.8948698e-06
19	0x36a40738	4.8884212e-06
20	0x3752256d	1.2525689e-05
21	0x37a2503c	1.9349267e-05
22	0x35183e39	5.671496e-07
23	0x37606a88	1.3376244e-05
24	0x36d93b49	6.4740057e-06
25	0x3582b99d	9.739775e-07
26	0x37cc95e8	2.43885e-05
27	0x38288647	4.0179377e-05
28	0x37d99b27	2.5940664e-05
29	0x36870d0f	4.0248337e-06
30	0x352e88c9	6.50191e-07
31	0x380c56b2	3.3459342e-05
32	0x378b024f	1.6571166e-05
33	0x372b67d8	1.0216572e-05
34	0x38eb5f5d	0.00011223436
35	0x3680b810	3.836125e-06
36	0x382f0c91	4.1734955e-05
37	0x37bfa487	2.2845588e-05
38	0x36e313b1	6.7674196e-06
39	0x380690df	3.208301e-05
40	0x334a4478	4.7094062e-08
41	0x362c1f62	2.5648264e-06
42	0x378bf5ae	1.6684495e-05
43	0x38484f52	4.775759e-05
44	0x3683110f	3.90609e-06
45	0x36273fa4	2.4921983e-06
46	0x37413d7e	1.1518014e-05
47	0x37e436d3	2.7205248e-05
48	0x35f27905	1.8065626e-06
49	0x363dd973	2.8289767e-06
50	0x351b68c3	5.789445e-07
51	0x38125a89	3.489343e-05
52	0x36f4161a	7.2743396e-06
53	0x37dc8009	2.6285665e-05
54	0x37ac4b5b	2.0539088e-05
55	0x37742351	1.4551756e-05
56	0x37f0900a	2.8677303e-05
57	0x378a4bb0	1.6486127e-05
58	0x375295b3	1.255183e-05
59	0x38231d34	3.8889426e-05
60	0x360ee9a6	2.129565e-06
61	0x3703f3f1	7.8650055e-06
62	0x360d54af	2.105993e-06
63	0x357dbec7	9.452746e-07
64	0x37c73d85	2.3751296e-05
65	0x3789d943	1.6432843e-05
66	0x37841d6b	1.5749325e-05
67	0x391e09e5	0.0001507174
68	0x38013084	3.080118e-05
69	0x35c4c543	1.4660549e-06
70	0x3740073b	1.1445775e-05
71	0x36b9ff8a	5.5431783e-06
72	0x37669496	1.3743664e-05
73	0x34fe4fdf	4.73693e-07
74	0x36c89452	5.9777312e-06
75	0x3568b611	8.6691676e-07
76	0x35c01382	1.4310792e-06
77	0x3736ab79	1.0887969e-05
78	0x3585b78d	9.962693e-07
79	0x375cab49	1.3152902e-05
80	0x3717d25c	9.0492795e-06
81	0x3617d1c2	2.2622849e-06
82	0x38026c02	3.1095005e-05
83	0x3638f7bd	2.756234e-06
84	0x3587e869	1.0125924e-06
85	0x36866700	4.005502e-06
86	0x34ff497d	4.755092e-07
87	0x385ee50b	5.3142237e-05
88	0x370373de	7.835186e-06
89	0x357264d2	9.029874e-07
90	0x365b4ab1	3.267702e-06
91	0x3638f0e2	2.7558349e-06
92	0x36935b21	4.39155e-06
93	0x36c2c8a8	5.80501e-06
94	0x35935753	1.0977768e-06
95	0x3722fbb7	9.714559e-06
96	0x36433cc9	2.9092646e-06
97	0x369b7b68	4.6337263e-06
98	0x3840937a	4.5913715e-05
99	0x356bf1a1	8.789594e-07
100	0x34a045ec	2.9853197e-07
101	0x3859e1f8	5.194728e-05
102	0x370d7c46	8.43319e-06
103	0x37acb776	2.0589428e-05
104	0x36c77c28	5.945116e-06
105	0x3630e52a	2.6359435e-06
106	0x3781f95e	1.5494119e-05
107	0x359319a3	1.0959815e-06
108	0x36f9a644	7.440134e-06
109	0x36e0d69e	6.700705e-06
110	0x36be374f	5.66888e-06
111	0x359003e4	1.0729968e-06
112	0x37dada22	2.6089201e-05
113	0x370decdf	8.459406e-06
114	0x35aa3708	1.2682003e-06
115	0x37ac88d2	2.056771e-05
116	0x35cd03fd	1.5274851e-06
117	0x382ec89a	4.1671658e-05
118	0x3721e9de	9.650799e-06
119	0x363adbf7	2.7844196e-06
120	0x37702917	1.4314682e-05
121	0x3553b70b	7.886999e-07
122	0x3781d83f	1.5478696e-05
123	0x371b87f9	9.2703785e-06
124	0x356991ef	8.7011625e-07
125	0x37085fe1	8.128555e-06
126	0x37b5e757	2.1684607e-05
127	0x3716e41f	8.99381e-06
